tutorials/input/clmbr_model/model.safetensors (safetensors, 317136 bytes, 15 tensors)

task_model.final_layer.bias f4 [64]
-0.11831368 0.021885129 0.11665592 0.009698431 -0.05650835 0.01523011 -0.06417138 -0.104111835
0.037834093 -0.073637985 -0.030876482 -0.036334183 0.10009781 0.020072097 0.047638115 0.043719795
0.02406603 -0.011415303 -0.10054512 -0.10952534 0.1097566 -0.024559444 -0.0153233865 -0.002316898
-0.082009695 -0.01802838 0.051574636 0.00509967 -0.045836147 0.069792755 0.046420727 -0.03156457
-0.019274354 -0.09676005 -0.008451563 0.094312035 0.02975206 -0.009927947 -0.046349563 0.1012019
0.008699076 0.026520405 -0.016023118 -0.040054306 0.092241794 0.024955941 0.057707917 -0.08703874
0.05752076 0.07788337 -0.09522818 -0.05965351 -0.05022775 0.10112171 -0.12237579 -0.05610548
0.029491141 -0.101544954 0.030341612 -0.06001776 0.039200537 -0.036243357 0.10154714 -0.04070974
00000000: 714e f2bd 7148 b33c 4de9 ee3d 2be6 1e3c
00000010: 4d75 67bd b687 793c 496c 83bd 9638 d5bd
00000020: ecf7 1a3d 83cf 96bd adf0 fcbc 27d3 14bd
00000030: 1500 cd3d 3d6e a43c 2f20 433d 8713 333d
00000040: 1f26 c53c 4007 3bbc 9aea cdbd d24e e0bd
00000050: 11c8 e03d e330 c9bc f10e 7bbc 19d7 17bb
00000060: b3f4 a7bd 41b0 93bc ed3f 533d 221b a73b
00000070: afbe 3bbd 81ef 8e3d a923 3e3d da49 01bd
00000080: 40e5 9dbc 222a c6bd 6d78 0abc ab26 c13d
00000090: 98ba f33c d4a8 22bc 0ad9 3dbd f142 cf3d
000000a0: 9286 0e3c 5241 d93c ea42 83bc fc0f 24bd
000000b0: 44e9 bc3d 6770 cc3c 235f 6c3d 5e41 b2bd
000000c0: e39a 6b3d 5181 9f3d fe06 c3bd 3d57 74bd
000000d0: 9dbb 4dbd e618 cf3d 28a0 fabd dcce 65bd
000000e0: 6897 f13c cdf6 cfbd f98e f83c 2fd5 75bd
000000f0: be90 203d ea73 14bd f2f7 cf3d 42bf 26bd

task_model.final_layer.weight f4 [64, 64]
0.077791 -0.0730675 -0.07789279 0.101277746 0.07351774 0.1048199 0.029538797 -0.009055741
-0.09519474 0.057948615 -0.02163728 -0.01901386 -0.096538916 0.04093052 0.082237706 0.109847784
-0.005245217 0.03433209 -0.049883664 0.09150473 -0.06656509 -0.021897884 0.06967452 0.0075868405
0.10234934 -0.03628785 0.01912761 -0.11085784 -0.03234936 -0.014158647 -0.11817991 0.065522335
0.033778403 0.05899653 -0.06886693 -0.044673845 -0.10474129 -0.014557211 0.04963586 -0.029318744
-0.011212977 -0.070336536 0.009639381 -0.045263283 -0.008719341 -0.015610537 0.011620355 -0.09420869
0.11750057 0.092853114 -0.11645573 -0.08170087 -0.0003301492 0.016632086 0.07560473 0.055842273
-0.11237127 -0.07116708 -0.001211378 -0.021443194 0.037407774 -0.02243804 -0.00661066 0.004089691
-0.050666783 0.059934936 -0.08637974 0.009258891 -0.017899934 -0.009664228 -0.031643704 -0.106350265
0.10683518 0.017216498 -0.058703594 0.08272304 0.011983176 0.010270787 -0.09303217 0.07182427
-0.05307184 0.036589816 0.10837605 0.09396315 0.030544512 0.071755335 0.039170444 -0.055226196
-0.031357568 0.049249623 -0.04807115 0.0974817 0.06601563 -0.040437438 -0.014874374 0.019125622
-0.11004819 0.07144189 -0.092813626 0.10452498 -0.1007223 0.04174381 0.06201853 -0.036535375
-0.11559189 0.025908459 0.1078746 -0.026606895 0.02108639 0.032996316 -0.0025911087 -0.1093582
0.12843412 -0.022816475 -0.0042929016 -0.0048845178 -0.0728163 0.04910753 -0.06281593 -0.03754743
-0.09058046 -0.03551273 0.08500421 -0.05229634 0.051492926 -0.009662325 0.06843716 0.117638476
0.1101314 0.04519596 0.06398036 -0.06144398 -0.08730001 -0.050561372 0.07325901 0.026125923
-0.09856313 0.100097 0.06377977 -0.07630009 0.00033091733 -0.094711855 -0.07839141 -0.09806812
-0.032466806 -0.1165258 -0.015682176 -0.063716225 -0.006388006 0.05835178 0.10870944 -0.12007228
-0.1054438 -0.020964207 -0.0693892 0.1093571 -0.083600596 -0.092992306 -0.060256194 0.11928846
-0.004210937 0.12697524 -0.029560594 -0.026481645 0.107406676 -0.032563634 -0.12157674 0.0153651275
0.023358965 0.10987385 -0.027725937 -0.11339921 -0.07653777 -0.008066001 0.074081585 -0.0039253472
-0.0696581 -0.03735361 -0.046070673 0.01099039 -0.09855464 0.08762967 0.10140908 0.05710658
0.07528195 0.07344137 -0.023664152 -0.114601605 0.0115372995 -0.0003166182 0.010752597 0.023373095
0.078609265 -0.046958428 -0.05624755 -0.06714473 0.110401645 -0.022021597 0.10967615 0.0038448528
0.047102094 0.104071535 0.07587617 -0.11846258 0.00044570887 -0.0005997806 0.02929978 -0.048207503
0.00038351127 -0.05910727 -0.06646026 -0.07586326 -0.045210507 -0.06490836 0.032518182 -0.10185142
-0.06539682 0.05790564 -0.013653404 0.024429364 -0.053814363 0.016655138 0.08147015 -0.02618819
0.08401428 -0.06373379 -0.022865457 -0.03483174 0.03308852 0.09577686 0.116720155 0.08954032
-0.06690982 0.0038816633 -0.017836235 -0.09470013 -0.032040104 0.034600407 -0.044906575 0.039122712
-0.06236986 0.09396136 0.029892879 -0.042468004 0.07364553 0.03559363 0.06700825 0.01404606
-0.06936959 -0.11548206 -0.017782541 0.036972642 -0.12505563 0.082193114 0.11664354 -0.044531416
00000000: e350 9f3d 6aa4 95bd 4186 9fbd b56a cf3d
00000010: 7890 963d d1ab d63d 59fb f13c 885e 14bc
00000020: 76f5 c2bd 875b 6d3d aa40 b1bc f4c2 9bbc
00000030: 32b6 c5bd c3a6 273d 3e6c a83d e0f7 e03d
00000040: 12e0 abbb ce9f 0c3d d052 4cbd d566 bb3d
00000050: 4753 88bd 3163 b3bc 84b1 8e3d 089b f83b
00000060: 889c d13d 92a2 14bd 81b1 9c3c 6f09 e3bd
00000070: c380 04bd abf9 67bc 4f08 f2bd 9330 863d
00000080: 395b 0a3d 58a6 713d 1b0a 8dbd ecfb 36bd
00000090: 9a82 d6bd 5e81 6ebc f94e 4b3d dd2d f0bc
000000a0: a2b6 37bc 9a0c 90bd 7fee 1d3c fe65 39bd
000000b0: 91db 0ebc 56c3 7fbc 4d63 3e3c 7cf0 c0bd
000000c0: 24a4 f03d c629 be3d 5780 eebd c952 a7bd
000000d0: e017 adb9 0340 883c a7d6 9a3d deba 643d
000000e0: e922 e6bd 0cc0 91bd 1ac7 9eba a3a9 afbc
000000f0: e538 193d fbcf b7bc 3c9e d8bb d102 863b
00000100: f987 4fbd 567e 753d dce7 b0bd 9bb2 173c
00000110: e2a2 92bc b656 1ebc d49c 01bd 2bce d9bd
00000120: 67cc da3d 9d09 8d3c 2e73 70bd b26a a93d
00000130: 1555 443c ce46 283c a687 bebd 9a18 933d
00000140: dc61 59bd 34df 153d 43f4 dd3d c16f c03d
00000150: 7c38 fa3c 76f4 923d 3071 203d dd34 62bd
00000160: cb70 00bd f9b9 493d 41e6 44bd 7ca4 c73d
00000170: 3433 873d baa1 25bd a5b3 73bc 56ad 9c3c
00000180: f260 e1bd 2050 923d 1215 bebd 3111 d63d
00000190: 7e47 cebd 8ffb 2a3d 2407 7e3d 1ea6 15bd
000001a0: 71bb ecbd fa3d d43c 5ced dc3d b4f6 d9bc
000001b0: 5dbd ac3c 2527 073d 97cf 29bb 31f7 dfbd
000001c0: 3c84 033e 9ee9 babc 78ab 8cbb 4e0e a0bb
000001d0: b620 95bd fa24 493d a3a5 80bd 55cb 19bd
000001e0: 4082 b9bd cc75 11bd b016 ae3d b034 56bd
000001f0: 3fea 523d ba4e 1ebc c828 8c3d 71ec f03d
00000200: 928c e13d 661f 393d 2308 833d afac 7bbd
00000210: 59ca b2bd 7119 4fbd d208 963d 0806 d63c
00000220: 77db c9bd a8ff cc3d f89e 823d 3943 9cbd
00000230: f97e ad39 4af8 c1bd ad8b a0bd f0d7 c8bd
00000240: eafb 04bd 14a5 eebd e877 80bc a77d 82bd
00000250: 7a52 d1bb 4702 6f3d 0ea3 de3d 75e8 f5bd
00000260: ebf2 d7bd 21bd abbc ed1b 8ebd 9ef6 df3d
00000270: ca36 abbd c072 bebd 33cf 76bd 824d f43d
00000280: e6fb 89bb cc05 023e 0f29 f2bc 09f0 d8bc
00000290: 08f8 db3d 7261 05bd 3afd f8bd 04be 7b3c
000002a0: 4d5b bf3c 8b05 e13d 8121 e3bc d83d e8bd
000002b0: d6bf 9cbd 4327 04bc 16b8 973d 33a0 80bb
000002c0: e8a8 8ebd 1900 19bd 9ab4 3cbd 0911 343c
000002d0: 04d7 c9bd 2f77 b33d 90af cf3d 97e8 693d
000002e0: 6c2d 9a3d 6e68 963d 53db c1bc 3fb4 eabd
000002f0: f106 3d3c c7ff a5b9 a92b 303c ef78 bf3c
00000300: e5fd a03d 7b57 40bd d563 66bd 2d83 89bd
00000310: 421a e23d a366 b4bc e49d e03d edf9 7b3b
00000320: 20ee 403d 7523 d53d f764 9b3d 829c f2bd
00000330: 08ae e939 983a 1dba 1806 f03c 3b75 45bd
00000340: 0312 c939 771a 72bd 511c 88bd 325e 9bbd
00000350: a72e 39bd adee 84bd c931 053d 7a97 d0bd
00000360: c5ee 85bd 772e 6d3d 87b2 5fbc 1720 c83c
00000370: 736c 5cbd 5b70 883c d2d9 a63d 9d88 d6bc
00000380: ae0f ac3d dc86 82bd 5750 bbbc baab 0ebd
00000390: d487 073d a926 c43d fa0a ef3d ea60 b73d
000003a0: 0408 89bd 8163 7e3b 4c1d 92bc 24f2 c1bd
000003b0: 7c3c 03bd 28b9 0d3d f5ef 37bd 233f 203d
000003c0: 8a77 7fbd d06e c03d e9e1 f43c eef2 2dbd
000003d0: 78d3 963d a0ca 113d 9f3b 893d 7221 663c
000003e0: a511 8ebd dc81 ecbd b1ac 91bc a070 173d
000003f0: 950e 00be dd54 a83d cfe2 ee3d 9366 36bd

transformer.embed.weight f4 [128, 64]
-0.6611972 0.7520153 1.7663722 0.4946477 -0.87130886 0.4494629 -0.026098836 0.3429168
-1.4958061 -0.15973672 0.80981463 0.18290606 -0.6362282 -0.8796073 1.3574351 -0.13086428
0.009800256 0.84815294 0.5961657 -0.5480297 -0.6085457 0.30051482 0.08236182 0.92678714
-1.4797665 -0.34831965 -1.481649 0.21503349 -2.20463 1.4987346 -0.98360205 -0.14482117
0.23345907 0.61837554 0.21903507 -0.43652895 -1.0318588 -3.0702274 -1.4852124 -0.63390255
0.40381005 2.1510081 -1.3474789 0.84207314 0.8224889 0.11418395 0.12493595 0.12871711
0.9535891 1.0723269 -1.5080808 0.3579073 0.8232275 -1.3324741 0.64977217 -0.8406218
-0.32781917 0.04163397 -1.1387281 0.9227098 -1.3875947 -1.0849606 1.4379747 -1.3968968
0.32658845 0.59911704 0.95804644 -0.14425662 -0.061324883 0.29235706 -0.7328096 0.37161812
0.66700095 0.09605495 -1.1513333 1.5534462 -0.06248044 2.4652777 -0.45663238 -0.6920772
-1.6297936 0.9617014 0.08987386 -0.41027227 -0.45384905 -0.16475804 1.5814896 -0.1804789
0.84573245 -0.49905884 0.7849738 -1.4404469 0.8307378 0.24288255 -0.13516963 -0.0387522
-1.0602086 -0.21990898 0.49534935 0.26697513 0.2504282 0.35044396 1.0068573 -0.020651445
0.63241017 -0.23736884 1.7334567 0.28546992 -0.28685698 -1.7298611 0.94091076 -0.10406352
1.0469828 0.27685267 -1.5660975 -0.6998376 1.8060778 0.27596 0.354132 -0.7893815
-0.12690273 -1.7598349 0.40910745 0.6693695 0.6464077 -0.2927398 -0.73360395 -1.1357099
0.8620035 -0.14832832 0.53256834 -1.5913652 0.3703006 -0.3899078 -1.1249086 0.7306662
0.105187535 -1.559231 -1.1496825 0.41435903 -1.0629624 0.04951532 -1.4181236 -1.5695127
1.1052146 0.00944857 -0.33255193 -0.054721393 -1.629364 0.05671742 -0.7076028 0.7929748
0.6248895 1.0181736 1.2101915 0.14651468 -0.23557724 0.33700413 1.5791597 -0.52969795
0.4012085 0.87619984 0.95824754 -1.0048562 -1.3146855 -0.5145513 -0.21011114 -1.0437107
0.7577891 -0.51718724 1.0182172 -1.0575397 0.47721732 1.1949998 -0.9028352 -0.6978731
1.2482625 0.09186155 0.27209008 -0.3906175 -1.1332487 2.0896678 -0.971467 -0.42275771
1.2641137 0.23486839 -1.9663368 -0.74483186 2.169755 1.2926235 1.4362773 -0.057491485
1.092404 1.8715928 -0.63257074 -0.46553278 0.085212484 0.69729465 0.82998043 -1.0975913
1.139683 0.2816799 0.470049 -1.3173162 -2.4609237 -0.4895399 -0.2864956 0.7037999
1.1218553 0.19475198 3.1714065 -0.07527121 0.605817 -0.48265153 -0.9721746 0.98418266
-1.3258364 1.2611628 1.9824834 2.523277 -1.7880744 -0.66867846 0.22702982 0.37705278
-0.35504285 0.06672484 0.25478175 0.1201458 0.7352045 0.1650346 -0.39437598 -0.64816695
1.1145838 1.394213 -0.1793625 -2.5362115 0.3547557 0.738778 0.27336994 0.9590965
-0.72725147 -1.2502958 -1.2737657 -0.01272795 0.98359156 0.27705115 0.37040234 -0.59980124
-0.75109863 0.80725396 0.021112414 -0.5619875 0.88470954 0.70050937 0.19402167 1.362518
00000000: 3844 29bf 1384 403f 7c18 e23f 7742 fd3e
00000010: 190e 5fbf 0020 e63e 3acd d5bc ca92 af3e
00000020: 9376 bfbf 0692 23be 0350 4f3f ba4b 3b3e
00000030: dadf 22bf f22d 61bf 6fc0 ad3f 4901 06be
00000040: 4191 203c 8d20 593f 519e 183f ad4b 0cbf
00000050: a7c9 1bbf 14dd 993e 50ad a83d ec41 6d3f
00000060: fd68 bdbf f456 b2be ada6 bdbf bd31 5c3e
00000070: a818 0dc0 89d6 bf3f 58cd 7bbf 004c 14be
00000080: e50f 6f3e dc4d 1e3f bb4a 603e b980 dfbe
00000090: f313 84bf 9b7e 44c0 711b bebf 7047 22bf
000000a0: 31c0 ce3e 1eaa 0940 307a acbf 1b92 573f
000000b0: a28e 523f 46d9 e93d 6bde ff3d 6bce 033e
000000c0: 6a1e 743f 0242 893f cb08 c1bf a03f b73e
000000d0: 0abf 523f 838e aabf 7857 263f fe32 57bf
000000e0: ead7 a7be 6288 2a3d d8c1 91bf b636 6c3f
000000f0: b49c b1bf fddf 8abf 8e0f b83f 84cd b2bf
00000100: 9a36 a73e bc5f 193f 8842 753f 02b8 13be
00000110: cd2f 7bbd d3af 953e 6999 3bbf bb44 be3e
00000120: 93c0 2a3f 75b8 c43d e45e 93bf 53d7 c63f
00000130: 7deb 7fbd 1cc7 1d40 b8cb e9be f92b 31bf
00000140: 149d d0bf 1032 763f c90f b83d 350f d2be
00000150: e75e e8be 55b6 28be 406e ca3f 76cf 38be
00000160: ec81 583f a484 ffbe 0bf4 483f 9060 b8bf
00000170: 3cab 543f 34b6 783e e869 0abe a0ba 1ebd
00000180: eab4 87bf d22f 61be 6e9e fd3e f7b0 883e
00000190: 2038 803e 646d b33e b3e0 803f 382d a9bc
000001a0: a2e5 213f d110 73be e9e1 dd3f 1d29 923e
000001b0: ebde 92be 176c ddbf 87df 703f 411f d5bd
000001c0: 8803 863f a2bf 8d3e e275 c8bf 8f28 33bf
000001d0: 8f2d e73f a14a 8d3e ca50 b53e e814 4abf
000001e0: caf2 01be 4542 e1bf 8876 d13e cd5b 2b3f
000001f0: fa7a 253f fee1 95be 78cd 3bbf f15e 91bf
00000200: 43ac 5c3f 61e3 17be 6656 083f dbb1 cbbf
00000210: 0a98 bd3e ffa1 c7be 01fd 8fbf f10c 3b3f
00000220: 906c d73d e294 c7bf cc28 93bf de26 d43e
00000230: 270f 88bf 94d0 4a3d 1385 b5bf cbe5 c8bf
00000240: ac77 8d3f 2dce 1a3c 3f44 aabe 8a23 60bd
00000250: 008f d0bf 8750 683d 7525 35bf 6600 4b3f
00000260: c2f8 1f3f 8353 823f 8ee7 9a3f f207 163e
00000270: 293b 71be ce8b ac3e e821 ca3f 499a 07bf
00000280: 336b cd3e a24e 603f b64f 753f 219f 80bf
00000290: 9d47 a8bf a2b9 03bf 6027 57be 5098 85bf
000002a0: 77fe 413f 6266 04bf f154 823f 765d 87bf
000002b0: d455 f43e c1f5 983f 3520 67bf d0a7 32bf
000002c0: 11c7 9f3f e921 bc3d 644f 8b3e 04ff c7be
000002d0: 4b0e 91bf 1ebd 0540 10b2 78bf b373 d8be
000002e0: 7ace a13f 5781 703e edb0 fbbf 4dad 3ebf
000002f0: 44dd 0a40 b074 a53f efd7 b73f 317c 6bbd
00000300: e5d3 8b3f 5a90 ef3f 28f0 21bf 505a eebe
00000310: e283 ae3d e781 323f 9979 543f df7d 8cbf
00000320: 22e1 913f 5938 903e 43aa f03e d19d a8bf
00000330: c67f 1dc0 f9a4 fabe 8daf 92be 3b2c 343f
00000340: f498 8f3f 106d 473e 53f8 4a40 cb27 9abd
00000350: d316 1b3f 1a1e f7be 6fe0 78bf 65f3 7b3f
00000360: 02b5 a9bf c86d a13f 04c2 fd3f 5f7d 2140
00000370: 9fdf e4bf 832e 2bbf 817a 683e 100d c13e
00000380: 2dc8 b5be 08a7 883d c172 823e 000f f63d
00000390: 5d36 3c3f d5fe 283e a6eb c9be 45ee 25bf
000003a0: afaa 8e3f 9275 b23f ceaa 37be 4a51 22c0
000003b0: 8aa2 b53e 8e20 3d3f 25f7 8b3e 5987 753f
000003c0: 272d 3abf b109 a0bf c10a a3bf e488 50bc
000003d0: a8cc 7b3f a6d9 8d3e 60a5 bd3e 938c 19bf
000003e0: 0048 40bf 32a8 4e3f f1f3 ac3c 6ade 0fbf
000003f0: 537c 623f 9554 333f 9ead 463e fd66 ae3f

transformer.in_norm.scale f4 [64]
0.9978746 0.9953346 1.0013483 1.0029157 0.99169254 1.0057492 1.0012192 0.9920673
0.99605507 0.99510473 0.994952 0.99742305 1.0003163 1.0060428 0.9960793 0.9954806
1.0020574 0.99514776 0.99261814 1.0019432 1.0038084 1.0002217 0.9965866 1.0023432
0.9921789 0.99929816 0.9945049 0.99779767 1.0058876 1.0046563 0.9932874 1.0000608
0.992001 0.99418545 0.9983627 1.0018449 0.99739677 1.0053734 0.9969268 0.99636525
0.9965707 0.99450123 0.994285 1.0057454 1.000777 0.99499595 0.9955909 0.99736905
0.99623144 0.99949175 0.9942898 1.0047404 0.99500114 0.9940393 0.9995512 1.00387
0.9979152 0.9924752 1.0050954 1.0056019 1.0042893 0.99493486 0.9930886 1.000111
00000000: b674 7f3f 40ce 7e3f 2e2c 803f 8b5f 803f
00000010: 90df 7d3f 64bc 803f f327 803f 1ff8 7d3f
00000020: 77fd 7e3f 2fbf 7e3f 2db5 7e3f 1e57 7f3f
00000030: 5d0a 803f 03c6 803f 0eff 7e3f d1d7 7e3f
00000040: 6b43 803f 01c2 7e3f 391c 7e3f ad3f 803f
00000050: cb7c 803f 4407 803f 4d20 7f3f c84c 803f
00000060: 70ff 7d3f 01d2 7f3f e097 7e3f ab6f 7f3f
00000070: edc0 803f 9498 803f 1548 7e3f fe01 803f
00000080: c7f3 7d3f f082 7e3f b394 7f3f 743c 803f
00000090: 6555 7f3f 13b0 803f 9836 7f3f cb11 7f3f
000000a0: 421f 7f3f a297 7e3f 7689 7e3f 44bc 803f
000000b0: 7619 803f 0eb8 7e3f 0cdf 7e3f 9453 7f3f
000000c0: 0609 7f3f b1de 7f3f c789 7e3f 559b 803f
000000d0: 65b8 7e3f 5c79 7e3f 96e2 7f3f d07e 803f
000000e0: 5f77 7f3f db12 7e3f f7a6 803f 90b7 803f
000000f0: 8d8c 803f 0db4 7e3f 0e3b 7e3f a303 803f

transformer.layers.0.input_proj.bias f4 [320]
0.07225717 0.027246576 -0.074027285 0.060721386 -0.08542162 -0.038431272 0.0020501444 -0.002794305
-0.09209903 -0.10988249 -0.005698077 -0.07864407 0.09242416 -0.0013514012 0.04499831 0.12684704
-0.07878921 0.060123786 -0.030741446 -0.026772127 0.07515636 -0.013571671 -0.11609659 0.007287144
-0.044950806 -0.10016423 0.062026918 0.09938795 0.0049365745 0.0699961 0.06678769 -0.090947226
-0.12400526 0.029481305 -0.08737763 0.008854641 -0.05777613 0.06636395 -0.069438346 -0.05753155
0.12062093 0.03898048 -0.113808155 0.09317185 0.0962025 0.052410774 0.096966535 0.032120943
0.12332261 -0.12028068 0.1111354 0.10602956 0.10796855 0.12381626 0.05508257 0.09097197
-0.028356357 -0.0030114108 0.0014123135 0.120735765 0.021993928 -0.021509303 -0.03466584 0.027217954
-0.039981563 -0.114931494 0.07059772 0.03789781 -0.02215384 -0.071842805 -0.023994697 -0.04197909
0.10103406 -0.0027776484 0.060339127 0.031302046 -0.056712236 0.02999265 0.014284052 -0.028334709
-0.04740833 0.019445736 -0.08695685 -0.04559417 -0.06927798 -0.080448225 -0.03927019 0.03302295
0.055136226 -0.109442584 -0.1107859 0.10703414 -0.12547068 -0.09021287 0.049953952 0.10266847
-0.09039871 0.045340583 -0.034674693 0.035650186 0.08525006 0.10342046 -0.018885218 -0.065088056
0.12886126 -0.08179089 0.11867237 0.045078166 0.009536867 -0.018503904 0.02910729 -0.12221761
0.009382677 0.012020075 0.08629014 -0.050742112 0.08026765 -0.04931165 -0.08200371 -0.024327055
0.11765799 0.051618878 0.001763292 -0.012663803 0.11830919 0.030786656 0.101198524 -0.039231196
0.06245506 0.096604735 -0.112975046 -0.035173606 -0.031351116 0.06800303 0.12508994 -0.092222035
-0.013720498 -0.10124079 -0.09324684 0.09788285 0.079207756 0.05017225 0.13039581 -0.03682268
0.10702542 0.0754379 -0.11343896 0.06405304 -0.05654504 0.10046641 0.057990797 0.05031478
-0.12621714 0.08295375 0.034145672 0.037989173 0.11498206 0.03869988 -0.10808721 -0.10151494
-0.065506294 -0.0179774 -0.05062001 0.101493135 -0.046694435 0.047683887 0.11881396 -0.044127323
-0.066584 -0.028643088 0.09846123 -0.0104257595 0.05060023 0.08510154 -0.09672394 -0.06742834
0.100031905 -0.040415443 0.023510061 -0.009045264 0.017357277 0.03653189 0.061041575 -0.103663735
0.11928717 0.037419084 -0.01778473 0.08219202 0.05445493 0.04543017 0.0060139876 -0.089076854
0.023479626 -0.062012006 -0.009235857 0.12794091 -0.015132245 -0.014067086 -0.025654636 -0.04898471
0.047602814 -0.11420995 0.0883343 0.022952544 -0.119325705 0.06700418 -0.09044149 0.03308098
0.020797001 -0.10769224 0.06713842 -0.086478665 -0.013242674 -0.07357545 -0.12589061 -0.03911313
0.024235202 0.114763364 0.011548508 0.10873244 -0.041380383 -0.040559 0.06475845 -0.06866193
0.07823546 0.11478477 0.08608237 -0.11220686 0.023058122 -0.101290904 -0.04868579 -0.09169156
0.0214257 -0.09469993 -0.03627124 0.06356266 -0.047502548 -0.030876826 0.054208692 0.013804309
0.050166298 -0.09156462 0.07695261 -0.041889064 -0.060642857 0.10629596 -0.12533717 0.017131655
0.045869436 0.082551695 0.034526486 -0.03581245 -0.063661486 -0.11817681 0.035053354 0.086548336
00000000: 91fb 933d 3634 df3c 9e9b 97bd fdb6 783d
00000010: 88f1 aebd 1c6a 1dbd b75b 063b a920 37bb
00000020: 6b9e bcbd 120a e1bd efb6 babb 2410 a1bd
00000030: e148 bd3d 8021 b1ba 2650 383d 31e4 013e
00000040: 3d5c a1bd 5c44 763d 7cd5 fbbc 3851 dbbc
00000050: 94eb 993d b75b 5ebc 0dc4 edbd ffc8 ee3b
00000060: 561e 38bd e722 cdbd f00f 7e3d e98b cb3d
00000070: fdc2 a13b 1e5a 8f3d fcc7 883d 8a42 babd
00000080: 78f6 fdbd c782 f13c 0bf3 b2bd 0e13 113c
00000090: aaa6 6cbd d3e9 873d b135 8ebd 34a6 6bbd
000000a0: 1b08 f73d ffa9 1f3d 4014 e9bd e2d0 be3d
000000b0: d105 c53d aeac 563d 6496 c63d 4091 033d
000000c0: 9190 fc3d b855 f6bd f59a e33d 0726 d93d
000000d0: 9d1e dd3d 6193 fd3d 439e 613d 834f ba3d
000000e0: 974b e8bc 175b 45bb 611d b93a 5044 f73d
000000f0: 9c2c b43c 4734 b0bc c5fd 0dbd 30f8 de3c
00000100: b5c3 23bd 3461 ebbd 8a95 903d bc3a 1b3d
00000110: f87b b5bc 5222 93bd 8790 c4bc 44f2 2bbd
00000120: f2ea ce3d 3509 36bb 2926 773d 9336 003d
00000130: 174b 68bd 25b3 f53c a807 6a3c 311e e8bc
00000140: 3d2f 42bd aa4c 9f3c 6f16 b2bd f4c0 3abd
00000150: 9de1 8dbd 0ac2 a4bd c7d9 20bd 1343 073d
00000160: 86d6 613d 6f23 e0bd b8e3 e2bd b734 db3d
00000170: 637b 00be 86c1 b8bd 849c 4c3d d943 d23d
00000180: f522 b9bd 0cb7 393d 0d07 0ebd ee05 123d
00000190: 9597 ae3d 1bce d33d 2cb5 9abc e34c 85bd
000001a0: 35f4 033e fb81 a7bd 800a f33d e2a3 383d
000001b0: 8540 1c3c 8095 97bc 6972 ee3c 3a4d fabd
000001c0: cdb9 193c d9ef 443c e3b8 b03d f6d6 4fbd
000001d0: 5e63 a43d 03fb 49bd 90f1 a7bd 8849 c7bc
000001e0: acf6 f03d 516e 533d 431e e73a d77b 4fbc
000001f0: 174c f23d 4c34 fc3c 2c41 cf3d e4b0 20bd
00000200: e1d0 7f3d b4d8 c53d 765f e7bd 3312 10bd
00000210: 076a 00bd 2c45 8b3d 9417 003e e8de bcbd
00000220: f1cb 60bc 5557 cfbd 33f8 bebd ce76 c83d
00000230: ad37 a23d 6b81 4d3d 7b86 053e 61d3 16bd
00000240: 2530 db3d 307f 9a3d af52 e8bd 3e2e 833d
00000250: c69b 67bd 55c1 cd3d c287 6d3d df16 4e3d
00000260: 113f 01be a8e3 a93d 55dc 0b3d 899a 1b3d
00000270: b77b eb3d c483 1e3d d45c ddbd 11e7 cfbd
00000280: 2a28 86bd 5745 93bc ed56 4fbd a2db cf3d
00000290: aa42 3fbd 2e50 433d bc54 f33d dabe 34bd
000002a0: 315d 88bd e9a4 eabc 0ba6 c93d ced0 2abc
000002b0: 3042 4f3d b749 ae3d 3317 c6bd df17 8abd
000002c0: 87dd cc3d aa8a 25bd 2c98 c03c 9632 14bc
000002d0: d930 8e3c 77a2 153d bb06 7a3d a74d d4bd
000002e0: d54c f43d c144 193d 48b1 91bc 4a54 a83d
000002f0: 220c 5f3d fc14 3a3d fc10 c53b ed6d b6bd
00000300: 5858 c03c 4d00 7ebd fe51 17bc f102 033e
00000310: 3ced 77bc a379 66bc ac29 d2bc 31a4 48bd
00000320: 2bfb 423d e8e6 e9bd 9de8 b43d f906 bc3c
00000330: 0961 f4bd 7d39 893d 6339 b9bd ec7f 073d
00000340: 795e aa3c c08d dcbd de7f 893d ba1b b1bd
00000350: cdf7 58bc baae 96bd 78e9 00be 1735 20bd
00000360: e788 c63c 0e09 eb3d f435 3d3c 1daf de3d
00000370: 7a7e 29bd 3221 26bd 14a0 843d a09e 8cbd
00000380: ea39 a03d 4714 eb3d f44b b03d b6cc e5bd
00000390: 63e4 bc3c 9b71 cfbd c06a 47bd c9c8 bbbd
000003a0: f384 af3c 09f2 c1bd 2791 14bd 242d 823d
000003b0: 0892 42bd 66f1 fcbc ef09 5e3d 782b 623c
000003c0: 2d7b 4d3d 3b86 bbbd 5499 9d3d de93 2bbd
000003d0: a564 78bd b2b1 d93d 6358 00be af57 8c3c
000003e0: 97e1 3b3d dd10 a93d a56b 0d3d 13b0 12bd
000003f0: f460 82bd af06 f2bd 1b94 0f3d 4140 b13d

transformer.layers.0.input_proj.weight f4 [320, 64]
0.082167186 -0.07802199 0.024082668 -0.034322 0.038627855 -0.05137249 0.002641169 0.043118097
-0.12214981 -0.08668791 -0.001110424 0.049279917 -0.017984368 -0.014582532 -0.011354911 -0.00020810588
0.057375234 0.10358367 -0.058399238 -0.10388688 -0.0043127034 -0.115079604 0.06979759 0.00550143
0.008006723 -0.039983384 -0.034479477 -0.0033972664 0.06942107 -0.019752797 -0.10061737 -0.09940756
0.120610215 -0.02145513 0.05390854 -0.016882202 0.10198629 0.027697371 0.043885965 -0.0055843387
0.09840639 -0.04864236 0.107411996 -0.07155094 -0.085481375 0.0045653237 0.03678277 0.002200002
0.014920027 -0.10857491 -0.006993876 0.042034417 -0.03595153 -0.015966142 -0.07561065 0.11447843
-0.12205482 -0.12174218 0.042164832 -0.10684185 0.011063783 0.10555295 -0.0638445 0.0920299
-0.09027841 0.08237879 -0.061385464 -0.09397603 0.004629887 -0.071011685 -0.07515524 0.12629312
0.008986191 -0.04102919 -0.112841405 -0.109417714 -0.108481176 -0.06709773 -0.06758473 0.11878582
-0.09397765 -0.08891967 -0.02277009 0.06353375 -0.037987553 0.08394527 0.053090442 -0.05467989
-0.08490208 -0.0879117 -0.11278394 -0.06676936 0.001643293 -0.019509215 0.017482284 0.0792779
-0.09691841 0.068123974 -0.039949544 0.042204175 -0.09982968 0.09045777 0.03146756 0.02833281
-0.09057104 0.10928148 -0.118617445 -0.04782878 -0.043542847 -0.09498044 -0.015509987 0.102069095
0.008253984 0.041259907 0.105855756 0.019963164 0.06134357 0.09440149 -0.103247404 -0.03986548
0.047261886 0.030573292 -0.00071750174 -0.06992887 -0.099757075 -0.007105703 -0.06373175 0.011214974
-0.017580839 0.08605395 0.09132115 0.018544756 -0.090495825 0.04746207 0.100568764 0.011525345
-0.10972972 -0.11553554 0.027729157 0.09134622 0.11279171 -0.11602737 -0.05583874 0.016559264
0.08550613 0.121893585 -0.07782794 -0.087000236 0.04253787 0.0014657208 0.018220033 0.07856509
-0.0686456 -0.028356554 -0.04206819 0.048611272 -0.017879108 0.042749975 -0.06121195 -0.027304089
-0.10524961 -0.12431553 -0.075215064 0.007864397 0.0731396 -0.076508164 0.11630336 0.08553946
-0.0595413 -0.016363576 0.09528306 0.034375243 -0.047503233 0.075298905 0.057739384 0.053987123
-0.07281085 -0.024829885 -0.059405368 -0.030286467 0.024137095 0.026425375 0.08821787 0.035151035
0.05289592 -0.0941674 -0.056156926 -0.032112285 0.09129764 -0.041580386 0.056741755 0.0691131
-0.09371975 0.020000162 0.07674738 0.120492205 -0.12088157 0.018399226 -0.11679796 -0.09482135
-0.053464208 -0.03786303 -0.05136446 -0.0717724 0.016274195 -0.045831114 0.0024351755 -0.059428867
0.098898865 -0.07120032 0.12509832 0.0033387835 0.07685802 0.058399785 0.016313644 0.050635666
-0.09273523 -0.0465191 -0.11123191 0.07040173 0.11879465 -0.10410243 -0.11999691 0.06807844
-0.11541384 0.0038031323 -0.056271754 0.068568245 -0.12589176 -0.039080113 -0.040059082 0.031925645
-0.086895965 -0.081423104 -0.115428455 0.086807445 0.08069168 0.035633907 -0.03575545 0.00505364
-0.0073244586 0.023006506 0.10779123 0.06062601 0.0073554744 -0.034761064 0.04956317 0.09539343
0.06543792 -0.07468352 0.0022663658 -0.09449193 0.019421645 0.031509418 0.0003609734 -0.11894759
00000000: 4547 a83d fec9 9fbd 0449 c53c 3a95 0cbd
00000010: 3e38 1e3d f66b 52bd 7617 2d3b 9a9c 303d
00000020: ae29 fabd 6e89 b1bd a68b 91ba bdd9 493d
00000030: f453 93bc 93eb 6ebc f309 3abc ff36 5ab9
00000040: 4b02 6b3d ad23 d43d 0a34 6fbd a5c2 d4bd
00000050: 9451 8dbb dbae ebbd 0af2 8e3d 5745 b43b
00000060: a12e 033c 9ec5 23bd 5a3a 0dbd aca4 5ebb
00000070: a22c 8e3d 9ed0 a1bc 7b10 cebd 3196 cbbd
00000080: 7d02 f73d abc2 afbc 34cf 5c3d 8b4c 8abc
00000090: 30de d03d 99e5 e23c c5c1 333d d4fc b6bb
000000a0: 4a89 c93d 363d 47bd d2fa db3d 4d89 92bd
000000b0: dc10 afbd b698 953b 88a9 163d e92d 103b
000000c0: 2173 743c 865c debd e22c e5bb 482c 2c3d
000000d0: e941 13bd 6dcb 82bc c2d9 9abd ab73 ea3d
000000e0: e1f7 f9bd f753 f9bd 08b5 2c3d e6cf dabd
000000f0: df44 353c 252c d83d e8c0 82bd 2c7a bc3d
00000100: e3e3 b8bd 36b6 a83d 536f 7bbd 8176 c0bd
00000110: 4fb6 973b 936e 91bd feea 99bd fc52 013e
00000120: d13a 133c 390e 28bd 6519 e7bd 6516 e0bd
00000130: 612b debd 896a 89bd dd69 8abd fb45 f33d
00000140: 5b77 c0bd 841b b6bd 5788 babc fc1d 823d
00000150: d698 1bbd 7feb ab3d 5d75 593d 05f8 5fbd
00000160: 24e1 adbd 0d0b b4bd 44fb e6bd 60be 88bd
00000170: c363 d73a cad1 9fbc 0237 8f3c 745c a23d
00000180: 297d c6bd 9584 8b3d 22a2 23bd 49de 2c3d
00000190: 8173 ccbd ec41 b93d 21e4 003d 361a e83c
000001a0: 4f7d b9bd f8ce df3d b4ed f2bd 1ce8 43bd
000001b0: fc59 32bd 1b85 c2bd 9a1d 7ebc 9a09 d13d
000001c0: b83b 073c 2600 293d e7ca d83d ca89 a33c
000001d0: 6543 7b3d 9255 c13d 6073 d3bd fc49 23bd
000001e0: ae95 413d d774 fa3c ba16 3cba de36 8fbd
000001f0: 704d ccbd f5d6 e8bb cb85 82bd 03bf 373c
00000200: b105 90bc 0e3d b03d 9506 bb3d 2ceb 973c
00000210: e055 b9bd 9667 423d fff6 cd3d cdd4 3c3c
00000220: fab9 e0bd e69d ecbd 4228 e33c ba13 bb3d
00000230: 57ff e63d c29f edbd 2ab7 64bd 4ba7 873c
00000240: d61d af3d 58a3 f93d 4164 9fbd 2e2d b2bd
00000250: 313c 2e3d 6e1d c03a 2e42 953c bce6 a03d
00000260: 1096 8cbd 014c e8bc b24f 2cbd 9d1c 473d
00000270: 3577 92bc 991a 2f3d 62b9 7abd d3ac dfbc
00000280: 1c8d d7bd 2499 febd 5b0a 9abd acd9 003c
00000290: 37ca 953d 50b0 9cbd 7530 ee3d 502f af3d
000002a0: 94e1 73bd e80c 86bc c423 c33d 0ecd 0c3d
000002b0: c092 42bd 5036 9a3d 2280 6c3d 9a21 5d3d
000002c0: db1d 95bd 0b68 cbbc 0b53 73bd 531b f8bc
000002d0: 28bb c53c 077a d83c 92ab b43d 88fa 0f3d
000002e0: 64a9 583d d6da c0bd ce04 66bd 2c88 03bd
000002f0: 42fa ba3d 3250 2abd 0b6a 683d 2b8b 8d3d
00000300: 24f0 bfbd 61d7 a33c bb2d 9d3d 9ec4 f63d
00000310: c290 f7bd f9b9 963c c533 efbd b231 c2bd
00000320: 49fd 5abd 4416 1bbd 8a63 52bd 68fd 92bd
00000330: 7651 853c 68b9 3bbd 7797 1f3b af6b 73bd
00000340: 7d8b ca3d 79d1 91bd c619 003e 7ecf 5a3b
00000350: bd67 9d3d 9d34 6f3d 31a4 853c 5867 4f3d
00000360: f8eb bdbd d08a 3ebd 8ecd e3bd c82e 903d
00000370: 9c4a f33d a833 d5bd f1c0 f5bd b66c 8b3d
00000380: 175e ecbd f93d 793b 367d 66bd 826d 8c3d
00000390: c5e9 00be 7812 20bd fe14 24bd 77c4 023d
000003a0: 83f6 b1bd 28c1 a6bd c165 ecbd 1ac8 b13d
000003b0: ae41 a53d dcf4 113d 4f74 12bd 0199 a53b
000003c0: 0302 f0bb 2478 bc3c a6c1 dc3d fb52 783d
000003d0: 3106 f13b 9e61 0ebd c002 4b3d a15d c33d
000003e0: 5104 863d acf3 98bd 4f87 143b fc84 c1bd
000003f0: 241a 9f3c 0510 013d 0841 bd39 cb9a f3bd

transformer.layers.0.norm.scale f4 [64]
1.0026504 1.0052828 1.0057243 1.0081547 1.0050337 1.0066832 1.0061425 1.0078652
1.0070683 1.0025362 1.0028772 0.9981646 0.9985163 1.0063068 1.0073402 1.0087205
1.0004666 1.004851 1.0007089 1.0088255 1.0043101 1.0019839 1.0082035 1.0072677
1.0060647 0.999717 1.0052571 1.0076473 1.0014942 1.0022465 1.0051014 1.0076381
1.001535 0.9975033 1.006154 1.005204 1.0083998 1.0041288 1.0031021 1.0016232
1.0067582 1.0040301 1.0080132 0.99898815 0.9999527 0.99836993 1.0016018 0.99727446
1.0044895 1.0014374 1.0046202 1.0051227 0.9988147 1.0055487 1.0077978 1.0058694
1.0028163 1.0015287 1.0085719 1.0067902 1.0069981 1.0071405 0.99939847 1.0055729
00000000: d956 803f 1bad 803f 93bb 803f 370b 813f
00000010: f2a4 803f ffda 803f 47c9 803f ba01 813f
00000020: 9de7 803f 1b53 803f 485e 803f b787 7f3f
00000030: c49e 7f3f a9ce 803f 86f0 803f c11d 813f
00000040: 4a0f 803f f59e 803f 3b17 803f 3221 813f
00000050: 3c8d 803f 0241 803f d00c 813f 26ee 803f
00000060: bac6 803f 74ed 7f3f 44ac 803f 96fa 803f
00000070: f630 803f 9d49 803f 2aa7 803f 49fa 803f
00000080: 4d32 803f 605c 7f3f a7c9 803f 86aa 803f
00000090: 3f13 813f 4b87 803f a665 803f 3035 803f
000000a0: 74dd 803f 0f84 803f 9406 813f b0bd 7f3f
000000b0: e6fc 7f3f 2c95 7f3f 7d34 803f 614d 7f3f
000000c0: 1d93 803f 1a2f 803f 6597 803f dca7 803f
000000d0: 52b2 7f3f d2b5 803f 85ff 803f 54c0 803f
000000e0: 495c 803f 1832 803f e218 813f 80de 803f
000000f0: 50e5 803f fbe9 803f 94d8 7f3f 9db6 803f

transformer.layers.0.output_proj.bias f4 [64]
0.060700912 -0.045957096 0.016266614 0.036339477 0.017018555 0.049747556 0.017537836 0.05549079
0.05864091 0.007765534 -0.064061485 -0.0028665238 0.036451425 -0.013961089 -0.07361048 0.0035885393
-0.019663464 0.056371287 -0.052263614 0.06310205 0.030902358 0.05096527 0.061185766 0.044392213
0.019124761 0.024179777 0.059276406 0.06711597 -0.037328165 0.06844952 -0.027892584 0.032769594
0.04212413 -0.02356621 -0.05435953 0.018519534 -0.05347229 0.059603043 -0.02336377 0.06097325
-0.06816537 -0.011913238 0.007581646 -0.051207982 0.05315315 -0.06863104 0.06577585 -0.017053448
0.024578147 0.056951262 -0.014204322 0.028819142 0.033988394 0.011914984 -0.046351627 0.005494834
0.06207758 -0.025567017 0.002133968 0.017731499 0.023713775 -0.036721982 0.069642484 -0.014006363
00000000: 85a1 783d 823d 3cbd 9041 853c b4d8 143d
00000010: 7f6a 8b3c 18c4 4b3d 82ab 8f3c 504a 633d
00000020: 7331 703d 0576 fe3b ab32 83bd 4adc 3bbb
00000030: 174e 153d 0dbd 64bc 17c1 96bd b32d 6b3b
00000040: 4615 a1bc 94e5 663d 5f12 56bd a63b 813d
00000050: f126 fd3c f5c0 503d ed9d 7a3d 9cd4 353d
00000060: 88ab 9c3c ab14 c63c d1cb 723d 1974 893d
00000070: 6be5 18bd 432f 8c3d fd7e e4bc 6939 063d
00000080: 5a8a 2c3d ed0d c1bc 19a8 5ebd 47b6 973c
00000090: c305 5bbd 5222 743d 6165 bfbc 16bf 793d
000000a0: 499a 8bbd be2f 43bc 756f f83b 76bf 51bd
000000b0: 1eb7 593d 6e8e 8cbd 7db5 863d acb3 8bbc
000000c0: 1c58 c93c ba45 693d 3fb9 68bc 1f16 ec3c
000000d0: 6a37 0b3d 1137 433c 34db 3dbd 020e b43b
000000e0: 0f45 7e3d ec71 d1bc 0bda 0b3b a641 913c
000000f0: 6443 c23c ca69 16bd b8a0 8e3d f27a 65bc

transformer.layers.0.output_proj.weight f4 [64, 192]
0.020438448 0.0067758695 0.025682863 0.05839237 -0.039643925 0.069512665 -0.0124286255 -0.050582215
0.01212445 0.038877677 -0.06564793 0.045349065 -0.048422985 -0.07724928 0.044011053 0.009347623
0.07177641 0.0058094603 -0.04313799 -0.028880157 0.05866586 0.07289927 0.042331398 -0.06085443
-0.04168277 -0.059835833 -0.009293462 -0.017229004 -0.012189415 0.0067320555 -0.03633619 -0.011875826
-0.04228212 -0.03733546 -0.071372375 0.032576356 0.042789135 -0.0033313518 -0.05105096 -0.03197173
0.017710937 0.061373908 0.042518444 0.039200973 -0.004807567 -0.026965708 0.0036273599 -0.010701194
0.059556436 0.043567985 0.038608346 -0.031723417 0.0050633173 -0.04164199 -0.05612153 0.041324414
-0.00742035 -0.01616559 0.025882544 -0.028100852 0.02207254 -0.05127022 -0.046058923 -0.05673708
0.023786232 -0.030216847 0.004234642 -0.03559509 -0.028329471 0.041774433 -0.011071895 -0.039869785
-0.05459994 0.0540361 0.028741425 0.0027683738 -0.046586644 -0.0050181267 0.033267453 0.05710944
0.017874723 -0.0031857681 -0.0102504175 0.06385079 -0.024226302 -0.00966202 0.020149093 0.03155277
-0.0075444276 0.055421643 0.060622334 -0.05183027 0.043816637 0.002403701 0.022968903 0.03568479
0.03574457 0.034424435 -0.04252289 0.07449798 -0.010943173 -0.0738896 0.036137003 0.051112227
0.034493603 -0.01121373 -0.033837393 -0.03793314 0.04579537 -0.026917052 -0.03742467 0.04715854
0.047972944 -0.017460471 0.06053494 0.03222694 0.0013228358 0.054690164 -0.029432584 -0.014955878
-0.039344046 -0.056371152 0.06669574 -0.014098218 0.04806682 -0.050178 -0.010442538 -0.020070946
-0.0002186706 0.061151035 0.045248978 0.015585919 -0.011409471 -0.036654446 -0.049008902 0.043223504
0.043130316 0.016894639 -0.033366553 0.024441868 -0.031074462 0.03429354 0.07724549 -0.038751785
0.046386342 0.06284265 -0.0109217465 -0.03264852 -0.005132074 -0.03394354 -0.04223106 -0.023373112
-0.06447376 -0.032723524 0.028198054 0.001869549 0.006345323 0.051220022 0.03237802 -0.028455181
-0.06434584 -0.010606466 -0.029549643 -0.03730214 -0.021893563 -0.061090525 0.0058412687 -0.013547524
-0.025163218 0.056289088 0.0016727425 -0.04344455 -0.036851432 -0.023097007 0.009352251 0.030860351
0.04431016 -0.017526653 0.06789763 0.06828446 0.040976603 0.024303894 -0.038288992 -0.037102684
-0.032236844 -0.0354349 0.017172564 -0.0569548 0.061249733 0.0414239 -0.022529513 -0.032062
-0.00031855382 0.0015026942 -0.03784774 -0.057918064 -0.0042047617 0.07283091 -0.060278222 -0.022627681
0.04629803 -0.0030675868 -0.020901052 -0.06303377 0.049125865 -0.028168064 0.005976781 -0.062598415
-0.016456086 0.033544023 0.042228527 0.04612688 0.010933067 0.005132329 0.04479231 -0.055243142
0.0032968465 0.044057585 0.06376368 0.032783344 0.0010700596 -0.040552568 -0.06503425 -0.028039329
0.027416069 0.02574902 0.036016203 0.009137038 -0.028000014 0.05066722 -0.049579617 -0.055678707
-0.07177592 0.026574206 0.06691218 0.05181741 -0.050566837 0.05696776 -0.0004263406 -0.0004707644
0.004303721 -0.06857428 0.06578918 0.06427952 -0.034464054 0.0010306274 0.06673813 0.02214261
-0.0015321597 -0.06693269 0.020749027 -0.054446757 -0.06817627 0.050217625 -0.02462335 0.05825111
00000000: 886e a73c 1d08 de3b de64 d23c d62c 6f3d
00000010: ab61 22bd a85c 8e3d 6fa1 4bbc 4c2f 4fbd
00000020: a1a5 463c 333e 1f3d 6c72 86bd f1bf 393d
00000030: 2e57 46bd df34 9ebd ef44 343d c626 193c
00000040: 83ff 923d 495d be3b 76b1 30bd 1496 ecbc
00000050: 9d4b 703d 364c 953d b063 2d3d 7f42 79bd
00000060: 8dbb 2abd 6b16 75bd 9b43 18bc d723 8dbc
00000070: 1db6 47bc 9398 dc3b 42d5 14bd d392 42bc
00000080: 0430 2dbd 11ed 18bd ae2b 92bd c96e 053d
00000090: a943 2f3d cf52 5abb d01a 51bd caf4 02bd
000000a0: 8716 913c 3563 7b3d d227 2e3d 3391 203d
000000b0: cc88 9dbb 30e7 dcbc 00b9 6d3b 1054 2fbc
000000c0: 73f1 733d 5874 323d c923 1e3d 6af0 01bd
000000d0: 2fea a53b cb90 2abd b0df 65bd ca43 293d
000000e0: 6826 f3bb b36d 84bc a107 d43c c233 e6bc
000000f0: 79d1 b43c b900 52bd 48a8 3cbd 2465 68bd
00000100: 58db c23c 5289 f7bc c0c2 8a3b 28cc 11bd
00000110: 3513 e8bc ab1b 2b3d e566 35bc 804e 23bd
00000120: 30a4 5fbd f554 5d3d 2373 eb3c 9b6d 353b
00000130: a3d1 3ebd 196f a4bb 7443 083d 97eb 693d
00000140: 036e 923c 52c8 50bb 5ef1 27bc 34c4 823d
00000150: 3d76 c6bc 734d 1ebc b60f a53c 7a3d 013d
00000160: 3f37 f7bb ce01 633d 204f 783d fa4b 54bd
00000170: 1379 333d 6987 1d3b 4829 bc3c 372a 123d
00000180: e668 123d a300 0d3d 7b2c 2ebd 6692 983d
00000190: ff4a 33bc 6e53 97bd 6504 143d 0e5b 513d
000001a0: 2a49 0d3d cbb9 37bc 1499 0abd c85f 1bbd
000001b0: ed93 3b3d 2681 dcbc 9c4a 19bd 5029 413d
000001c0: 477f 443d 4309 8fbc 7cf3 773d 6500 043d
000001d0: 0163 ad3a cb02 603d 9a1c f1bc 8009 75bc
000001e0: 3927 21bd 70e5 66bd c797 883d 36fc 66bc
000001f0: b7e1 443d 7287 4dbd 2e17 2bbc d36b a4bc
00000200: f14a 65b9 8279 7a3d fe56 393d 155c 7f3c
00000210: caee 3abc f922 16bd 8fbd 48bd 210b 313d
00000220: 6aa9 303d a066 8a3c 5eab 08bd 503a c83c
00000230: df8f febc 6277 0c3d e232 9e3d 31ba 1ebd
00000240: 9bff 3d3d a6b3 803d 20f1 32bc 74ba 05bd
00000250: f52a a8bb 6208 0bbd 7afa 2cbd f878 bfbc
00000260: d20a 84bd 1a09 06bd 9bff e63c a80b f53a
00000270: 6dec cf3b 16cc 513d d19e 043d d71a e9bc
00000280: c0c7 83bd bec6 2dbc 1812 f2bc 21ca 18bd
00000290: 215a b3bc 0f3a 7abd 1d68 bf3b 6ff6 5dbc
000002a0: 1823 cebc 638f 663d ed3f db3a eaf2 31bd
000002b0: 87f1 16bd ef35 bdbc 2f3a 193c d9ce fc3c
000002c0: 927e 353d 0e94 8fbc ea0d 8b3d b9d8 8b3d
000002d0: 15d7 273d f618 c73c ebd4 1cbd fcf8 17bd
000002e0: c80a 04bd 3024 11bd 7aad 8c3c 7049 69bd
000002f0: 00e1 7a3d 1bac 293d d08f b8bc 7253 03bd
00000300: 9203 a7b9 0df6 c43a 3b06 1bbd 7e3b 6dbd
00000310: 19c8 89bb 5f28 953d 4ce6 76bd b05d b9bc
00000320: 01a3 3d3d 9109 49bb af38 abbc d917 81bd
00000330: 3438 493d b6c0 e6bc dfd8 c33b 9933 80bd
00000340: eace 86bc 7565 093d d2f7 2c3d 8aef 3c3d
00000350: 9b20 333c 192d a83b 2478 373d a246 62bd
00000360: e80f 583b ba75 343d 8896 823d d447 063d
00000370: 3e41 8c3a 731a 26bd ad30 85bd bcb2 e5bc
00000380: aa97 e03c 9cef d23c ba85 133d 84b3 153c
00000390: 4960 e5bc 6e88 4f3d ff13 4bbd 5b0f 64bd
000003a0: 41ff 92bd 26b2 d93c 4109 893d 7e3e 543d
000003b0: 2c1f 4fbd 0757 693d 7786 dfb9 eed0 f6b9
000003c0: 3a06 8d3b ac70 8cbd 7abc 863d fba4 833d
000003d0: 2e2a 0dbd 1e16 873a 00ae 883d 6b64 b53c
000003e0: c0d2 c8ba 0214 89bd ddf9 a93c 9003 5fbd
000003f0: 00a0 8bbd ffb0 4d3d e8b6 c9bc b798 6e3d

transformer.layers.1.input_proj.bias f4 [320]
0.07758186 -0.037079565 -0.11973211 -0.07235732 -0.10661862 0.029242404 -0.05505598 -0.05161185
-0.12427876 -0.027331911 -0.09994568 0.10139708 -0.03655557 0.0022384848 0.08331884 -0.04217506
-0.0074753277 -0.021524498 0.10817958 0.027887827 -0.058081053 0.017648527 0.07654866 -0.11930671
-0.12076493 -0.086407766 0.070708744 0.073355965 0.10802109 0.04296145 0.119382754 -0.068729274
-0.07685047 -0.117263004 0.0510097 -0.075387 -0.12339355 -0.063239664 -0.04231793 0.029299462
0.04048157 -0.06506139 0.114025936 0.027847134 -0.024611052 -0.0073455754 -0.10077897 0.029837161
-0.004609051 -0.00072107755 -0.061247773 -0.06552035 0.04036 0.051406693 0.016748909 0.11235046
0.0045782602 -0.013113551 0.00996731 -0.052774422 -0.046791483 0.021986935 -0.051460862 0.0859869
-0.051902223 -0.026134852 -0.024081092 0.09763669 0.045115598 -0.010489519 0.087602876 0.032773826
-0.115474015 0.10629665 -0.0014870297 0.06543184 -0.10782039 -0.123734824 0.12179239 0.061230168
-0.09319491 0.03766043 -0.077716276 -0.059454437 0.0786782 -0.09043174 0.030862808 -0.07261201
-0.036399532 0.096244015 0.1024225 0.11478371 -0.04452597 -0.116795175 -0.109381266 0.11909511
0.008769098 0.052113585 0.033369947 -0.063667245 -0.030913869 0.10766766 0.02022093 -0.026480481
-0.023751136 0.046726104 0.04168218 -0.028054528 0.039865535 0.0006381099 0.07314401 -0.0439492
0.091019765 -0.027623124 -0.10268589 -0.120239414 0.05215128 0.1163053 -0.024967423 0.11938118
0.1145302 -0.11616838 -0.12676424 0.0057860566 0.048766665 0.10700717 0.10241624 -0.09866987
0.0030249848 -0.09960608 -0.072395384 -0.01274679 0.09520159 0.118117996 -0.032762036 0.109378
-0.050015833 0.031991083 -0.023080736 0.017830221 0.06745096 -0.0015525512 -0.06308567 0.07391403
0.05521445 0.041362345 0.03701495 -0.0983294 0.003313142 -0.07539963 0.013305278 0.08410461
0.075183645 0.07094569 0.08541987 0.013937882 -0.07327122 -0.030352589 -0.116119914 -0.11627884
0.041923083 0.076176375 -0.05411823 0.108861744 0.0028476433 -0.07600803 0.0041548237 -0.016446257
0.10627072 -0.122785956 -0.07764162 -0.109203115 0.10219404 0.031382702 0.1032854 0.07400118
-0.060803387 -0.114701174 0.09120855 -0.074594595 0.04832189 -0.060679846 0.013387677 -0.07036894
-0.033275757 -0.10880188 0.0717544 -0.03722581 0.10660277 -0.102026105 0.12227138 -0.074674636
-0.007610128 -0.047282003 0.057856828 0.08960258 -0.017365638 0.019908858 -0.036786772 -0.052919824
-0.0977162 -0.070696935 0.119550586 0.025757795 -0.11973561 -0.023529489 0.101876915 -0.106349334
0.122857854 0.09102591 -0.06937541 0.008517402 0.07725792 0.059295435 0.03732859 -0.069427796
0.1251869 0.025371218 -0.10123825 -0.0773603 -0.0048470115 0.0318013 0.050078403 0.11510326
-0.11463315 -0.0857568 0.0020805164 -0.08611785 -0.11545103 -0.086598165 -0.017522834 0.11415236
-0.022950444 -0.11208235 0.05780546 0.069231465 0.06965742 0.021820115 -0.096504316 -0.057022516
-0.11626408 0.029308995 -0.063095964 -0.104973465 -0.09111098 0.030527037 -0.07844091 0.12156385
0.073414296 -0.016133869 -0.06962919 0.07900964 0.0872478 -0.12322366 0.026692843 -0.09760221
00000000: 3de3 9e3d bee0 17bd 1c36 f5bd 1330 94bd
00000010: dd5a dabd c48d ef3c 6182 61bd f266 53bd
00000020: dd85 febd 2ce7 dfbc 52b0 ccbd 46a9 cf3d
00000030: 4bbb 15bd 8bb3 123b 11a3 aa3d c1bf 2cbd
00000040: 98f3 f4bb 2554 b0bc 418d dd3d 0375 e43c
00000050: 66e6 6dbd a593 903c 8bc5 9c3d 1457 f4bd
00000060: 9b53 f7bd 8ef6 b0bd bfcf 903d a73b 963d
00000070: 293a dd3d 58f8 2f3d f27e f43d efc1 8cbd
00000080: c763 9dbd 9627 f0bd 8cef 503d 8064 9abd
00000090: c2b5 fcbd cc83 81bd 9155 2dbd 6d05 f03c
000000a0: 01d0 253d e83e 85bd 6e86 e93d ac1f e43c
000000b0: 1e9d c9bc 27b3 f0bb 3465 cebd 106d f43c
000000c0: 8607 97bb b206 3dba f2de 7abd 892f 86bd
000000d0: 8750 253d d38f 523d 0235 893c ff17 e63d
000000e0: 3b05 963b 38da 56bc ee4d 233c fe29 58bd
000000f0: 6da8 3fbd f21d b43c a0c8 52bd e619 b03d
00000100: 6d97 54bd c218 d6bc b645 c5bc bff5 c73d
00000110: 22cb 383d 3bdc 2bbc 2369 b33d d93d 063d
00000120: a47d ecbd 0fb2 d93d 70e8 c2ba 2101 863d
00000130: f0d0 dcbd af68 fdbd 4a6e f93d 7ccc 7a3d
00000140: f9dc bebd d341 1a3d b629 9fbd 7f86 73bd
00000150: 0922 a13d 4734 b9bd 00d4 fc3c 9bb5 94bd
00000160: ad17 15bd 951b c53d e3c2 d13d b913 eb3d
00000170: dd60 36bd 4f32 efbd 4903 e0bd 23e8 f33d
00000180: 43ac 0f3c 0e75 553d edae 083d f963 82bd
00000190: 153f fdbc dd80 dc3d 5da6 a53c 98ed d8bc
000001a0: be91 c2bc df63 3f3d efba 2a3d 9cd2 e5bc
000001b0: 0b4a 233d d546 273a 87cc 953d 1404 34bd
000001c0: 9268 ba3d e449 e2bc fb4c d2bd 1540 f6bd
000001d0: 959c 553d 7931 ee3d 7b88 ccbc 1f7e f43d
000001e0: cf8e ea3d b0e9 edbd 7cce 01be f698 bd3b
000001f0: 8ebf 473d 9326 db3d 9bbf d13d 6e13 cabd
00000200: d33e 463b 46fe cbbd 0844 94bd ead7 50bc
00000210: 0df9 c23d d9e7 f13d 7c31 06bd 9301 e03d
00000220: 67dd 4cbd 1509 033d d013 bdbc af10 923c
00000230: bb23 8a3d f97e cbba 0f33 81bd 3d60 973d
00000240: 8c28 623d 906b 293d fd9c 173d ed60 c9bd
00000250: 4d21 593b 1f6b 9abd 61fe 593c 0a3f ac3d
00000260: e2f9 993d f94b 913d 9df0 ae3d b75b 643c
00000270: 390f 96bd fea5 f8bc 47d0 edbd 9a23 eebd
00000280: 8ab7 2b3d 5c02 9c3d 14ab 5dbd e8f2 de3d
00000290: 879f 3a3b 19aa 9bbd 3025 883b 4dba 86bc
000002a0: 77a4 d93d 3477 fbbd 9202 9fbd e2a5 dfbd
000002b0: 1c4b d13d 268b 003d 4c87 d33d ee8d 973d
000002c0: f90c 79bd 73e8 eabd 8ccb ba3d 0dc5 98bd
000002d0: 2ded 453d 6e8b 78bd fd57 5b3c 971d 90bd
000002e0: 294c 08bd 85d3 debd f9f3 923d 177a 18bd
000002f0: 8e52 da3d 10f3 d0bd 6b69 fa3d 04ef 98bd
00000300: 615e f9bb c6aa 41bd 48fb 6c3d 8f81 b73d
00000310: 6242 8ebc e717 a33c baad 16bd 75c2 58bd
00000320: 6e1f c8bd 8ec9 90bd f0d6 f43d 0302 d33c
00000330: f237 f5bd eac0 c0bc d8a4 d03d aecd d9bd
00000340: e69c fb3d cb6b ba3d b214 8ebd 938c 0b3c
00000350: 6639 9e3d c5df 723d dde5 183d 2930 8ebd
00000360: ff30 003e 4dd7 cf3c 0056 cfbd 146f 9ebd
00000370: aed3 9ebb 1442 023d 031f 4d3d 42bb eb3d
00000380: c9c4 eabd 43a1 afbd 4659 083b 8e5e b0bd
00000390: 9771 ecbd 615a b1bd 0c8c 8fbc b6c8 e93d
000003a0: 9202 bcbc 6e8b e5bd 6bc5 6c3d 3ac9 8d3d
000003b0: 8da8 8e3d 19c0 b23c 0ea4 c5bd 7190 69bd
000003c0: dd1b eebd 6b19 f03c 7538 81bd 54fc d6bd
000003d0: 6598 babd d613 fa3c a1a5 a0bd 78f6 f83d
000003e0: 3c5a 963d 2d2b 84bc c099 8ebd cecf a13d
000003f0: f9ae b23d b05c fcbd f3aa da3c abe3 c7bd

transformer.layers.1.input_proj.weight f4 [320, 64]
0.048406113 -0.008170323 0.07638756 -0.015835006 0.006549669 0.049876675 0.09201376 0.078665465
0.036923908 0.08384089 0.034101114 0.07548081 -0.064494886 -0.089217335 -0.051174518 -0.009101561
0.059918933 -0.096614614 -0.08341703 0.11403658 -0.11296815 0.035008725 0.026250618 -0.0070368503
-0.08768394 0.08309353 -0.105907366 -0.09090691 -0.019492498 0.083901316 0.001581357 0.04094276
-0.043725464 0.019120397 -0.044336777 -0.006643913 -0.033386208 -0.045657754 0.053030916 0.06555647
-0.020903323 0.025502473 -0.042382747 -0.008285654 -0.07883273 0.10382944 0.0077199894 0.055271205
-0.12664863 -0.11667853 -0.05823038 0.06449276 -0.048986282 0.091745764 -0.09536558 -0.12590528
0.044365384 -0.059276044 -0.049541418 -0.06356558 -0.039137993 0.01143694 0.010524466 0.0349799
-0.11711244 -0.054292765 0.017551186 0.12639658 -0.039180998 -0.012391202 0.10629717 0.10406743
-0.08713553 -0.096207276 -0.010973395 0.066420205 0.060476083 -0.06042364 0.049152773 -0.056111686
-0.11335863 0.11112948 0.10384579 0.10750452 -0.053407237 -0.016402386 0.09675277 0.04214934
0.021940952 0.072294965 -0.027731009 -0.061308432 -0.010109879 0.035549156 -0.08634305 0.11659453
0.073171586 0.06672077 0.059569243 -0.08941112 -0.04843915 -0.01888067 -0.05800011 0.06291105
-0.099861756 0.04237785 0.066564225 0.04144906 0.04469982 -0.12097714 0.081982374 -0.08550188
0.0680377 0.11211217 0.058363616 0.10972544 0.033493884 0.11579437 -0.030311171 -0.098371044
0.055782743 0.08717652 -0.090000436 0.029208168 0.026195241 -0.060590427 -0.042957526 0.008222131
0.03243658 -0.016383583 -0.014981051 -6.580826e-05 -0.04561883 -0.037867863 0.015004952 -0.037678067
-0.066891834 -0.0585267 -0.05582288 0.062156063 0.07813933 0.09215756 0.11778238 -0.1150098
-0.1070483 -0.06857818 -0.079504065 0.06824257 0.012489637 0.03370115 -0.006243634 -0.117237106
-0.101123765 0.07487179 0.061966743 0.08359031 0.0691902 0.034342535 0.045219634 -0.009004283
-0.084314935 0.026500745 0.07440368 -0.0434066 0.06978629 0.002076086 -0.11468833 -0.051192984
0.09900482 -0.038267273 -0.114752576 0.06481836 0.022092687 0.030518547 0.072573565 0.020079603
0.0808879 0.044519436 -0.1118827 -0.06370327 0.09491796 -0.042865466 -0.092786044 -0.02215274
0.067941144 -0.113228776 0.055943973 0.041328803 -0.051143214 0.08584558 -0.10238206 -0.021633552
0.10462475 -0.030977981 0.0024440233 0.1161459 -0.014624078 -0.025472732 0.11154007 -0.069758534
-0.034357574 0.06263822 0.005355638 -0.024084985 -0.10645787 0.0013851047 -0.017561296 -0.0024479295
0.0035771932 0.052665826 0.046275426 0.12538904 0.027721738 -0.076930076 -0.09964088 -0.08135437
0.07401957 0.04323432 0.053293042 0.07610762 0.10415975 0.11082589 0.050606422 0.12820108
-0.07278584 -0.11606371 -0.042497855 -0.12968114 0.06908952 -0.03454746 -0.093283996 0.063681334
0.089398175 0.029781811 -0.11351693 -0.0771553 -0.09907913 0.06370539 -0.03566192 -0.011371258
0.072711505 -0.09178909 0.06637159 0.024709823 -0.03916605 -0.03761067 -0.076936215 -0.04901179
0.046795253 -0.055132546 0.014949454 -0.070852995 -0.124026895 -0.03734492 -0.04843914 -0.03746159
00000000: 7d45 463d d2dc 05bc 1571 9c3d 6ab8 81bc
00000010: 9b9e d63b 7c4b 4c3d b671 bc3d 5c1b a13d
00000020: 863d 173d c6b4 ab3d 9cad 0b3d af95 9a3d
00000030: e515 84bd 94b7 b6bd 5f9c 51bd b71e 15bc
00000040: 8e6d 753d e2dd c5bd 8cd6 aabd 038c e93d
00000050: d85b e7bd 4f65 0f3d 890b d73c 6195 e6bb
00000060: a393 b3bd f12c aa3d f6e5 d8bd 672d babd
00000070: bbae 9fbc 74d4 ab3d 8945 cf3a 98b3 273d
00000080: 7919 33bd 61a2 9c3c 7b9a 35bd 2fb5 d9bb
00000090: fabf 08bd a003 3bbd f236 593d 7842 863d
000000a0: 723d abbc 90ea d03c 8899 2dbd 8dc0 07bc
000000b0: 0e73 a1bd 88a4 d43d f7f7 fc3b 0f64 623d
000000c0: 2eb0 01be 27f5 eebd fb82 6ebd c814 843d
000000d0: d7a5 48bd 34e5 bb3d 074f c3bd 50ed 00be
000000e0: 7ab8 353d 70cb 72bd f1eb 4abd ac2e 82bd
000000f0: 294f 20bd 0162 3b3c cf6e 2c3c 1547 0f3d
00000100: a6d8 efbd 1762 5ebd 81c7 8f3c 1b6e 013e
00000110: 417c 20bd 7804 4bbc 55b2 d93d 4e21 d53d
00000120: 1d74 b2bd 5208 c5bd c1c9 33bc 5107 883d
00000130: c5b5 773d c77e 77bd 6b54 493d 5ed5 65bd
00000140: 9228 e8bd da97 e33d 1aad d43d 542b dc3d
00000150: 8cc1 5abd 4c5e 86bc 5126 c63d c9a4 2c3d
00000160: 83bd b33c 620f 943d 242c e3bc 8d1e 7bbd
00000170: e8a3 25bc fe9b 113d a0d4 b0bd 1dc9 ee3d
00000180: fcda 953d e6a4 883d e1fe 733d 2d1d b7bd
00000190: 2168 46bd a3ab 9abc 8691 6dbd 82d7 803d
000001a0: 5284 ccbd 6594 2d3d d352 883d 7dc6 293d
000001b0: 2917 373d ddc2 f7bd 60e6 a73d 9c1b afbd
000001c0: 5a57 8b3d 119b e53d b00e 6f3d bbb7 e03d
000001d0: e230 093d 9925 ed3d 224f f8bc c276 c9bd
000001e0: 727c 643d 9a89 b23d 2652 b8bd f845 ef3c
000001f0: 6797 d63c ab2d 78bd 3bf4 2fbd 1eb6 063c
00000200: 38dc 043d dd36 86bc 1573 75bc 8a02 8ab8
00000210: cfda 3abd 551b 1bbd 55d7 753c 5154 1abd
00000220: 96fe 88bd b1b9 6fbd 88a6 64bd 5b97 7e3d
00000230: 8307 a03d 1abd bc3d e337 f13d 428a ebbd
00000240: 243c dbbd b872 8cbd 07d3 a2bd c3c2 8b3d
00000250: 56a1 4c3c 380a 0a3d 6697 ccbb 021a f0bd
00000260: fa19 cfbd 6256 993d d7d0 7d3d 6531 ab3d
00000270: 97b3 8d3d c2aa 0c3d 3938 393d b386 13bc
00000280: 4fad acbd 1718 d93c f560 983d 1ecb 31bd
00000290: 1dec 8e3d f10e 083b b7e1 eabd bcaf 51bd
000002a0: 0ac3 ca3d 25be 1cbd 6603 ebbd 7dbf 843d
000002b0: b9fb b43c 0802 fa3c 73a1 943d fb7d a43c
000002c0: 8ea8 a53d 035a 363d c222 e5bd dc76 82bd
000002d0: 5964 c23d b393 2fbd 9c06 bebd aa79 b5bc
000002e0: ba24 8b3d 7de4 e7bd 8225 653d 6448 293d
000002f0: 8c7b 51bd cfcf af3d afad d1bd d938 b1bc
00000300: 8045 d63d 89c5 fdbc e82b 203b e7dd ed3d
00000310: d499 6fbc 31ac d0bc 1f6f e43d 90dd 8ebd
00000320: 87ba 0cbd 7848 803d 597e af3b e04d c5bc
00000330: 9506 dabd 678c b53a b5dc 8fbc 716d 20bb
00000340: 586f 6a3b 1fb8 573d 4d8b 3d3d fc65 003e
00000350: b318 e33c 848d 9dbd 8510 ccbd 1f9d a6bd
00000360: 9397 973d 7816 313d ce49 5a3d 50de 9b3d
00000370: b551 d53d aff8 e23d ae48 4f3d 2547 033e
00000380: be10 95bd cfb2 edbd 3b12 2ebd 22cb 04be
00000390: ce7e 8d3d a381 0dbd ae0b bfbd 5c6b 823d
000003a0: 6416 b73d fcf8 f33c 907b e8bd 9903 9ebd
000003b0: 00ea cabd f977 823d 3c12 12bd 834e 3abc
000003c0: c5e9 943d ebfb bbbd d4ed 873d 416c ca3c
000003d0: 946c 20bd a50d 1abd bc90 9dbd 96c0 48bd
000003e0: 61ac 3f3d aad2 61bd 8eee 743c 601b 91bd
000003f0: d001 febd fdf6 18bd 1f68 46bd 5371 19bd
