tutorials/input/clmbr_model/model.safetensors (safetensors, 317136 bytes, 15 tensors)

task_model.final_layer.bias f4 [64]
0.049463104 -0.06692619 0.057671666 0.08492523 -0.011898159 0.114023834 0.0985089 -0.12808588
-0.050461866 -0.05730986 -0.04178895 -0.08402103 0.014152388 -0.094550945 -0.07835276 0.08357967
-0.064834975 -0.00120289 -0.06168388 -0.111454956 0.06624816 -0.081020124 0.06801385 0.08924553
-0.09741396 0.08047844 -0.047145993 0.11281485 0.04607079 -0.120553836 -0.07909338 -0.05285621
-0.015138683 -0.08369466 -0.032511994 -0.09808242 -0.05344553 -0.062026788 0.091991864 -0.06172171
0.05571517 -0.09834786 -0.12926747 0.039849892 0.037451077 0.06765936 0.075651586 0.0046335645
-0.0067315553 0.027371071 0.025803948 -0.05456331 -0.07852581 0.074760176 -0.05144359 -0.024467304
-0.04611939 0.07430209 -0.03147496 -0.025229964 -0.0813612 -0.05466514 -0.032163765 0.01202544
00000000: d399 4a3d 9910 89bd 2039 6c3d 47ed ad3d
00000010: 7ff0 42bc 5485 e93d 09bf c93d f228 03be
00000020: 1ab1 4ebd bebd 6abd e42a 2bbd 3813 acbd
00000030: 6bdf 673c eda3 c1bd 6977 a0bd d12b ab3d
00000040: 33c8 84bd 4aaa 9dba 3ca8 7cbd 7f42 e4bd
00000050: 1ead 873d e1ed a5bd d84a 8b3d 5cc6 b63d
00000060: f880 c7bd e1d1 a43d 281c 41bd 790b e73d
00000070: bab4 3c3d eee4 f6bd b6fb a1bd c17f 58bd
00000080: 3d08 78bc 1b68 abbd 4c2b 05bd 70df c8bd
00000090: b3e9 5abd cd0f 7ebd 3b66 bc3d e7cf 7cbd
000000a0: 9735 643d 9a6a c9bd b15e 04be a439 233d
000000b0: 4d66 193d fe90 8a3d 38ef 9a3d 28d5 973b
000000c0: 6194 dcbb 4c39 e03c cd62 d33c c77d 5fbd
000000d0: 24d2 a0bd dd1b 993d 84b6 52bd a86f c8bc
000000e0: afe7 3cbd b22b 983d e3eb 00bd 12af cebc
000000f0: b3a0 a6bd 8ee8 5fbd 27be 03bd 5a06 453c

task_model.final_layer.weight f4 [64, 64]
-0.030334003 -0.07891967 -0.006666291 0.115910456 -0.0948981 0.1178064 -0.08384143 0.073344745
-0.08211092 -0.054107312 0.02754869 -0.06596669 -0.049632613 -0.086621225 -0.10548009 0.054654587
-0.041279882 -0.009900774 -0.0481796 0.10260373 0.077265084 0.07430948 0.079440065 -0.0199239
-0.02063612 0.06298338 0.020380918 0.0230643 0.07375629 -0.08633289 -0.088787355 0.0060874736
0.044770185 -0.043823317 0.07023871 -0.070921004 -0.109979756 -0.009680167 0.0631069 -0.024419451
-0.076516315 -0.09244806 0.0930056 -0.06320208 0.045492936 0.037926927 -0.039621856 0.07895082
0.11257769 -0.122534946 0.075736135 -0.010400094 0.051223177 -0.11294501 -0.10510828 -0.079079695
-0.022794863 -0.11521318 -0.11889037 -0.06555936 -0.11582506 -0.018390223 0.08565131 0.01990579
-0.011845415 -0.049510013 -0.04902181 0.12022661 -0.0629663 0.085956536 -0.114501834 0.022532273
0.05267719 0.12306507 -0.035711933 0.04547483 0.024257407 0.07501092 0.011991147 0.1131346
-0.003748946 -0.0023648136 -0.040142108 0.019043297 0.042198908 -0.083629325 -0.118008554 0.042936087
-0.10290836 -0.10406683 -0.06787325 0.052369244 -0.071361884 0.06240208 0.12876838 -0.11910146
-0.06828149 0.0755056 -0.008048459 0.04945152 -0.12229277 0.06631017 -0.11638981 0.011212366
-0.10095975 0.12860581 -0.118335165 0.120596364 0.02763961 -0.060527593 -0.0734287 0.044479202
-0.00664351 0.11823398 0.0075166007 0.10065122 0.11915986 -0.053994816 -0.10323315 -0.10185522
0.09918087 -0.105736084 0.024973778 0.062304527 -0.007957377 -0.0036978628 0.03003576 0.06721438
0.12036947 -0.014421706 0.07381671 0.048769746 -0.03356633 0.006730975 0.060603544 -0.07699033
0.040076327 0.0034144828 -0.03893273 -0.011689421 -0.04013406 0.10375571 -0.022791734 0.06442692
-0.082869895 -0.11688947 -0.07901826 -0.06394924 0.06956647 0.012229592 -0.056019895 0.12575209
0.1144913 -0.045825347 0.047381327 -0.050327938 -0.03401737 -0.00508548 0.094491236 -0.06828101
0.022675185 -0.074668445 -0.009185846 0.06785273 -0.099734075 -0.07940338 -0.11597063 0.0286852
-0.080254935 0.10612955 -0.0700189 0.08637244 -0.04457615 -0.09696408 -0.078215785 0.08129242
0.06522103 0.0712223 0.01227028 -0.002135198 0.09582775 -0.10252266 -0.09046481 0.11592501
0.11441962 0.11727577 -0.122859165 0.12105675 -0.041247074 -0.09553459 0.029711206 0.07475145
0.121973775 -0.07220121 0.003390148 0.029965818 0.111638784 0.122494765 -0.10082391 -0.02116475
0.08463382 -0.11684123 -0.09459764 0.055308428 -0.1132173 0.08596418 0.042457256 -0.041771255
0.06301875 -0.05217389 0.106019914 -0.020225812 0.032524552 -0.045771237 -0.01482944 0.059461575
-0.017907975 -0.08266125 -0.11865461 0.12491932 -0.0661477 0.009420362 -0.1168089 -0.12770331
0.0599608 -0.06976256 -0.10616136 -0.053163562 -0.04736569 0.028219968 -0.008597572 -0.08241051
-0.07277568 0.069993176 0.019538457 -0.038336214 0.111313276 0.042653173 -0.055174895 0.099008024
0.06883228 0.10776787 0.10793755 0.10714977 -0.034948293 0.019703465 -0.014688108 0.09869986
0.06514986 0.0067545637 0.05885702 0.07466251 0.0355443 0.017812544 0.051869933 -0.05503988
00000000: 047f f8bc a3a0 a1bd e770 dabb 7662 ed3d
00000010: ef59 c2bd 7b44 f13d 0eb5 abbd c535 963d
00000020: c529 a8bd a19f 5dbd caad e13c 8b19 87bd
00000030: 914b 4bbd 7866 b1bd f205 d8bd 7ddd 5f3d
00000040: 1815 29bd db36 22bc f957 45bd e821 d23d
00000050: 283d 9e3d 922f 983d 79b1 a23d 7237 a3bc
00000060: 150d a9bc 6efd 803d e2f5 a63c 58f1 bc3c
00000070: 8a0d 973d 4ccf b0bd 25d6 b5bd 6e79 c73b
00000080: f160 373d 1480 33bd 50d9 8f3d 083f 91bd
00000090: 113d e1bd 9099 1ebc 313e 813d 4d0b c8bc
000000a0: 96b4 9cbd 6955 bdbd b879 be3d 1870 81bd
000000b0: cd56 3a3d 4459 1b3d 874a 22bd f8b0 a13d
000000c0: 228f e63d 9af3 fabd 8c1b 9b3d 2865 2abc
000000d0: 65cf 513d b74f e7bd 0343 d7bd 89f4 a1bd
000000e0: 4bbc babc e3f4 ebbd cb7c f3bd fc43 86bd
000000f0: b035 edbd 18a7 96bc f469 af3d 7811 a33c
00000100: 4613 42bc 03cb 4abd 18cb 48bd 5e39 f63d
00000110: 7af4 80bd fb09 b03d f07f eabd 9a95 b83c
00000120: 0ac4 573d 8a09 fc3d ad46 12bd d143 3a3d
00000130: 78b7 c63c 539f 993d 8476 443c 1db3 e73d
00000140: e0b0 75bb fdfa 1abb 0d6c 24bd b000 9c3c
00000150: c3d8 2c3d da45 abbd 78ae f1bd c0dd 2f3d
00000160: 9ec1 d2bd fd20 d5bd 2101 8bbd 2281 563d
00000170: 2e26 92bd 5399 7f3d dcdb 033e 77eb f3bd
00000180: 2ad7 8bbd aea2 9a3d afdd 03bc ad8d 4a3d
00000190: a274 fabd a0cd 873d c85d eebd 12b4 373c
000001a0: fcc3 cebd 3eb1 033e b559 f2bd 3afb f63d
000001b0: 776c e23c c8eb 77bd c961 96bd d32f 363d
000001c0: cdb1 d9bb a824 f23d d14d f63b 3a22 ce3d
000001d0: 160a f43d ab29 5dbd e76b d3bd 7899 d0bd
000001e0: 571f cb3d 298c d8bd cf95 cc3c 0833 7f3d
000001f0: a85f 02bc d857 72bb 8e0d f63c b1a7 893d
00000200: 4584 f63d 0549 6cbc 372d 973d c9c2 473d
00000210: d97c 09bd 838f dc3b 6c3b 783d 1bad 9dbd
00000220: 1327 243d 84c5 5f3b ed77 1fbd fc84 3fbc
00000230: 9d63 24bd e07d d43d bbb5 babc 43f2 833d
00000240: b1b7 a9bd bf63 efbd 53d4 a1bd d2f7 82bd
00000250: de78 8e3d a05e 483c 1e75 65bd 28c5 003e
00000260: 6a7a ea3d 5cb3 3bbd ec12 423d ab24 4ebd
00000270: cc55 0bbd 19a4 a6bb 9f84 c13d ead6 8bbd
00000280: 4fc1 b93c c5eb 98bd 3b80 16bc 5ff6 8a3d
00000290: 6141 ccbd 3d9e a2bd 0282 edbd 39fd ea3c
000002a0: b35c a4bd 735a d93d 1266 8fbd 09e4 b03d
000002b0: 7b95 36bd 1b95 c6bd 992f a0bd a47c a63d
000002c0: 9a92 853d ffdc 913d 4909 493c aeee 0bbb
000002d0: 5741 c43d 66f7 d1bd 9d45 b9bd 176a ed3d
000002e0: d554 ea3d 472e f03d 969d fbbd 9aec f73d
000002f0: b1f2 28bd a4a7 c3bd ea64 f33c 4a17 993d
00000300: 63cd f93d 3ade 93bd 3f2d 5e3b e07a f53c
00000310: e0a2 e43d 89de fa3d c47c cebd b361 adbc
00000320: 7f54 ad3d 744a efbd 68bc c1bd 178b 623d
00000330: 79de e7bd fd0d b03d a9e7 2d3d 5618 2bbd
00000340: f90f 813d 4ab4 55bd f820 d93d 9ab0 a5bc
00000350: 7738 053d 9f7a 3bbd 2ef7 72bc fb8d 733d
00000360: bfb3 92bc 4d4a a9bd 3001 f3bd b3d5 ff3d
00000370: 7278 87bd dd57 1a3c 8139 efbd a8c4 02be
00000380: 7599 753d acdf 8ebd 216b d9bd 09c2 59bd
00000390: 8702 42bd 902d e73c d5dc 0cbc d7c6 a8bd
000003a0: 6a0b 95bd 9558 8f3d 1d0f a03c 6f06 1dbd
000003b0: 37f8 e33d 18b5 2e3d 12ff 61bd b8c4 ca3d
000003c0: f0f7 8c3d 67b5 dc3d 5d0e dd3d 5771 db3d
000003d0: f125 0fbd 2969 a13c 64a6 70bc 2723 ca3d
000003e0: 4a6d 853d 6355 dd3b 0f14 713d a8e8 983d
000003f0: e696 113d 9deb 913c 9175 543d 7f71 61bd

transformer.embed.weight f4 [128, 64]
-0.12799932 1.7717485 0.6081028 0.75271916 0.05961334 1.3488282 -1.0150359 -0.6612105
0.17794107 -0.4489407 0.97430235 3.3071687 0.521959 0.22015847 -0.5454747 -0.030368058
1.4021167 0.06676704 -0.3484492 -0.8714538 1.563393 0.43929753 -0.32869476 -0.37413707
1.2547861 -2.5987773 -1.6541747 0.9123102 -0.31454465 -0.16374688 -0.16056283 -0.74009526
-1.1404583 0.024003731 1.2477767 -0.08290003 -0.0272565 0.58054775 -0.44948664 -0.22028609
-0.105336286 0.9925807 -0.058173753 0.7747207 -0.4327357 0.4914717 0.2855236 1.577106
0.20491032 -1.1380804 -1.6532152 0.63821054 -0.6866832 -0.084241845 -1.0898622 0.48056945
0.18457668 -1.1465666 -0.38275763 0.5721012 -0.6090157 -0.49753436 -0.6051614 0.92404443
0.39517468 0.65582865 0.83749837 0.9753448 1.0290388 1.5511171 1.4325775 0.69275016
0.03306317 1.8489336 0.6895845 0.13991268 -0.77587825 1.3074178 1.5879345 0.69673043
0.45317498 -0.4438073 -0.4461377 1.0641383 -1.3741616 0.04042574 0.8053588 -0.401289
0.63512623 -2.0353465 0.77334064 0.6208792 1.0615572 0.5988621 -0.919745 0.84137547
-1.3458195 0.23113854 1.7619133 -0.2799912 0.46962914 0.12825619 -1.9203223 -0.62133455
-1.6050123 0.63267505 -0.31947535 0.7357734 -0.08599957 -0.4412374 0.26672852 -0.74933463
-0.6208908 -0.080061875 -0.16246353 2.1815026 1.397336 0.26844808 -0.4220637 -0.73186654
-0.29486424 -1.1750572 -1.4727273 -0.7912456 0.14406101 -2.4902709 0.8610756 0.6289305
0.7612286 1.8529183 0.70425266 0.67831844 -1.5344564 -1.9621551 0.059734393 -0.6671533
1.399968 0.05914053 1.2883481 -0.3996613 -0.640728 -0.4191094 0.18395421 -0.73892283
0.17608055 1.3939475 0.2532761 -0.6396491 -1.1330464 0.09347125 -0.5342682 -1.3991523
1.2459141 1.7693268 -0.1722482 0.5571469 -2.8430986 0.8740349 0.9493256 -0.20528378
0.24928978 -0.85506076 -0.74115825 1.1925431 0.8918416 -0.37319863 -0.46371406 -0.07317826
2.168759 1.3024297 0.573309 -0.9399978 1.4158419 -0.40221354 1.0163645 -0.03564281
0.5090945 -0.18165047 -0.24908888 -0.8487448 -0.82327014 -0.79271305 -0.45078546 -0.1575163
-0.30058652 -0.4812095 -1.1465387 -0.052605152 -0.41502875 -0.22683124 1.6857121 -0.019134589
-0.82647973 0.118031524 -1.1005332 0.1433055 0.17961912 1.5418217 0.2698046 -0.30239064
2.0244057 -1.2579728 0.14504875 0.04249424 -2.0433195 0.55451447 -0.57702386 1.3205173
0.10154915 0.105827786 -1.1375151 -1.545975 -1.0154543 1.4793206 0.6267109 -0.44482872
-0.61406547 1.1798803 0.54849494 -0.97888136 -1.7316947 0.96587664 -1.3216162 -0.29651493
-0.21370503 0.35632995 -1.3320626 -0.10766781 1.6787316 -0.67233664 0.37170798 -0.66916025
-0.79041743 0.48194057 0.10368991 -1.0200902 0.66871184 -0.5870343 1.8137902 0.6718115
1.7913383 -0.20528306 -0.9286104 -0.6317498 -0.47579837 -0.9163825 1.4416903 1.4398031
1.4647417 -0.7209241 -1.2264278 0.115413874 0.3577098 0.5982565 -0.23458119 0.011603797
00000000: 4112 03be a8c8 e23f a0ac 1b3f 34b2 403f
00000010: 1e2d 743d 67a6 ac3f b2ec 81bf 1745 29bf
00000020: 2f36 363e 8edb e5be e16b 793f a7a8 5340
00000030: 1b9f 053f 3971 613e 3ba4 0bbf 6fc6 f8bc
00000040: 8f78 b33f 28bd 883d ef67 b2be 9917 5fbf
00000050: 431d c83f 9beb e03e ae4a a8be e58e bfbe
00000060: d59c a03f 5e52 26c0 ffbb d3bf 298d 693f
00000070: ff0b a1be 43ad 27be 956a 24be e276 3dbf
00000080: 8afa 91bf 79a3 c43c 26b7 9f3f 7ec7 a9bd
00000090: 0649 dfbc c79e 143f 1d23 e6be ad92 61be
000000a0: 8dba d7bd c519 7e3f 9a47 6ebd 1954 463f
000000b0: 898f ddbe 2ea2 fb3e 2630 923e 9cde c93f
000000c0: 03d4 513e 9eac 91bf 8e9c d3bf c461 233f
000000d0: 78ca 2fbf fd86 acbd 9b80 8bbf 330d f63e
000000e0: ab01 3d3e b2c2 92bf cff8 c3be 3975 123f
000000f0: 74e8 1bbf d3bc febe dceb 1abf 2d8e 6c3f
00000100: 5654 ca3e 63e4 273f 4b66 563f 32b0 793f
00000110: 8bb7 833f 018b c63f b35e b73f 1358 313f
00000120: 3f6d 073d dba9 ec3f 9c88 303f 4545 0f3e
00000130: f59f 46bf 7759 a73f 7041 cb3f ed5c 323f
00000140: 8d06 e83e b63a e3be 296c e4be af35 883f
00000150: 87e4 afbf 7695 253d ff2b 4e3f c075 cdbe
00000160: a297 223f 1e43 02c0 a7f9 453f f0f1 1e3f
00000170: 1be1 873f 074f 193f 6974 6bbf 6264 573f
00000180: d043 acbf 95af 6c3e 6086 e13f 025b 8fbe
00000190: 3b73 f03e 9755 033e 1fcd f5bf c80f 1fbf
000001a0: 0b71 cdbf fef6 213f 4692 a3be a55b 3c3f
000001b0: 8b20 b0bd dee9 e1be a490 883e 65d4 3fbf
000001c0: b3f2 1ebf 7bf7 a3bd d75c 26be bd9d 0b40
000001d0: e8db b23f 0772 893e bc18 d8be 9b5b 3bbf
000001e0: 72f8 96be 4668 96bf 5482 bcbf 128f 4abf
000001f0: bb84 133e 9960 1fc0 736f 5c3f 9701 213f
00000200: e1df 423f 6d2c ed3f e749 343f 47a6 2d3f
00000210: 1169 c4bf e627 fbbf 0dac 743d 8fca 2abf
00000220: 2732 b33f 573d 723d 97e8 a43f 68a0 ccbe
00000230: c006 24bf 8295 d6be 7e5e 3c3e 0c2a 3dbf
00000240: 764e 343e df6c b23f 68ad 813e 0bc0 23bf
00000250: aa07 91bf db6d bf3d cdc5 08bf 6c17 b3bf
00000260: 1d7a 9f3f 4d79 e23f d561 30be 2ea1 0e3f
00000270: 54f5 35c0 c0c0 5f3f 0107 733f e935 52be
00000280: d245 7f3e 43e5 5abf 8cbc 3dbf 41a5 983f
00000290: bb4f 643f e413 bfbe ee6b edbe 7cde 95bd
000002a0: f3cc 0a40 04b6 a63f 61c4 123f b2a3 70bf
000002b0: 4f3a b53f efee cdbe 3b18 823f 32fe 11bd
000002c0: 0454 023f 9502 3abe 2811 7fbe 5747 59bf
000002d0: d5c1 52bf 3eef 4abf 5acd e6be f44b 21be
000002e0: 7ae6 99be 1761 f6be c8c1 92bf 8078 57bd
000002f0: a67e d4be 7346 68be 6ac5 d73f 24c0 9cbc
00000300: 2d94 53bf 83ba f13d 46de 8cbf adbe 123e
00000310: 13ee 373e 6a5a c53f d423 8a3e f2d2 9abe
00000320: dd8f 0140 4105 a1bf a987 143e 710e 2e3d
00000330: bfc5 02c0 a9f4 0d3f d6b7 13bf b606 a93f
00000340: 00f9 cf3d 3dbc d83d 189a 91bf 82e2 c5bf
00000350: 68fa 81bf 615a bd3f 2070 203f 97c0 e3be
00000360: 6533 1dbf 5106 973f 2a6a 0c3f f897 7abf
00000370: 2ca8 ddbf b143 773f b82a a9bf ced0 97be
00000380: 7ed5 5abe e170 b63e 0781 aabf f180 dcbd
00000390: ade0 d63f 411e 2cbf 8250 be3e 164e 2bbf
000003a0: cc58 4abf eac0 f63e 605b d43d 5192 82bf
000003b0: b330 2b3f e147 16bf 472a e83f d7fb 2b3f
000003c0: 934a e53f b935 52be 69b9 6dbf 5bba 21bf
000003d0: d89b f3be 0b98 6abf 4f89 b83f 784b b83f
000003e0: a87c bb3f 7b8e 38bf 96fb 9cbf 1c5e ec3d
000003f0: bd25 b73e 5727 193f 0d36 70be da1d 3e3c

transformer.in_norm.weight f4 [64]
1.005795 0.9937842 1.0038611 1.0006024 0.99636024 1.0027782 1.0018246 1.0039816
1.0008587 0.9937105 1.0018126 0.9938894 1.0051942 1.0012941 0.99419326 1.0025766
0.9964687 1.0057985 0.9966787 0.9954867 0.99357647 0.99399185 0.99935937 0.9948831
0.9945751 1.0023849 0.9978195 1.0050428 0.9943105 1.0023657 0.99850297 1.000723
0.9941087 1.0046841 0.9940383 1.0006449 0.9939311 1.0052906 1.003868 1.0045716
0.9944166 0.99846107 0.9960987 1.0006578 0.9949627 0.994601 0.99472743 0.9933906
0.9979838 0.994694 0.99411523 1.0013081 0.99407834 0.99481565 1.0049753 0.9949418
1.0018023 0.9948391 0.9993444 0.99527305 1.0048065 1.0002303 0.99382883 1.0022479
00000000: e4bd 803f a468 7e3f 857e 803f bd13 803f
00000010: 7711 7f3f 095b 803f ca3b 803f 7882 803f
00000020: 231c 803f d063 7e3f 653b 803f 896f 7e3f
00000030: 34aa 803f 682a 803f 7383 7e3f 6e54 803f
00000040: 9318 7f3f 01be 803f 5626 7f3f 37d8 7e3f
00000050: 075b 7e3f 4076 7e3f 04d6 7f3f a9b0 7e3f
00000060: 799c 7e3f 264e 803f 1971 7f3f 3ea5 803f
00000070: 228b 7e3f 854d 803f e49d 7f3f b117 803f
00000080: e87d 7e3f 7d99 803f 4b79 7e3f 2215 803f
00000090: 4572 7e3f 5dad 803f bf7e 803f cd95 803f
000000a0: 1692 7e3f 259b 7f3f 5300 7f3f 8e15 803f
000000b0: e0b5 7e3f 2c9e 7e3f 75a6 7e3f d94e 7e3f
000000c0: de7b 7f3f 44a4 7e3f 567e 7e3f dd2a 803f
000000d0: eb7b 7e3f 3dac 7e3f 08a3 803f 81b4 7e3f
000000e0: 0f3b 803f c6ad 7e3f 09d5 7f3f 37ca 7e3f
000000f0: 809d 803f 8c07 803f 916b 7e3f a949 803f

transformer.layers.0.input_proj.bias f4 [320]
-0.1037751 -0.09733743 0.046014175 0.09313493 -0.04866331 0.11260588 0.10642564 -0.005687082
0.09264195 -0.1172898 -0.08473239 -0.095125616 0.11826842 -0.056874264 0.09194401 0.11881959
-0.06353687 0.06651127 -0.097115405 -0.012478476 -0.0006413249 0.119144954 0.13145502 0.039292432
-0.110727005 -0.058826152 0.03890119 -0.05738992 -0.048826132 0.03453633 0.09940591 -0.042838357
-0.03272265 -0.009522697 0.106033385 0.059190292 0.023076834 -0.044976674 -0.06219804 0.05522492
0.1124028 -0.08824291 0.040509988 0.08092971 -0.11202745 0.058222402 0.0028956477 0.011140387
-0.12031711 0.048288103 0.019379385 0.012432369 0.061300423 -0.12068022 -0.08295777 -0.078203484
0.10072507 0.04287222 -0.035046507 0.059432212 0.039782286 -0.08686107 0.042722527 -0.04711275
-0.10946685 -0.064207286 0.05357379 -0.026767105 -0.001991223 -0.03931378 0.12757123 -0.024000933
-0.06853109 -0.019637955 -0.05586976 0.0033985064 -0.09110156 0.047807176 -0.09031636 -0.052338503
-0.077129 -0.06892253 -0.10237366 0.013682415 0.09273265 0.102271885 -0.071077354 -0.0017978476
0.09494104 0.04974685 0.1173519 0.003287469 -0.013272621 0.10760975 -0.0055419747 0.08304141
-0.02747502 0.036095586 -0.030236954 -0.057538617 0.11568878 -0.03647086 -0.00892866 0.01159844
-0.01804305 0.101039566 -0.06043484 -0.05510943 0.061534807 -0.0109207 -0.020048177 0.058155768
0.036633015 -0.060360942 0.05250249 -0.10681739 0.07452564 -0.03211237 -0.057488896 0.12495292
-0.004624117 0.021935498 -0.057020057 -0.107567705 -0.03546049 -0.010205543 0.10541985 0.07688677
0.097270474 0.00935539 0.025451079 -0.00998765 -0.026498014 -0.060786888 0.007353976 0.015380607
-0.019766275 0.10128233 0.0067640455 -0.07835695 0.024014669 -0.106357686 -0.06508535 0.072726764
-0.10180946 0.06879782 0.12543309 0.124242514 0.13021272 -0.006072792 -9.5457464e-05 -0.10974475
0.12098891 -0.08792111 -0.054968584 -0.054803517 -0.04226768 0.0065497076 -0.1137555 -0.025607508
0.043217674 0.12001553 -0.08960213 -0.030798156 -0.08551886 -0.012336825 -0.021098074 0.12830275
-0.096655704 0.089346796 -0.060099114 0.010278911 -0.0048463093 -0.05706215 0.11217596 -0.06491944
-0.05107323 -0.08725604 -0.049260702 -0.066161714 -0.059377152 0.0057038325 0.0146160405 0.1084698
0.016522847 0.098894 0.06331162 -0.039912783 -0.0777723 0.09836892 0.09777574 0.04026616
-0.120337464 0.0173304 -0.1057971 -0.10392236 -0.037674457 -0.09063196 0.12479455 0.038559496
-0.054192506 0.115494855 0.08184296 0.053159267 0.03380398 -0.0884281 -0.10419049 0.020045208
0.097692296 -0.0801384 -0.02722114 -0.007919788 -0.09867506 -0.025751637 0.05096397 -0.12320338
0.08929988 -0.084843196 -0.06957806 0.06322925 0.09900953 0.12238738 -0.05833024 -0.06045375
-0.1113159 0.10604408 0.11340962 0.018504027 -0.038109727 0.0563517 0.02715815 -0.056481346
-0.049349714 0.09820013 -0.037278857 -0.12088956 0.12446649 -0.069728196 -0.011501836 -0.086094
-0.08415717 0.09649717 -0.013416045 0.058571618 0.108260944 0.090772405 -0.08732436 0.08438408
-0.10653857 -0.026949348 -0.1262665 0.009791961 0.0836136 0.08290875 0.041845772 0.09323908
00000000: 0a88 d4bd d958 c7bd 5c79 3c3d 87bd be3d
00000010: 2e53 47bd e99d e63d b0f5 d93d b45a babb
00000020: 10bb bd3d a235 f0bd 2d88 adbd 38d1 c2bd
00000030: b736 f23d fdf4 68bd 244d bc3d af57 f33d
00000040: 9e1f 82bd 1037 883d 71e4 c6bd 8672 4cbc
00000050: 961e 28ba 4502 f43d 259c 063e 1af1 203d
00000060: d7c4 e2bd b1f3 70bd db56 1f3d b111 6bbd
00000070: e9fd 47bd f775 0d3d 5395 cb3d 4677 2fbd
00000080: 2f08 06bd 1605 1cbc 0828 d93d 8571 723d
00000090: a10b bd3c 7639 38bd 5fc3 7ebd 8733 623d
000000a0: 7033 e63d b3b8 b4bd cded 253d 7abe a53d
000000b0: a66e e5bd 9d7a 6e3d e8c4 3d3b 2b86 363c
000000c0: d168 f6bd bfc9 453d 84c1 9e3c 23b1 4b3c
000000d0: 2716 7b3d 3127 f7bd c3e5 a9bd 2629 a0bd
000000e0: f248 ce3d c89a 2f3d ed8c 0fbd 316f 733d
000000f0: c0f2 223d 37e4 b1bd d1fd 2e3d 4df9 40bd
00000100: 2830 e0bd 1c7f 83bd 3170 5b3d b046 dbbc
00000110: 2e7f 02bb 7c07 21bd 08a2 023e 9b9d c4bc
00000120: 075a 8cbd c7df a0bc b1d7 64bd 7ab9 5e3b
00000130: 7493 babd 75d1 433d c9f7 b8bd e660 56bd
00000140: cff5 9dbd 4127 8dbd 48a9 d1bd 352c 603c
00000150: 9eea bd3d ec73 d13d 0191 91bd c1a5 ebba
00000160: 7370 c23d 5ac3 4b3d 3156 f03d 9472 573b
00000170: 6875 59bc 8062 dc3d 7499 b5bb 9d11 aa3d
00000180: 4b13 e1bc f7d8 133d 7db3 f7bc 9dad 6bbd
00000190: 3dee ec3d 7862 15bd 8449 12bc 6207 3e3c
000001a0: 05cf 93bc d5ed ce3d 868a 77bd 6dba 61bd
000001b0: ec0b 7c3d bcec 32bc 133c a4bc be34 6e3d
000001c0: 800c 163d 093d 77bd da0c 573d 13c3 dabd
000001d0: e6a0 983d 4388 03bd 7a79 6bbd 51e7 ff3d
000001e0: e885 97bb 13b2 b33c dd8d 69bd 754c dcbd
000001f0: 053f 11bd 2635 27bc 5de6 d73d d076 9d3d
00000200: be35 c73d 5a47 193c c87e d03c 3ea3 23bc
00000210: 5d12 d9bc acfb 78bd 9ff9 f03b f1fe 7b3c
00000220: e2ec a1bc 1c6d cf3d eda4 dd3b 9c79 a0bd
00000230: 69ba c43c 0fd2 d9bd 784b 85bd c5f1 943d
00000240: 7a81 d0bd dfe5 8c3d 8871 003e dc72 fe3d
00000250: 7c56 053e 46fe c6bb 5630 c8b8 dbc1 e0bd
00000260: 09c9 f73d fc0f b4bd bd26 61bd a779 60bd
00000270: e020 2dbd ee9e d63b a5f8 e8bd d6c6 d1bc
00000280: 0405 313d b4ca f53d 5281 b7bd 6a4c fcbc
00000290: 8324 afbd 6520 4abc ded5 acbc cc61 033e
000002a0: 6df3 c5bd 74fb b63d 7d2a 76bd e168 283c
000002b0: cacd 9ebb 00ba 69bd 82bc e53d 7cf4 84bd
000002c0: 2a32 51bd 4bb3 b2bd 97c5 49bd cb7f 87bd
000002d0: 7535 73bd 37e7 ba3b 1e78 6f3c 6a25 de3d
000002e0: ec5a 873c f088 ca3d 86a9 813d 967b 23bd
000002f0: 1547 9fbd a575 c93d a63e c83d 21ee 243d
00000300: 7d73 f6bd 7cf8 8d3c 26ac d8bd 3fd5 d4bd
00000310: 8850 1abd 409d b9bd 4994 ff3d 90f0 1d3d
00000320: f6f8 5dbd 9188 ec3d 489d a73d 88bd 593d
00000330: 0b76 0a3d cb19 b5bd d361 d5bd d935 a43c
00000340: e612 c83d 9a1f a4bd defe debc 00c2 01bc
00000350: 2616 cabd 19f5 d2bc 99bf 503d 0e52 fcbd
00000360: dbe2 b63d 45c2 adbd f17e 8ebd 567e 813d
00000370: 82c5 ca3d 3ca6 fa3d b1eb 6ebd 5a9e 77bd
00000380: 97f9 e3bd a32d d93d 4e43 e83d c295 973c
00000390: f218 1cbd 0ad1 663d c57a de3c fc58 67bd
000003a0: ed22 4abd 261d c93d b7b1 18bd f294 f7bd
000003b0: 49e8 fe3d a8cd 8ebd 3272 3cbc 0d52 b0bd
000003c0: 985a acbd 4fa0 c53d f9ce 5bbc cbe8 6f3d
000003d0: eab7 dd3d e2e6 b93d 1dd7 b2bd 8fd1 ac3d
000003e0: e530 dabd e1c4 dcbc 014c 01be 766e 203c
000003f0: 9b3d ab3d 10cc a93d 7966 2b3d 21f4 be3d

transformer.layers.0.input_proj.weight f4 [320, 64]
-0.0063466867 0.033546157 0.03765365 0.12312353 -0.044678126 -0.043145638 0.061049193 0.109891415
-0.054258794 -0.11703287 -0.0897739 -0.057165153 0.06625513 -0.12757996 0.08844385 0.03263663
-0.108836025 0.02256718 -0.0076631564 -0.014356817 -0.03842385 -0.055579815 0.053821396 -0.015069556
0.038081832 0.09422308 -0.09448448 0.06271169 0.08412082 0.059165426 0.03044976 0.030960167
0.028142607 0.035221 0.06807193 -0.111938156 0.045033444 -0.054650098 0.057016745 0.028447194
0.031433836 -0.047891382 -0.12108532 -0.06463012 -0.02837259 -0.03819444 0.016004216 -0.10138375
-0.07611697 0.12562889 -0.08537754 0.09135149 -0.051440448 -0.10436769 -0.029102914 0.11763632
0.1123303 0.041862912 -0.061999932 -0.07980966 -0.022503655 0.019944593 0.028881727 0.11593469
0.04122511 0.091421716 -0.10319925 0.043676905 -0.08729789 -0.06740961 0.10710932 0.062555276
-0.016427767 -0.0033193398 0.010573813 0.07397932 0.04466832 -0.08769064 0.06407712 -0.054304637
-0.0086134905 0.06616746 0.07495553 0.0056105205 0.098373674 -0.077934116 0.11592354 -0.032216605
-0.11684892 -0.07283625 0.066998266 0.05727374 0.031745277 -0.12267094 -0.024446549 0.021287737
0.10385534 -0.08166282 -0.070067026 -0.10868732 -0.09579014 0.03498682 0.016762612 -0.08866975
-0.0711149 0.0077823503 -0.054572828 -0.015637854 0.032421235 -0.0993813 -0.061088026 0.08499084
-0.10447413 0.057583362 0.08628798 -0.120405525 0.0896792 0.09966773 -0.04688329 -0.105026536
-0.042844795 -0.044773933 -0.092666104 0.05224622 0.088382356 -0.08098908 -0.0012502316 -0.124657385
-0.10021139 0.109370396 -0.06011333 -0.047779616 -0.10327292 -0.08413747 -0.063831896 0.07196851
0.049356617 -0.016041419 0.11698237 -0.08494495 -0.0833537 0.042963333 0.073574945 -0.026955836
-0.061336983 -0.05081611 0.04565532 -0.0944333 0.096615575 0.04057988 0.04004778 -0.106658906
-0.11501223 0.10335412 0.023780158 -0.054352015 -0.029299129 -0.09485983 0.09498611 0.034920204
-0.07710987 -0.08725006 -0.12201786 -0.0029601566 0.007967545 -0.0792866 -0.042947374 0.023951685
0.06994098 0.08192696 -0.11173189 -0.06932824 0.0033876027 -0.075585365 0.08129428 0.08622512
-0.055194307 0.10973325 0.02653346 -0.068091996 0.050366502 -0.034167305 0.0070918966 -0.067716464
0.03228916 -0.06867631 0.04491195 -0.047162574 0.0057760477 -0.056544468 0.03694643 0.11631965
0.04301087 0.053777628 0.042735495 0.007913693 0.051840056 0.11000408 0.055472437 -0.018809423
-0.019776179 -0.07912584 -0.013905749 0.057713043 0.019310543 0.010488678 0.0010214598 0.041519955
-0.05572238 -0.12470473 -0.09047304 0.03063582 -0.015939754 -0.050584227 0.12841445 0.076008655
0.11175805 -0.07300366 0.09926018 0.07114258 0.077606216 0.03233505 0.027187267 0.07358607
-0.10212648 0.11107078 -0.043690354 0.046691433 0.06406184 0.11491128 0.049108148 -0.0608583
0.08516723 0.05180149 0.12280677 -0.034427103 0.016501665 -0.09991583 0.027760992 -0.039187893
0.026012722 0.11230216 0.101451054 -0.08188171 0.12488743 -0.051104613 -0.028325459 0.061928205
-0.011774583 0.04310749 0.036178146 -0.071120635 -0.050772514 0.05069605 0.12781498 -0.027316865
00000000: def7 cfbb b267 093d b73a 1a3d 3028 fc3d
00000010: 6900 37bd 7bb9 30bd b80e 7a3d c00e e13d
00000020: 783e 5ebd eeae efbd 61db b7bd 0226 6abd
00000030: c5b0 873d 52a4 02be 0d22 b53d fdad 053d
00000040: 6ce5 debd cfde b83c 371b fbbb db38 6bbc
00000050: 5462 1dbd a9a7 63bd d373 5c3d 4de6 76bc
00000060: b2fb 1b3d 08f8 c03d 1481 c1bd fd6e 803d
00000070: 8947 ac3d 7257 723d c671 f93c 2da0 fd3c
00000080: 538b e63c e543 103d 4c69 8b3d d53f e5bd
00000090: fd74 383d c8d8 5fbd 648a 693d 170a e93c
000000a0: c4c0 003d c129 44bd 95fb f7bd cc5c 84bd
000000b0: a26d e8bc c671 1cbd 461b 833c 49a2 cfbd
000000c0: 37e3 9bbd dca4 003e 6bda aebd 7d16 bb3d
000000d0: 38b3 52bd babe d5bd 3c69 eebc 50eb f03d
000000e0: 6e0d e63d 7278 2b3d a4f3 7dbd 3f73 a3bd
000000f0: 9659 b8bc d862 a33c 5f99 ec3c 2b6f ed3d
00000100: a9db 283d 4f3b bb3d 215a d3bd 8ee6 323d
00000110: 3cc9 b2bd 0d0e 8abd 225c db3d fb1c 803d
00000120: 8693 86bc 4889 59bb c93d 2d3c 7882 973d
00000130: 21f6 363d 2697 b3bd dd3a 833d 8a6e 5ebd
00000140: 991f 0dbc ce82 873d 4982 993d 75d8 b73b
00000150: 2378 c93d ec9b 9fbd 5269 ed3d 8ff5 03bd
00000160: 7d4e efbd 2c2b 95bd 6336 893d df97 6a3d
00000170: 5607 023d e73a fbbd 2144 c8bc 9f63 ae3c
00000180: 1cb2 d43d d63e a7bd 4d7f 8fbd 7597 debd
00000190: 9f2d c4bd 574e 0f3d bf51 893c 7c98 b5bd
000001a0: b0a4 91bd 1603 ff3b c287 5fbd f51a 80bc
000001b0: 21cc 043d 6c88 cbbd 7037 7abd ad0f ae3d
000001c0: 88f6 d5bd 88dc 6b3d c1b7 b03d 2c97 f6bd
000001d0: baa9 b73d 981e cc3d b108 40bd 2718 d7bd
000001e0: 067e 2fbd df64 37bd bac7 bdbd 2200 563d
000001f0: cf01 b53d 9add a5bd d0de a3ba 5f4c ffbd
00000200: a13b cdbd 96fd df3d 6539 76bd 8fb4 43bd
00000210: c180 d3bd 4450 acbd 4cba 82bd 3a64 933d
00000220: 2a2a 4a3d 4b69 83bc 7494 ef3d 9ef7 adbd
00000230: 58b5 aabd 52fa 2f3d 76ae 963d 7cd2 dcbc
00000240: 7d3c 7bbd 8e24 50bd 1301 3b3d 3f66 c1bd
00000250: 63de c53d 1737 263d 2409 243d fc6f dabd
00000260: 888b ebbd 53ab d33d 9bce c23c 38a0 5ebd
00000270: ba04 f0bc df45 c2bd 1488 c23d 7d08 0f3d
00000280: c8eb 9dbd 29b0 b2bd 80e4 f9bd 30ff 41bb
00000290: 4e8a 023c 0361 a2bd 96e9 2fbd 5336 c43c
000002a0: 373d 8f3d 52c9 a73d b0d3 e4bd f7fb 8dbd
000002b0: 8b02 5e3b 80cc 9abd 9e7d a63d cc96 b03d
000002c0: 6d13 62bd d4bb e03d b35c d93c d173 8bbd
000002d0: 1b4d 4e3d 04f3 0bbd 2463 e83b eeae 8abd
000002e0: a341 043d 2aa6 8cbd 98f5 373d 8b2d 41bd
000002f0: 0045 bd3b 2c9b 67bd 2455 173d ff38 ee3d
00000300: 2b2c 303d ee45 5c3d 6a0b 2f3d 6fa8 013c
00000310: 3d56 543d d249 e13d 1137 633d 3816 9abc
00000320: a701 a2bc ba0c a2bd f0d4 63bc 8364 6c3d
00000330: 2531 9e3c b4d8 2b3c 81e2 853a d410 2a3d
00000340: 263d 64bd 3265 ffbd ee49 b9bd f9f7 fa3c
00000350: 1694 82bc 6831 4fbd 147f 033e 6daa 9b3d
00000360: 68e1 e43d f182 95bd ec48 cb3d 33b3 913d
00000370: 02f0 9e3d c271 043d d5b7 de3c 4bb4 963d
00000380: b027 d1bd 1479 e33d a8f4 32bd 843f 3f3d
00000390: db32 833d 9b56 eb3d a025 493d 8e46 79bd
000003a0: 286c ae3d cd2d 543d 1e82 fb3d 6f03 0dbd
000003b0: 802e 873c aca0 ccbd 056b e33c 7c83 20bd
000003c0: a218 d53c adfe e53d 92c5 cf3d 99b1 a7bd
000003d0: fbc4 ff3d 1253 51bd cb0a e8bc 6ea8 7d3d
000003e0: 2eea 40bc 7b91 303d 892f 143d b2a7 91bd
000003f0: d7f6 4fbd a9a6 4f3d eee1 023e 9ec7 dfbc

transformer.layers.0.norm.weight f4 [64]
1.0039366 1.0065005 1.0039274 1.0040791 1.0012056 1.0067551 0.99613446 1.0058274
0.9966049 0.9978043 1.0062555 1.0064092 0.9983362 0.9995262 1.0067893 0.99942946
1.0068372 0.99988747 1.0056162 1.0068089 1.0062207 0.9976998 1.0068495 0.99671835
0.996977 1.0043308 1.0052027 1.0065849 0.99866474 1.0063235 0.99522984 1.0027755
1.0061141 1.0066495 0.99815017 1.0049033 1.0065043 1.0060523 1.0028191 1.0068183
1.003317 1.0061315 1.0059184 1.005974 1.003603 1.0036868 1.0043273 0.9974214
1.0017136 1.0034335 0.99590105 1.0032997 0.9968162 0.99883115 0.9989707 1.0039377
1.0048916 0.999516 1.0063994 1.0003067 1.0059808 1.0073891 1.0069908 1.0064024
00000000: ff80 803f 02d5 803f b180 803f aa85 803f
00000010: 8127 803f 5add 803f ab02 7f3f f4be 803f
00000020: 8021 7f3f 1a70 7f3f fbcc 803f 04d2 803f
00000030: f692 7f3f f3e0 7f3f 79de 803f 9cda 7f3f
00000040: 0be0 803f a0f8 7f3f 08b8 803f 1ddf 803f
00000050: d7cb 803f 4169 7f3f 72e0 803f ef28 7f3f
00000060: e239 7f3f e98d 803f 7baa 803f c6d7 803f
00000070: 7ea8 7f3f 35cf 803f 62c7 7e3f f35a 803f
00000080: 59c8 803f e4d9 803f c586 7f3f aca0 803f
00000090: 22d5 803f 52c6 803f 605c 803f 6cdf 803f
000000a0: b16c 803f ebc8 803f efc1 803f c2c3 803f
000000b0: 1076 803f cf78 803f cc8d 803f 0257 7f3f
000000c0: 2738 803f 8270 803f 5ff3 7e3f 206c 803f
000000d0: 592f 7f3f 66b3 7f3f 8bbc 7f3f 0881 803f
000000e0: 4aa0 803f 48e0 7f3f b2d1 803f 0d0a 803f
000000f0: fbc3 803f 20f2 803f 13e5 803f cbd1 803f

transformer.layers.0.output_proj.bias f4 [64]
0.05008865 -0.01716239 0.008356987 0.057201225 -0.041757237 -0.018399421 0.026172431 0.051919222
0.005301354 -0.036038466 0.025579566 0.010094666 -0.06555382 -0.029519038 0.046490777 -0.045053426
0.022324488 -0.030583335 0.047155846 -0.06420838 0.013621432 -0.0060640485 0.010719369 0.020579772
-0.010749298 -0.030552348 -0.060975444 -0.020688923 -0.05387554 0.033751648 -0.06841188 -0.05805264
-0.010042621 -0.02252199 -0.019557318 0.046694566 -0.04150791 -0.045435123 0.010937334 0.06616256
0.022233374 -0.012478147 0.043903273 0.072677106 0.04001338 0.058238417 -0.013104483 0.046532173
0.028862868 -0.018102583 0.034857936 -0.018060565 0.040139053 -0.025533147 0.021738576 -0.029668668
0.06779021 0.040692803 0.05559535 -0.06559855 -0.057587475 0.0070645767 0.020818582 -0.045426805
00000000: c229 4d3d 2498 8cbc beeb 083c d54b 6a3d
00000010: a309 2bbd 62ba 96bc 9167 d63c 40a9 543d
00000020: fbb6 ad3b 129d 13bd 3d8c d13c 1964 253c
00000030: 1541 86bd e9d1 f1bc 1d6d 3e3d f189 38bd
00000040: d8e1 b63c e789 fabc 7d26 413d af7f 83bd
00000050: 6d2c 5f3c edb4 c6bb 4ba0 2f3c e996 a83c
00000060: d31d 30bc eb48 fabc 63c1 79bd d17b a9bc
00000070: 99ac 5cbd 2b3f 0a3d 871b 8cbd 9bc8 6dbd
00000080: ce89 24bc 0980 b8bc ab36 a0bc cd42 3f3d
00000090: 3304 2abd 2e1a 3abd 8132 333c 3c80 873d
000000a0: c422 b63c 2471 4cbc ebd3 333d bcd7 943d
000000b0: 12e5 233d 688b 6e3d 2fb4 56bc 8598 3e3d
000000c0: d271 ec3c de4b 94bc 32c7 0e3d c0f3 93bc
000000d0: d968 243d e42a d1bc 1915 b23c b50b f3bc
000000e0: 98d5 8a3d 7fad 263d f3b7 633d 8858 86bd
000000f0: d8e0 6bbd f77d e73b bb8b aa3c 7511 3abd

transformer.layers.0.output_proj.weight f4 [64, 192]
0.0028939247 0.05469723 0.06136023 0.016080804 -0.034965068 -0.060897496 0.049515955 0.04483142
0.017023956 0.025816683 -0.022372566 0.016278038 -0.042554047 0.021731224 -0.014239319 -0.023008358
0.057295237 0.010713198 0.032098576 0.07255734 -0.009192391 0.01989803 -0.048089143 -0.026104901
-0.0076100295 -0.039427556 0.021428322 0.03325396 0.04451902 -0.042138357 0.005221371 0.06512993
0.0044897925 0.05223166 0.067850694 0.028480247 -0.0006612234 0.057501808 -0.055686705 0.04605379
0.029138707 0.058008216 0.04893551 0.018840522 0.044510566 -0.043980137 -0.02816193 0.035481963
0.026401732 -0.02061609 -0.030578142 0.06236962 -0.07044619 -0.0337106 0.014614816 0.042546146
0.010219691 -0.059195187 0.07756572 -0.008361615 -0.03160838 0.046951868 -0.03007275 -0.06851931
-0.027042542 -0.04993996 -0.06913112 -0.032325722 -0.0068009286 0.02969832 -0.065106444 0.048734687
0.052000005 0.012506353 0.009716726 -0.020122696 0.012083023 0.010107142 0.05224877 0.064514294
0.064146645 -0.058589946 0.07063316 -0.046681363 0.049692743 0.027278563 0.020145318 -0.031108357
-0.044319227 0.06408421 0.06208515 0.0653825 -0.00864209 0.059475057 0.06573144 -0.048036695
0.02525721 0.061451558 -0.062459122 -0.027932627 0.027163481 -0.05056566 -0.0092858635 0.06372903
0.00834617 -0.054168448 -0.048131235 0.00353627 0.0018669743 -0.033708803 -0.016095925 0.032019436
0.047853243 0.053353913 -0.055859707 0.06087634 -0.073906265 -0.0197376 0.015718034 -0.024945633
-0.051058073 0.0324137 0.05401279 -0.014513814 0.051208623 -0.0017195077 -0.04210605 0.03201217
-0.049735088 0.013470521 0.016166845 0.017591335 -0.038623992 0.052097585 -0.03502356 -0.07522941
-0.047252487 0.015038906 -0.029287606 -0.070841275 -0.06986817 0.01687934 0.06351623 0.0642611
-0.03871932 -0.0733097 0.049234875 0.067712486 -0.06332786 0.052547496 -0.021669028 -0.06275293
-0.0061350847 -0.032740988 -0.035784684 -0.0015010023 -0.042320073 -0.020489495 -0.061707247 0.028529974
0.07064817 0.036793042 -0.046832196 -0.008076995 -0.045072258 -0.015504134 0.03698947 -0.049242422
0.056193925 -0.0654611 -0.014306505 0.06978231 -0.007170584 -0.045374703 -0.013968901 -0.046218123
0.014052887 0.017454142 0.0041933316 -0.034528382 0.01699349 0.043045286 0.0029735055 -0.038191877
-0.022705238 7.128934e-05 0.038957175 -0.036727246 -0.03092919 0.013984848 0.038999643 0.02562895
-0.050106063 0.04647793 -0.044824027 0.03905413 0.059957154 0.016634805 0.045921262 0.042940173
-0.06362758 0.072715096 -0.032910608 0.05163002 -0.038004775 0.05932836 0.025394388 -0.044662733
0.017141536 0.027573155 0.0018300868 0.018132629 0.0043610004 -0.0166805 0.03728404 -0.023787932
0.07725598 0.004632958 -0.056999397 -0.038727645 0.061877847 0.048837874 0.059521686 0.034669116
0.047117285 0.057957552 -0.00880651 0.027184794 0.005008487 -0.068045475 -0.0028656959 0.029756555
-0.01642508 0.056346215 -0.0109687885 -0.055709895 0.018292945 0.04597089 0.029553277 -0.02575209
-0.047373306 0.006039599 0.007707067 -0.034677796 0.0021485372 0.0739354 -0.0616526 -0.045119047
0.02415918 -0.04557455 -0.024341537 0.012873821 0.0067227553 -0.04210146 -0.05730411 -0.06590556
00000000: 00a8 3d3b 340a 603d dd54 7b3d e4bb 833c
00000010: 8837 0fbd a76f 79bd 3ed1 4a3d 27a1 373d
00000020: d375 8b3c 827d d33c ac46 b7bc 8559 853c
00000030: 274d 2ebd ae05 b23c 084c 69bc 067c bcbc
00000040: 69ae 6a3d 6986 2f3c cc79 033d f198 943d
00000050: af9b 16bc 3201 a33c 1ff9 44bd f2d9 d5bc
00000060: 8e5d f9bb ca7e 21bd 738a af3c 4e35 083d
00000070: 9359 363d 4599 2cbd 0918 ab3b d762 853d
00000080: 1c1f 933b ddf0 553d 4ef5 8a3d 684f e93c
00000090: f455 2dba 0487 6b3d be17 64bd e6a2 3c3d
000000a0: 4cb4 ee3c 069a 6d3d 9a70 483d 7057 9a3c
000000b0: b650 363d 8424 34bd d9b3 e6bc 8955 113d
000000c0: 7248 d83c 13e3 a8bc 037f fabc 4977 7f3d
000000d0: 1846 90bd 2014 0abd fb72 6f3c de44 2e3d
000000e0: 7e70 273c a776 72bd c7da 9e3d 28ff 08bc
000000f0: ca77 01bd 9a50 403d 215b f6bc da53 8cbd
00000100: 5288 ddbc d88d 4cbd 9e94 8dbd fa67 04bd
00000110: 53da debb e449 f33c 8756 85bd 069e 473d
00000120: f5fd 543d 72e7 4c3c e732 1f3c 5ad8 a4bc
00000130: dff7 453c 6d98 253c ce02 563d 1220 843d
00000140: 515f 833d 03fc 6fbd 1ea8 903d f534 3fbd
00000150: 9e8a 4b3d 4b77 df3c cb07 a53c f4d6 febc
00000160: 1488 35bd 953e 833d 004d 7e3d 43e7 853d
00000170: 8d97 0dbc 1e9c 733d 359e 863d 20c2 44bd
00000180: 35e8 ce3c a1b4 7b3d 23d5 7fbd f7d2 e4bc
00000190: f385 de3c f01d 4fbd bc23 18bc 5e84 823d
000001a0: 60be 083c bcdf 5dbd 4225 45bd c4c0 673b
000001b0: 43b5 f43a 3e12 0abd 9adb 83bc d026 033d
000001c0: c301 443d a289 5a3d 26cd 64bd 7859 793d
000001d0: 2b5c 97bd bfb0 a1bc 1bc3 803c c95a ccbc
000001e0: 4522 51bd 3ac4 043d 843c 5d3d 59cb 6dbc
000001f0: 22c0 513d 1b61 e1ba 6577 2cbd 311f 033d
00000200: 05b7 4bbd 76b3 5c3c 5570 843c b41b 903c
00000210: 3134 1ebd 4764 553d dd74 0fbd e011 9abd
00000220: d38b 41bd be65 763c 90ec efbc 3b15 91bd
00000230: 0b17 8fbd 8b46 8a3c cc14 823d 539b 833d
00000240: 2698 1ebd 6523 96bd 82aa 493d d8ac 8a3d
00000250: 09b2 81bd 0b3c 573d 3f83 b1bc 9c84 80bd
00000260: d208 c9bb 6a1b 06bd f692 12bd 48bd c4ba
00000270: d057 2dbd 96d9 a7bc bdc0 7cbd b1b7 e93c
00000280: fdaf 903d 4db4 163d 1ed3 3fbd 5f55 04bc
00000290: b09d 38bd 0d05 7ebc 4582 173d 6cb2 49bd
000002a0: 9a2b 663d 7810 86bd d565 6abc 07ea 8e3d
000002b0: 38f7 eabb d3da 39bd d1dd 64bc 374f 3dbd
000002c0: 153e 663c fdfb 8e3c 3768 893b a26d 0dbd
000002d0: ee35 8b3c 4150 303d 25df 423b 166f 1cbd
000002e0: 5600 babc 2c81 9538 8f91 1f3d 4f6f 16bd
000002f0: 365f fdbc b420 653c 17be 1f3d cef3 d13c
00000300: 043c 4dbd a45f 3e3d 6699 37bd 39f7 1f3d
00000310: a295 753d b745 883c ef17 3c3d 09e2 2f3d
00000320: 2d4f 82bd a7eb 943d 46cd 06bd 007a 533d
00000330: e5aa 1bbd 4b02 733d e407 d03c 45f0 36bd
00000340: 686c 8c3c 19e1 e13c 86df ef3a e18a 943c
00000350: b9e6 8e3b 8ba5 88bc 26b7 183d e9de c2bc
00000360: 6238 9e3d 12d0 973b 3378 69bd e1a0 1ebd
00000370: a073 7d3d 390a 483d 03cd 733d 3401 0e3d
00000380: 0efe 403d e664 6d3d 2e49 10bc a5b2 de3c
00000390: 3c1e a43b 6d5b 8bbd 66ce 3bbb 05c4 f33c
000003a0: e48d 86bc 4acb 663d 6fb6 33bc 0f30 64bd
000003b0: 16db 953c f94b 3c3d b719 f23c 0cf6 d2bc
000003c0: 830a 42bd d4e7 c53b 908b fc3b 4e0a 0ebd
000003d0: 79ce 0c3b 716b 973d 7087 7cbd c0ce 38bd
000003e0: 79e9 c53c 61ac 3abd e767 c7bc b8ec 523c
000003f0: 8f4a dc3b 9572 2cbd b7b7 6abd 7ff9 86bd

transformer.layers.1.input_proj.bias f4 [320]
-0.080825716 0.0022497233 -0.09436256 0.09847726 0.06058096 0.04935945 -0.004769084 0.023011146
0.047976933 -0.050895546 0.075186625 -0.09468726 -0.047173817 -0.0434446 0.034812175 0.107377924
0.08378364 0.052824896 0.05049904 -0.10875951 -0.09072898 -0.056371976 0.0037381253 -0.067097686
-0.09246092 -0.08703171 -0.026044792 -0.060250603 0.017841164 0.096598595 0.11394666 0.039793782
0.025193859 -0.11651911 0.1099741 -0.061599594 -0.0003916571 0.032735758 0.034133546 -0.052749276
0.022851197 0.077648036 -0.11784161 0.08721371 -0.10701851 0.0048931185 -0.03730366 0.04992088
0.094044246 -0.08114142 -0.03775147 -0.015225482 -0.041411802 -0.10971651 0.11707528 -0.07311171
-0.10700469 -0.0031291205 -0.08759669 -0.051361367 0.1188943 0.116113104 -0.031559113 -0.017216016
-0.014990896 0.078014076 0.021967243 0.06255175 -0.01983604 -0.061355736 -0.10551764 0.041753735
-0.10133758 0.10145718 -0.020411942 -0.10513233 0.080203995 0.09849608 0.035037875 -0.093997724
0.12145291 -0.09554646 0.03308902 0.03331538 0.053557925 -0.10194928 0.12125249 0.050215006
0.035972256 -0.06286633 -0.06417316 -0.0012927428 -0.10469321 -0.021126509 -0.05992805 -0.060935494
-0.1106946 0.053646907 0.11413642 0.024393732 -0.027112972 -0.033912767 0.06002472 0.022839377
0.10112839 -0.020107985 0.076751314 -0.058877114 0.015948545 0.1029414 0.008086511 -0.114237376
-0.077842765 0.11700687 -0.031798065 -0.12218068 0.013326812 0.05537939 -0.088651255 -0.046720386
-0.024737913 -0.08517849 0.08385626 0.0687187 0.02370399 0.09507413 -0.010249152 0.043329608
-0.11970503 -0.12822513 0.113198034 -0.09558836 0.058356263 -0.07294317 -0.08964308 0.1101638
0.12015163 -0.06794422 -0.059224695 0.09491128 -0.104649685 0.015421187 0.08207256 -0.032377616
-0.03862525 0.06766365 -0.12024941 -0.012716867 -0.11818421 0.077872396 0.014464775 0.07027915
-0.017170837 0.010763221 -0.03991995 0.07985899 -0.063570336 -0.06170967 -0.09813016 -0.0024448193
-0.09296857 -0.056505647 -0.0069792434 0.07202484 0.12028462 -0.026870089 0.0065322975 0.0655656
0.0045911795 0.07916264 0.0689485 0.07331784 -0.06329776 0.001927911 0.0013018085 0.017160319
0.05820249 0.10201045 -0.050396256 -0.017429296 0.048868604 0.066735536 -0.007279345 -0.06623374
-0.0142437145 0.110261 -0.0023331095 -0.12061388 -0.0032673257 0.0728 0.0151666785 -0.015111826
-0.014353479 -0.08962105 0.10517473 0.07667962 0.0036870455 -0.03061156 0.09499894 -0.09824214
-0.11844946 -0.039930344 0.0496836 -0.07967284 -0.11461188 -0.055162746 0.019700687 0.06653757
0.12623823 0.00076481863 -0.116962336 0.042458095 -0.043228004 -0.08658632 -0.061410513 0.010356478
-0.03374727 -0.1002121 0.059134394 0.06105349 -0.067291684 -0.022532739 -0.050062943 0.050257247
0.06727895 -0.02172319 -0.110663526 0.08852497 0.0895254 -0.04012956 -0.06867902 -0.086197264
0.11888405 0.045572147 -0.044969067 -0.09796666 -0.10820205 -0.11371193 -0.044475384 -0.10507001
0.027640022 0.07893546 -0.097786106 0.05625712 0.123359665 -0.09812616 0.0975565 0.031375803
0.114600316 -0.0028261468 0.059535656 -0.07346421 -0.04607217 0.010606361 0.043957647 -0.09211579
00000000: f487 a5bd 1870 133b 2841 c1bd 72ae c93d
00000010: be23 783d 222d 4a3d fa45 9cbb df81 bc3c
00000020: 7683 443d d977 50bd 72fb 993d 65eb c1bd
00000030: 5539 41bd f7f2 31bd 3697 0e3d f5e8 db3d
00000040: c296 ab3d eb5e 583d 15d8 4e3d 4ebd debd
00000050: 1ed0 b9bd 4de6 66bd 56fb 743b 836a 89bd
00000060: 275c bdbd ae3d b2bd e35b d5bc 56c9 76bd
00000070: a227 923c 7cd5 c53d de5c e93d cefe 223d
00000080: 5a63 ce3c 92a1 eebd 1a3a e13d db4f 7cbd
00000090: 5357 cdb9 ee15 063d 9ecf 0b3d a00f 58bd
000000a0: 6f32 bb3c ef05 9f3d f156 f1bd 1a9d b23d
000000b0: 852c dbbd 7456 a03b b9cb 18bd d679 4c3d
000000c0: 459a c03d 792d a6bd 49a1 1abd 4d74 79bc
000000d0: 6c9f 29bd 0db3 e0bd 2ac5 ef3d 98bb 95bd
000000e0: 4625 dbbd ee11 4dbb e565 b3bd 4c60 52bd
000000f0: db7e f33d b5cc ed3d 2144 01bd 9a08 8dbc
00000100: 609c 75bc d8c5 9f3d a6f4 b33c 221b 803d
00000110: 317f a2bc 2750 7bbd a219 d8bd f705 2b3d
00000120: 148a cfbd c8c8 cf3d f236 a7bc 9e4f d7bd
00000130: fe41 a43d 50b8 c93d e083 0f3d e181 c0bd
00000140: 4ebc f83d ddad c3bd 5a88 073d b575 083d
00000150: 8e5f 5b3d c9ca d0bd 3a53 f83d 40ae 4d3d
00000160: a557 133d 10c0 80bd 386d 83bd 4071 a9ba
00000170: 6569 d6bd 8011 adbc 1d77 75bd 7f97 79bd
00000180: dab3 e2bd dcbc 5b3d 5bc0 e93d 5dd5 c73c
00000190: 061c debc 1de8 0abd 7bdc 753d a519 bb3c
000001a0: 671c cf3d 80b9 a4bc cb2f 9d3d 2129 71bd
000001b0: 86a6 823c f1d2 d23d 497d 043c 49f5 e9bd
000001c0: 076c 9fbd 4ca1 ef3d b03e 02bd dd39 fabd
000001d0: b358 5a3c 80d5 623d ca8e b5bd e05d 3fbd
000001e0: 2aa7 cabc 0f72 aebd d5bc ab3d 64bc 8c3d
000001f0: df2e c23c 3ab6 c23d 0fec 27bc 637a 313d
00000200: e927 f5bd 734d 03be 5fd4 e73d d5c3 c3bd
00000210: fa06 6f3d 3b63 95bd cb96 b7bd 8f9d e13d
00000220: 0f12 f63d 5726 8bbd 9895 72bd d860 c23d
00000230: 9352 d6bd 25a9 7c3c a915 a83d 649e 04bd
00000240: 8335 1ebd 3d93 8a3d 5345 f6bd 685a 50bc
00000250: 900a f2bd 907b 9f3d aafd 6c3c 84ee 8f3d
00000260: dba9 8cbc 3958 303c 1a83 23bd 1c8d a33d
00000270: 2a31 82bd 47c3 7cbd 77f8 c8bd 4339 20bb
00000280: 4e66 bebd 7772 67bd 23b2 e4bb c281 933d
00000290: c857 f63d a91e dcbc e20c d63b 4247 863d
000002a0: 9b71 963b 0620 a23d df34 8d3d aa27 963d
000002b0: 42a2 81bd f5b1 fc3a 72a1 aa3a cc93 8c3c
000002c0: bc65 6e3d dbea d03d 4e6c 4ebd e2c7 8ebc
000002d0: 722a 483d a4ac 883d 9287 eebb 8ea5 87bd
000002e0: 785e 69bc 85d0 e13d 15e7 18bb 6904 f7bd
000002f0: a120 56bb 2b18 953d a97d 783c 9897 77bc
00000300: db2a 6bbc 3e8b b7bd d965 d73d 340a 9d3d
00000310: 5ca2 713b 18c5 fabc ce8e c23d 2d33 c9bd
00000320: a195 f2bd 008e 23bd 0881 4b3d 842b a3bd
00000330: a2b9 eabd 55f2 61bd 5663 a13c d944 883d
00000340: 9844 013e 1c7e 483a f389 efbd 8ae8 2d3d
00000350: d90f 31bd 2b54 b1bd 9789 7bbd 38ae 293c
00000360: 943a 0abd 003c cdbd e836 723d 3913 7a3d
00000370: 39d0 89bd 9496 b8bc cd0e 4dbd 8bda 4d3d
00000380: 8cc9 893d d5f4 b1bc 8fa3 e2bd 944c b53d
00000390: 1859 b73d e55e 24bd 96a7 8cbd 3188 b0bd
000003a0: 7b79 f33d dca9 3a3d 7c31 38bd bfa2 c8bd
000003b0: 0999 ddbd cde1 e8bd d22b 36bd f22e d7bd
000003c0: 546d e23c eaa8 a13d 1544 c8bd de6d 663d
000003d0: fea3 fc3d 5ef6 c8bd b4cb c73d ea83 003d
000003e0: 92b3 ea3d e036 39bb a9db 733d 6774 96bd
000003f0: 2cb6 3cbd 4dc6 2d3c ef0c 343d 34a7 bcbd

transformer.layers.1.input_proj.weight f4 [320, 64]
-0.050041012 -0.027027374 0.07098535 -0.071893565 -0.10321408 0.027059078 -0.02058104 -0.11590194
-0.107196756 -0.12235761 0.06897477 0.00035130038 -0.101455845 0.082746975 0.08350764 0.04017271
-0.09984406 0.0008536733 -0.056774374 -0.10020531 -0.06934445 0.082245044 -0.032466132 0.0053592026
0.08527722 -0.024931502 0.014545133 -0.12304621 0.06374492 0.07902112 0.05431415 -0.059007097
-0.025331136 -0.0633979 0.086610086 -0.11852625 -0.02614683 0.051146705 0.129415 0.09554224
-0.05923324 0.040255293 0.072382174 -0.07695725 0.026417576 -0.06606564 -0.11610298 -0.09840626
0.06612262 -0.109597914 0.10161233 -0.027432438 -0.058583036 0.09333624 0.028657936 -0.100785024
0.06107178 -0.124208234 0.013702363 0.0134952115 0.012813406 0.03763922 -0.10295821 -0.07089343
-0.06408811 0.053065147 0.06763924 -0.044412594 -0.0714381 0.117050834 0.09991588 0.05847999
-0.0836965 -0.10960061 -0.03928318 0.014776216 0.045689225 0.060253363 0.11917496 -0.0042775106
0.1153067 -0.106946744 0.08825446 0.008299042 -0.010614329 0.11776529 0.06826814 -0.11466054
0.12704013 -0.009420027 0.049166173 0.06037397 0.109021895 -0.05304568 -0.11821831 -0.012932
-0.05036505 0.09652448 0.115985736 -0.03252517 0.03377202 0.031102523 0.11543101 -0.09513514
-0.08741488 0.011895713 0.033168454 -0.023700751 0.006151294 -0.057153527 -0.0833949 0.07473169
-0.06702694 0.083740085 0.019798895 0.0068734568 0.01054865 0.037444882 -0.0812185 0.034578994
0.03154488 0.05560894 0.11532858 0.011731143 -0.061898313 0.0032997031 0.041343667 -0.023922708
0.05099292 -0.0044885897 -0.03269954 0.12192615 0.079852134 0.041059688 -0.035433803 0.123003356
-0.1198024 -0.054714877 0.0790676 -0.00056317006 -0.013579309 0.11747329 -0.068783276 -0.004861164
-0.10891089 0.018528363 -0.04539541 0.09848209 -0.11969025 -0.098353036 0.061572116 -0.09487471
0.04441274 0.009071412 0.11830541 0.0009833928 0.0907936 0.09205802 0.077877074 0.03347839
-0.09930035 -0.025697991 -0.045335274 0.036432877 0.055459067 0.06757932 -0.030600918 -0.017202973
0.080016404 0.11840359 0.06946676 0.08931006 0.09624438 0.12100809 -0.061116394 0.03770669
0.0739576 0.032149874 -0.09947773 0.12673561 0.11577549 -0.0008589737 -0.013392518 -0.037956916
0.016946733 -0.11994855 -0.088141985 -0.09804144 0.022127174 0.052388348 -0.09642602 -0.03913788
0.04337477 -0.084857985 -0.067519404 0.10151672 -0.03120076 -0.1233186 0.0031724372 -0.022307193
0.11286626 -0.0062877564 -0.036721043 -0.014650754 0.09566335 -0.09095342 0.053878076 -0.07331602
0.11820941 0.046618026 -0.053996 0.04174754 0.089319855 0.04375941 -0.033014823 0.024423167
0.07180607 -0.04806749 -0.122147694 0.036767714 -0.08473241 -0.09551812 -0.09008736 0.12713909
0.04472211 0.11044532 0.049824502 -0.05085366 0.0035282343 0.07507821 0.06821616 0.06793171
0.05620099 -0.03224709 0.061174057 -0.065733895 0.120961905 0.10242923 0.014620398 2.0413898e-05
-0.0893944 0.010642306 0.100632414 -0.07050611 0.08998184 0.054977696 0.0512273 0.105380476
0.054453194 0.08433954 0.054238178 -0.12267563 0.10931038 0.09218842 -0.03548005 -0.08926491
00000000: cef7 4cbd 8368 ddbc c460 913d ef3c 93bd
00000010: e761 d3bd 00ab dd3c 9299 a8bc ff5d edbd
00000020: f989 dbbd a096 fabd a542 8d3d bd2e b839
00000030: 15c8 cfbd 3f77 a93d 0e06 ab3d 248c 243d
00000040: 0b7b ccbd 0cc9 5f3a 3f8c 68bd 7138 cdbd
00000050: 7704 8ebd 1770 a83d 35fb 04bd 409c af3b
00000060: d3a5 ae3d 263d ccbc b64e 6e3c a7ff fbbd
00000070: b28c 823d d3d5 a13d 8478 5e3d 6db1 71bd
00000080: 3e83 cfbc c2d6 81bd a160 b13d e4bd f2bd
00000090: e031 d6bc 357f 513d 5e85 043e a6ab c33d
000000a0: 8e9e 72bd bce2 243d 1b3d 943d c39b 9dbd
000000b0: ac69 d83c 6c4d 87bd 66c7 edbd 3989 c9bd
000000c0: 4c6b 873d df74 e0bd 201a d03d feb9 e0bc
000000d0: c4f4 6fbd 1227 bf3d 0cc4 ea3c 6168 cebd
000000e0: 6726 7a3d e360 febd e07f 603c 051b 5d3c
000000f0: 52ef 513c 952b 1a3d c1db d2bd 9330 91bd
00000100: a140 83bd d75a 593d 7186 8a3d fbe9 35bd
00000110: 234e 92bd 59b8 ef3d b2a0 cc3d b788 6f3d
00000120: 1269 abbd 4976 e0bd 66e7 20bd f117 723c
00000130: a024 3b3d 3bcc 763d 0012 f43d 5c2a 8cbb
00000140: eb25 ec3d e506 dbbd c1be b43d b4f8 073c
00000150: b9e7 2dbc ee2e f13d 2bd0 8b3d 25d3 eabd
00000160: cf16 023e 7556 1abc 7862 493d b24a 773d
00000170: df46 df3d 6d46 59bd 711c f2bd bde0 53bc
00000180: 954b 4ebd a0ae c53d ee89 ed3d 1d39 05bd
00000190: 8854 0a3d b8ca fe3c 1867 ec3d 36d6 c2bd
000001a0: 9306 b3bd 3de6 423c a5db 073d 1428 c2bc
000001b0: cb90 c93b d119 6abd f2ca aabd ee0c 993d
000001c0: 6c45 89bd ec7f ab3d 4b31 a23c bc3a e13b
000001d0: 3fd4 2c3c ce5f 193d e355 a6bd b4a2 0d3d
000001e0: 3435 013d 33c6 633d 6431 ec3d fb33 403c
000001f0: 1689 7dbd d53f 583b fa57 293d 8ef9 c3bc
00000200: f4dd 503d 0515 93bb f4ef 05bd 6bb4 f93d
00000210: 8489 a33d 342e 283d 0923 11bd 2fe9 fb3d
00000220: f65a f5bd b51c 60bd 32ee a13d b4a1 13ba
00000230: c07b 5ebc d695 f03d 3fde 8cbd 664a 9fbb
00000240: ac0c dfbd cbc8 973c 8af0 39bd fab0 c93d
00000250: 2920 f5bd 516d c9bd 0b33 7c3d ac4d c2bd
00000260: 22ea 353d 42a0 143c 1b4a f23d 30e5 803a
00000270: fff1 b93d ea88 bc3d 047e 9f3d a320 093d
00000280: fb5d cbbd 9884 d2bc 7bb1 39bd a43a 153d
00000290: 0c29 633d 0767 8a3d c7ae fabc 40ed 8cbc
000002a0: a4df a33d 957d f23d 9744 8e3d 31e8 b63d
000002b0: c61b c53d 17d3 f73d 2f55 7abd 5572 1a3d
000002c0: 1577 973d 96af 033d fbba cbbd fbc6 013e
000002d0: b31b ed3d c02c 61ba 4b6c 5bbc b678 1bbd
000002e0: e0d3 8a3c 96a7 f5bd c983 b4bd f3c9 c8bd
000002f0: 0c44 b53c 2a95 563d 017b c5bd 0b4f 20bd
00000300: bea9 313d 06ca adbd 9d47 8abd 00e8 cf3d
00000310: bc98 ffbc 768e fcbd aae8 4f3b 93bd b6bc
00000320: 6d26 e73d 8609 cebb ce68 16bd b709 70bc
00000330: 25eb c33d c945 babd 42af 5c3d b626 96bd
00000340: c617 f23d 8bf2 3e3d e92a 5dbd 78ff 2a3d
00000350: 54ed b63d 113d 333d 8d3a 07bd 1813 c83c
00000360: 100f 933d 6be2 44bd 9228 fabd be99 163d
00000370: 3088 adbd 019f c3bd b97f b8bd c030 023e
00000380: 882e 373d 2831 e23d c714 4c3d ed4b 50bd
00000390: f339 673b 9bc2 993d eab4 8b3d c81f 8b3d
000003a0: 0233 663d 8615 04bd a691 7a3d 7e9f 86bd
000003b0: e0ba f73d 6bc6 d13d 658a 6f3c 833e ab37
000003c0: 6914 b7bd 115d 2e3c 5e18 ce3d 8265 90bd
000003d0: 6648 b83d 4b30 613d b8d3 513d b8d1 d73d
000003e0: 500a 5f3d 35ba ac3d da28 5e3d 5c3d fbbd
000003f0: 1fde df3d 48cd bc3d 8753 11bd 85d0 b6bd
