tutorials/input/motor_model/model.safetensors (safetensors, 342416 bytes, 17 tensors)

task_model.final_layer.bias f4 [128]
0	0x3c4815bf	0.012212216
1	0xbc5cf257	-0.013485513
2	0x3d89ca91	0.067280896
3	0xbc73fcdd	-0.01489183
4	0xbdf53ba2	-0.11974265
5	0xbadb7539	-0.0016743309
6	0x3da1f663	0.07908323
7	0xbd8f4e8c	-0.069974035
8	0xbdc9b06e	-0.098481044
9	0xbdbc02e9	-0.091802426
10	0xbc05ab20	-0.008158475
11	0x3d3afaa2	0.04564918
12	0xbce43cee	-0.027861085
13	0xbc22a8b5	-0.009927918
14	0x3d625880	0.05526018
15	0xbb817001	-0.0039501195
16	0xbd47ee19	-0.048811052
17	0x3db2948e	0.08719741
18	0xbdb679a1	-0.089099176
19	0xbdc7f800	-0.09764099
20	0x3adb5569	0.0016733828
21	0xbd93afb6	-0.072112486
22	0xbd5f8bbc	-0.05457662
23	0xbdd5fc1d	-0.104484774
24	0x3d90abc6	0.07064013
25	0xbda4b3a0	-0.08042073
26	0x3b19dacf	0.0023476367
27	0xbd9348fa	-0.071916535
28	0xbb253df3	-0.0025213927
29	0x3df8b2e8	0.12143499
30	0x3dbf1d71	0.093317874
31	0xbdc9bfc5	-0.0985103
32	0x3ddd252d	0.10798106
33	0x3dce344c	0.100685686
34	0x3d41112b	0.047135513
35	0xbd8b31ca	-0.06796606
36	0x3caf990b	0.021435281
37	0xbde144bf	-0.109994404
38	0x3c2c6b71	0.010523663
39	0xbb6f2011	-0.003648762
40	0xbd4a5150	-0.049393952
41	0xbd711c58	-0.05886492
42	0xbdfc94a7	-0.12333041
43	0xbd15bd03	-0.03655721
44	0xbde64a0b	-0.11244591
45	0x3d99cf07	0.075101905
46	0xbd4a068a	-0.049322642
47	0xbc22d081	-0.0099374065
48	0xbd4522af	-0.04812878
49	0xbbcc9f36	-0.0062445654
50	0xbd2be268	-0.041963965
51	0xbd2a9df6	-0.04165455
52	0x3d033956	0.0320371
53	0xbd9d3279	-0.076756425
54	0xbd324b37	-0.04352876
55	0xbddd9263	-0.10818937
56	0x3deec07c	0.11657807
57	0xbac954f0	-0.0015360396
58	0xbd8cf6a4	-0.068829805
59	0xbcd39853	-0.02582947
60	0xbdbd880f	-0.09254467
61	0x3d46eda8	0.04856649
62	0xbd2fa364	-0.04288043
63	0x3dae31af	0.0850557
64	0xbdab8174	-0.083743006
65	0x3c9ce13a	0.019150365
66	0xbce3fd18	-0.027830645
67	0x3d373f1d	0.044737924
68	0xbda09db4	-0.078425795
69	0xbdf9f511	-0.12204946
70	0xbdc47d19	-0.09594173
71	0x3d267c95	0.040646154
72	0x3dbe2f9a	0.09286423
73	0xbc0a463f	-0.0084396
74	0xbd97b2ab	-0.07407125
75	0x3d6a1715	0.05715092
76	0xbdc81dce	-0.0977131
77	0x3dad32da	0.08456965
78	0x3e08152f	0.13289331
79	0xbc5ad214	-0.013355751
80	0x3de7a06d	0.11309896
81	0xbdd77065	-0.105194844
82	0x3dab3480	0.08359623
83	0xbdf6916c	-0.12039456
84	0x3cfc3f6f	0.030791966
85	0xbe07af5f	-0.13250493
86	0x3de9038a	0.11377628
87	0x3d4add71	0.04952759
88	0xbce4f4f1	-0.027948828
89	0x3dba6bee	0.09102617
90	0xbd88e4e9	-0.06684286
91	0xbcf9ddf8	-0.03050135
92	0x3e074b8c	0.13212413
93	0xbd2e8821	-0.04261029
94	0x3df11fd2	0.11773647
95	0xbd8cb330	-0.06870115
96	0xbd35cfef	-0.044387754
97	0xbcb67bce	-0.022275832
98	0x3dcd1a8c	0.10014829
99	0x3dcf6332	0.10126342
100	0x3cfe1bb7	0.031019075
101	0x3dcc1769	0.09965403
102	0xbc81afc1	-0.015830876
103	0xbd8d634d	-0.06903706
104	0xbcc9b6c8	-0.02462329
105	0x3d616cdb	0.055035453
106	0xbc09dfe5	-0.008415197
107	0x3e04db7a	0.12974349
108	0xbc1d1918	-0.009588502
109	0xbc2c73dc	-0.01052567
110	0xbd899515	-0.06717888
111	0xbdf7f167	-0.12106591
112	0xbdca692d	-0.09883342
113	0x3d0c4322	0.03424371
114	0xbc9e113e	-0.019295331
115	0x3c8aa07c	0.016922228
116	0xbc9f27b6	-0.019428115
117	0x3d34e633	0.044164848
118	0xbb1766cc	-0.0023102043
119	0x3d8613fd	0.06546781
120	0x3dbe6c2e	0.092979774
121	0x3d8fa4f7	0.070138864
122	0xbdb527d5	-0.08845488
123	0x3d7563ee	0.059909754
124	0x3d1a29d2	0.03763754
125	0xbb6499c5	-0.0034881693
126	0x3dddbdc4	0.108272105
127	0xbc9ca470	-0.019121379

task_model.final_layer.weight f4 [128, 64]
0	0x3c32ae73	0.01090585
1	0x3dc62bf3	0.096763514
2	0xbc0490b1	-0.008091138
3	0x3d8eb6a4	0.0696843
4	0x3dec8c8f	0.11550247
5	0x3d95ee8a	0.07320888
6	0x3ce64bb7	0.028112276
7	0x3caba970	0.020954818
8	0xbd9245b7	-0.07142203
9	0xbd36ca62	-0.0446266
10	0xbd532078	-0.051544636
11	0x3d4991a3	0.049211156
12	0x3db0a30b	0.08624848
13	0xbd25b14a	-0.04045228
14	0x3ce2a7af	0.027667848
15	0x3debcf4e	0.115141496
16	0x3d0551f6	0.032548867
17	0xbd97eb11	-0.07417882
18	0xbbd38c0f	-0.0064559053
19	0xbd0ba7a8	-0.034095436
20	0xbd03974c	-0.03212671
21	0x3a8d2448	0.0010768259
22	0x3ac37ac2	0.0014913904
23	0x3c2c3989	0.010511764
24	0xbde07942	-0.10960628
25	0xbdc9a928	-0.09846717
26	0xbdc0097f	-0.09376811
27	0x3cd667d1	0.02617255
28	0xbc92c987	-0.017918361
29	0xbd1b7217	-0.0379506
30	0x3d22d2d6	0.03975185
31	0x3da95968	0.08269006
32	0x3db622fe	0.08893393
33	0x3dafca46	0.085835025
34	0x3b34d1da	0.0027590902
35	0x3c9f8725	0.019473622
36	0xbce46e27	-0.027884556
37	0xbdc30c52	-0.09523834
38	0x3dae9cd0	0.08526003
39	0xbc7ec45d	-0.015549746
40	0x3c5db73d	0.013532457
41	0xbdfac41c	-0.12244436
42	0xbdba4d27	-0.09096747
43	0xbdbdd4a9	-0.09269077
44	0x3d82b9c9	0.06383092
45	0xbd0952c4	-0.033526197
46	0xbc130ba7	-0.008974946
47	0xbddd10f3	-0.107942484
48	0xbe0518f5	-0.12997802
49	0x3d584852	0.052803345
50	0xbc3539f3	-0.011061179
51	0x3beedbcf	0.007289387
52	0x3db53d2a	0.08849557
53	0xbd8da5f2	-0.06916417
54	0xbd888e65	-0.066677846
55	0xbda58b07	-0.08083158
56	0x3d2fbea6	0.042906426
57	0x3c8ecab7	0.017430646
58	0xbdfda065	-0.123841085
59	0x3d217f7c	0.03942822
60	0xbd56f31e	-0.05247795
61	0xbca44966	-0.02005453
62	0x3ce06ab3	0.027394628
63	0xbcefc05f	-0.029266534
64	0x3a1b7c09	0.00059312634
65	0xbd71f321	-0.059069756
66	0x3d953100	0.07284737
67	0xbdd01ac0	-0.10161352
68	0x3d07fcd5	0.033200104
69	0xbdb00421	-0.085945375
70	0x3d8f835b	0.07007476
71	0xbd7af788	-0.06127122
72	0x3de9fad4	0.11424795
73	0x3d698e71	0.05702061
74	0x3d75f5a1	0.060048703
75	0x3c22d4c3	0.009938422
76	0x3d972e67	0.073818974
77	0xbd846ae8	-0.06465703
78	0x3cfaf6fc	0.03063535
79	0xbd3a27dc	-0.04544817
80	0xbce5ab89	-0.028035896
81	0xbd77943b	-0.060444098
82	0x3db71f56	0.08941524
83	0x3d59d239	0.053179
84	0x3dda7fc3	0.106689
85	0xbdba2e10	-0.09090817
86	0x3a1ae3f6	0.00059086026
87	0xbdb11daa	-0.08648236
88	0x3cea6adb	0.028615406
89	0x3de66f4f	0.11251699
90	0x3ddaea3f	0.1068921
91	0x3e0320b9	0.12805451
92	0x3da87a8b	0.08226498
93	0x38895080	6.547663e-05
94	0x3d6be0a5	0.057587285
95	0xbcd0e954	-0.025501885
96	0xbc055d46	-0.008139914
97	0x3e060adc	0.1309008
98	0xbcf411e9	-0.029793696
99	0x3d3e5eaf	0.046477016
100	0xbd86e3cf	-0.0658642
101	0x3cf7bbb2	0.030240867
102	0xbdc5125f	-0.09622645
103	0x3d48d709	0.0490332
104	0xbc3b103c	-0.011417445
105	0xbdec9b9c	-0.11553118
106	0x3bb306a6	0.005463439
107	0xbd6c65f4	-0.057714418
108	0xbc3e6ad4	-0.0116221495
109	0x3deadc9b	0.114678584
110	0x3da21ec5	0.07916025
111	0x3da33fa5	0.079711236
112	0xbd0bd7e4	-0.034141436
113	0x3d9ffe98	0.07812232
114	0xbca43c3c	-0.020048253
115	0x3dc2a7ae	0.095046386
116	0x3d85b37f	0.06528377
117	0xbe021b2b	-0.12705676
118	0x3d955c99	0.07293052
119	0xbdb9903e	-0.09060715
120	0x3cb124c7	0.021623982
121	0xbdbd00c0	-0.09228659
122	0xbdb11cfe	-0.08648108
123	0x3dad26b7	0.0845465
124	0x3d8bf0e1	0.068330534
125	0x3d902965	0.070391454
126	0x3d9a8a6f	0.07545935
127	0x3bf9a2be	0.0076182773
128	0xbcce6286	-0.025193464
129	0x3d6f0c9c	0.058361635
130	0xbd29f356	-0.04149183
131	0x3d1437ac	0.036185905
132	0xbbdf64d6	-0.0068174405
133	0xbd17d7a7	-0.037070896
134	0xbc2b4ea5	-0.010455762
135	0x3c8adfa6	0.016952347
136	0xbdd18a0d	-0.10231409
137	0x3dfc181e	0.123092875
138	0x3d19f0cc	0.037583157
139	0xbb31c8d5	-0.0027127762
140	0xbdfad942	-0.1224847
141	0x3dcd0afe	0.10011862
142	0x3da71544	0.08158353
143	0x3d9a38a7	0.07530337
144	0xbdd69ea0	-0.10479474
145	0xbde82957	-0.1133601
146	0x3d117204	0.035509124
147	0xbd534676	-0.05158087
148	0xbd1e860e	-0.038702063
149	0x3db19b9e	0.0867226
150	0xbe011230	-0.12604594
151	0x3c2e476a	0.010637144
152	0xbcc8fa36	-0.024533372
153	0x3d78f810	0.060783446
154	0x3d834753	0.064100884
155	0x3e0245a1	0.12721874
156	0xbde64e59	-0.112454124
157	0x3d72aa8e	0.059244685
158	0xbc76a6a4	-0.015054379
159	0xbdb894c9	-0.090127535
160	0x3e04fd23	0.12987189
161	0xbd546c27	-0.051860955
162	0xbca1cb08	-0.019750133
163	0xbd5eb041	-0.054367308
164	0xbdeb0cf5	-0.11477081
165	0x3d8f1b30	0.069876075
166	0xbdd37a26	-0.10326032
167	0xbdccb1d4	-0.099948555
168	0xbdff11a3	-0.12454536
169	0x3d6516fc	0.055930123
170	0xbcf28f67	-0.029609395
171	0x3d9ff0e2	0.078096166
172	0xbd2782bc	-0.040896162
173	0xbdb4c7d5	-0.088271774
174	0x3d248266	0.04016342
175	0x3db0a3a4	0.08624962
176	0xbcecbf13	-0.028899705
177	0x3d790dc4	0.060804144
178	0xbd9b0f3a	-0.075712636
179	0xbdfc89fe	-0.123310074
180	0xbd7ff906	-0.062493347
181	0x3c6c3734	0.014417458
182	0x3d19fa21	0.037592057
183	0x3da7cefb	0.08193775
184	0x3b37bdf4	0.0028036805
185	0x3d42dca2	0.047573693
186	0xbd4ddeb8	-0.05026123
187	0xbdabcc5f	-0.0838859
188	0x3dc2e4aa	0.095162705
189	0x3da055f4	0.07828894
190	0x3dcdcb7f	0.100485794
191	0xbcfa5097	-0.030556006
192	0xbd9e10fe	-0.07718085
193	0x3de13096	0.10995595
194	0x3ddc6a80	0.10762501
195	0xbcbc17e6	-0.022960614
196	0x3daf5b59	0.08562345
197	0xbd9f768e	-0.077862844
198	0xbc960160	-0.018311203
199	0xbcba2e71	-0.022727223
200	0x3cd11fe4	0.025527902
201	0xbbf87649	-0.00758246
202	0x3c6eec70	0.014582738
203	0xbdbbdaf1	-0.09172619
204	0xbba15f0a	-0.0049246596
205	0xbcc63b43	-0.02419818
206	0xbdbb2a54	-0.09138933
207	0x3c48e5b8	0.0122618005
208	0xbd377af0	-0.044794977
209	0x3db8e358	0.090277374
210	0xbde8fce9	-0.11376364
211	0x3d860a5a	0.06544943
212	0xbdcd0800	-0.100112915
213	0x3dacb330	0.08432615
214	0xbd2e9b52	-0.042628594
215	0x3cecd080	0.028908014
216	0x3c97acbd	0.018514985
217	0x3d91d7ca	0.071212366
218	0xbd515598	-0.05110702
219	0x3d9d6c81	0.07686711
220	0x3dfc4d4d	0.123194315
221	0xbdbc65ca	-0.09199102
222	0xbda40e88	-0.08010584
223	0xbde226a1	-0.11042524
224	0xbdf4711c	-0.119356364
225	0x39b0822f	0.0003366633
226	0x3d395ac1	0.045252565
227	0x3d08f7d4	0.033439472
228	0xbdac64cd	-0.08417664
229	0xbda1dbc3	-0.07903244
230	0xbdfa5565	-0.12223319
231	0xbd2d7f9a	-0.04235802
232	0xbd57a868	-0.05265084
233	0x3d25b67e	0.04045724
234	0xbde60745	-0.11231855
235	0x3d7a3c29	0.06109253
236	0xbd27ab70	-0.04093498
237	0x3cbd3a4a	0.023099083
238	0x3d98c0c6	0.074586436
239	0x3d261446	0.040546678
240	0xbcc1b130	-0.02364406
241	0x3d2c0a3f	0.04200196
242	0xba3f4096	-0.0007295696
243	0x3d852904	0.06501964
244	0xbd6080d0	-0.054810345
245	0x3d53c0c6	0.051697515
246	0x3dd1441b	0.10218068
247	0x3df40927	0.11915808
248	0x3d639214	0.055559233
249	0xbb480ed0	-0.0030526407
250	0xbd976fc5	-0.07394365
251	0x3bec96ee	0.0072201407
252	0x3d3b933b	0.045794707
253	0x3da5776b	0.08079418
254	0x3d6f7485	0.05846073
255	0x3e09dc29	0.1346289

task_model.task_layer.bias f4 [64]
0	0xff800000	-inf
1	0xff800000	-inf
2	0xff800000	-inf
3	0xff800000	-inf
4	0xc1d929d1	-27.145418
5	0xc1daf2b3	-27.368505
6	0xc1db2fc2	-27.39832
7	0xc1de988d	-27.824488
8	0xc1ddc09b	-27.719046
9	0xc1dd044d	-27.6271
10	0xc1dddd48	-27.733047
11	0xc1e10fb0	-28.13266
12	0xc1e462b5	-28.548197
13	0xc1e623dc	-28.76751
14	0xc1e6823c	-28.813591
15	0xc1f0bea2	-30.093082
16	0xc1e876ea	-29.058064
17	0xc1e91206	-29.1338
18	0xc1e51078	-28.633041
19	0xc1e49983	-28.574957
20	0xc1e8ee4f	-29.116362
21	0xc1e248f1	-28.285616
22	0xc1e43ee6	-28.530712
23	0xc1e86afe	-29.052242
24	0xc1ee5021	-29.789125
25	0xc1e9a31f	-29.204649
26	0xc1eb1b44	-29.388313
27	0xc1dedaf9	-27.85692
28	0xc1e8fa1a	-29.12212
29	0xc1e88a29	-29.067461
30	0xc1e9e01f	-29.234434
31	0xc1fc0022	-31.500065
32	0xc1e67ec5	-28.8119
33	0xc1e5eae0	-28.739685
34	0xc1e81761	-29.011415
35	0xc1e9f91e	-29.24664
36	0xc1e6ac7d	-28.834223
37	0xc1e68ff1	-28.820284
38	0xc1ee2245	-29.766733
39	0xc1eac330	-29.345306
40	0xc1e87635	-29.057718
41	0xc1e2a5a5	-28.330881
42	0xc1e1443e	-28.158321
43	0xc1f68488	-30.814713
44	0xc1ef4268	-29.907425
45	0xc1f4e76e	-30.613003
46	0xc1fac3b3	-31.345556
47	0xc1e05be4	-28.044868
48	0xc1f6bc23	-30.841864
49	0xc1edc42f	-29.720793
50	0xc1e87656	-29.057781
51	0xc1e685f6	-28.81541
52	0xc1f98f77	-31.195051
53	0xc1f8858f	-31.065214
54	0xc1f87480	-31.056885
55	0xc1f1bd5f	-30.217466
56	0xc1e759ef	-28.918913
57	0xc1e80e4e	-29.006985
58	0xc1e94933	-29.160742
59	0xc1e84029	-29.031328
60	0xc1eb4366	-29.40791
61	0xc1f7bfea	-30.968708
62	0xc1f55398	-30.665817
63	0xc1e9ffbb	-29.249868

task_model.task_layer.weight f4 [64, 32]
0	0xbd87a27d	-0.06622789
1	0x3db71fc1	0.089416035
2	0xbe06cb9f	-0.13163613
3	0xbd39975e	-0.04531037
4	0xbd1137a7	-0.035453465
5	0xbc8bbc66	-0.017057609
6	0xbd6318d1	-0.05544359
7	0xbb77dbdf	-0.0037820262
8	0xbe3444cf	-0.17604373
9	0xbda7dfac	-0.08196959
10	0x3e18db03	0.14927296
11	0x3b5e08c7	0.0033879743
12	0x3d91587a	0.07096954
13	0x3dcc2c26	0.09969358
14	0xbd914ce9	-0.070947476
15	0xbd9a24c4	-0.07526544
16	0x3de64ba8	0.11244899
17	0xbe25b67a	-0.1618289
18	0xbe0e63b5	-0.13905223
19	0x3e23fa95	0.16013558
20	0x3d14ba74	0.036310628
21	0xbdde2c77	-0.10848325
22	0xbd2af60b	-0.04173855
23	0x3d2e9438	0.04262182
24	0xbd888a9e	-0.06667064
25	0x3e151a16	0.14560732
26	0xbdf0b669	-0.11753542
27	0xbc7cd4c1	-0.015431584
28	0xbe14a167	-0.14514695
29	0x3df82210	0.12115872
30	0x3c760c5d	0.015017596
31	0xbe2ab5c2	-0.16670898
32	0x3df1d5f9	0.1180839
33	0xbe29be1d	-0.16576429
34	0xbc2f670c	-0.010705721
35	0x3e1d68f6	0.1537207
36	0x3de98a08	0.114032805
37	0x3c65b8ec	0.01402114
38	0x3d1e70e2	0.038681872
39	0xbb5685cd	-0.003273356
40	0xbcb20563	-0.021731084
41	0xbdcecf56	-0.1009814
42	0x3dec3571	0.11533631
43	0xbc65ef1a	-0.014034057
44	0x3e192ae0	0.14957762
45	0xbd570c92	-0.052502222
46	0x3e0873e0	0.13325453
47	0x3df85653	0.1212584
48	0xbd63d46c	-0.055622503
49	0x3e0787e9	0.1323544
50	0xbda18170	-0.07886016
51	0x3d50b3cb	0.050952714
52	0xbcdd2c6d	-0.026998723
53	0x3dd9a048	0.10626274
54	0x3d973f9c	0.073851794
55	0x3dbbeb8e	0.09175788
56	0x3db85306	0.090002105
57	0xbdba0421	-0.09082819
58	0xbdfce967	-0.123492055
59	0xbe093412	-0.1339877
60	0x3d0e29d6	0.034707867
61	0xbdc7176b	-0.097212635
62	0x3d25995f	0.04042947
63	0x3cf14232	0.02945051
64	0xbdf88926	-0.12135534
65	0xbd901015	-0.070343174
66	0xbe0aa676	-0.13540062
67	0xbe1cf561	-0.1532798
68	0x3e00a496	0.12562785
69	0xbcfa7975	-0.030575493
70	0x3c155d6b	0.009116511
71	0x3dfcd06f	0.12344443
72	0x3d5ffb8e	0.05468326
73	0xbafc9ffc	-0.0019273753
74	0x3c831481	0.016000988
75	0x3e2827f1	0.16421486
76	0x3c9e7816	0.01934437
77	0x3c1e2dcc	0.0096544735
78	0x3e071a54	0.13193637
79	0x3d2c23de	0.042026393
80	0xbb490a0f	-0.0030676161
81	0xbc8bff22	-0.01708943
82	0xbd141cb9	-0.036160205
83	0xbe0a79f0	-0.13523078
84	0x3d84456f	0.06458556
85	0x3dd3f1bd	0.10348842
86	0x3e11ad55	0.14226277
87	0xbcd1f757	-0.025630636
88	0x3c4d11e8	0.012516476
89	0xbdbf3fb2	-0.09338321
90	0xbe138e05	-0.14409645
91	0x3d08f562	0.03343714
92	0xbb3c32b8	-0.0028716754
93	0xbc33e145	-0.010979001
94	0xbe124ba9	-0.14286675
95	0xbcb2bed3	-0.021819508
96	0x3ddb15d7	0.10697525
97	0x3d33e1e9	0.043916617
98	0x3ce7f723	0.028316086
99	0x3e0cdf1f	0.13756989
100	0x3d7fa9b1	0.06241769
101	0x3d667958	0.056268066
102	0xbc66fff5	-0.014099111
103	0x3d715599	0.058919523
104	0x3dcd5c29	0.10027344
105	0x3b8d7159	0.0043164906
106	0x3d995aab	0.07487997
107	0xbdabea6d	-0.083943225
108	0x3e180957	0.14847313
109	0xbd32b377	-0.043628182
110	0xbe2a4ab9	-0.16630067
111	0x3d3cc2a3	0.046084058
112	0xbdcf05f1	-0.10108555
113	0xbdca84e4	-0.09888628
114	0xbcec2338	-0.028825387
115	0xbe2afe4e	-0.16698572
116	0x3c3cf132	0.011532115
117	0xbe00b522	-0.12569097
118	0xbd80b0f7	-0.06283753
119	0x3df3121a	0.11868687
120	0x3b96bfc4	0.004600497
121	0xbda9996d	-0.08281217
122	0xbdbf7107	-0.0934773
123	0xbd77f4aa	-0.060536064
124	0xbc302e46	-0.01075322
125	0xbd838856	-0.064224884
126	0x3df104bf	0.11768483
127	0x3b46fa8f	0.0030361747
128	0x3e30ae8a	0.17254081
129	0x3bae9b22	0.005328552
130	0xbbe8be6d	-0.0071027786
131	0x3dd2db9f	0.10295796
132	0x3e1d5e4e	0.15368006
133	0xbe16f7fb	-0.14743035
134	0xbd9c3a70	-0.076283336
135	0xbe3501b9	-0.17676438
136	0x3e194230	0.14966655
137	0x3e05202c	0.13000554
138	0x3bc9ab0e	0.0061544245
139	0x3dbb4eb2	0.09145869
140	0x3cf384ec	0.029726468
141	0xbdff1aaf	-0.12456261
142	0xbd587684	-0.0528474
143	0x3e3ea73d	0.18618484
144	0xbda6b1ce	-0.08139382
145	0xbe2ac39a	-0.16676179
146	0x3cd66728	0.026172236
147	0xbcd3f2ed	-0.025872672
148	0x3c8e030e	0.017335441
149	0xbd92b96d	-0.071642734
150	0xbdba7881	-0.091050155
151	0x3d1f099e	0.03882753
152	0xbe27e7bf	-0.16396998
153	0xbd9706e9	-0.07374365
154	0x3d41ee83	0.047346603
155	0xbd4f7e61	-0.050657634
156	0x3cf1e3e7	0.029527618
157	0x3d848c19	0.06472034
158	0xbe1bbed6	-0.15209517
159	0x3ddcbf75	0.10778705
160	0x3dc5782f	0.09642064
161	0xbe22a6dd	-0.15883966
162	0xbddcf7d1	-0.10789455
163	0xbe3468d8	-0.1761812
164	0x3e1b6b4c	0.1517765
165	0xbd89d497	-0.067300014
166	0xbd82ad22	-0.06380679
167	0xbda6d348	-0.081457675
168	0xbd0229bd	-0.031778086
169	0xbdb7dcb6	-0.08977644
170	0xbd6b2ecc	-0.057417676
171	0x3e0bcaed	0.13651629
172	0xbca0bcad	-0.019621218
173	0x3e16fda3	0.14745192
174	0x3e0162ad	0.12635298
175	0x3ccb331c	0.024804644
176	0x3d35daba	0.044398047
177	0xbb477454	-0.0030434327
178	0x3e19631c	0.14979213
179	0xbbcd36df	-0.0062626447
180	0xbdaf3c99	-0.0855648
181	0x3d5dc120	0.054139256
182	0xbc733f4f	-0.014846637
183	0x3e034f66	0.12823257
184	0xbda711b7	-0.08157676
185	0x3da6e130	0.0814842
186	0x3ca99b8f	0.020704059
187	0x3ddd57fa	0.10807796
188	0x3cf94fe4	0.030433603
189	0xbe0a60a0	-0.13513422
190	0xbe07edae	-0.13274261
191	0xbd6c951b	-0.057759386
192	0x3e355c3b	0.17710964
193	0xbdf05551	-0.11735023
194	0x3dacf28b	0.08444699
195	0xbda97879	-0.082749315
196	0xbe2ab81b	-0.16671793
197	0x3b917776	0.0044392897
198	0xbd988199	-0.07446594
199	0xbe05c417	-0.13063084
200	0xbe2bce9d	-0.16778035
201	0xbe22bc8a	-0.15892234
202	0xbcde5d47	-0.027144087
203	0xbd31dcf5	-0.04342361
204	0xbdac743e	-0.08420609
205	0x3cee56a1	0.029094042
206	0x3d4d1cce	0.0500763
207	0xbde0f95c	-0.109850615
208	0x3e0752c0	0.1321516
209	0x3df61a5c	0.120167464
210	0xbe33815d	-0.17529817
211	0xbdc4fb04	-0.0961819
212	0x3e18e73b	0.14931957
213	0xbd19d1e2	-0.037553675
214	0x3d806fe7	0.06271344
215	0xbe026526	-0.12733898
216	0xbddb844c	-0.10718593
217	0x3e3300b4	0.17480737
218	0x3d59fdad	0.05322044
219	0x3d5f444c	0.054508492
220	0x3e0549cf	0.13016437
221	0xbe1193ef	-0.14216588
222	0xbe053440	-0.13008213
223	0x3dbb1123	0.09134128
224	0x3de08b98	0.109641254
225	0xbd331cbf	-0.043728586
226	0xbe238a1e	-0.15970656
227	0x3b249d36	0.002511812
228	0xbdcd6e69	-0.10030825
229	0x3db3409a	0.08752556
230	0x3dbf2443	0.09333088
231	0x3df9a03e	0.12188767
232	0x3d888566	0.06666069
233	0xbd0524b5	-0.03250571
234	0xbe308d4c	-0.172414
235	0x3d0295f9	0.031881306
236	0x3e11c388	0.14234746
237	0xbdc96bdf	-0.09835028
238	0xbc94e5f7	-0.018176062
239	0xbd1b7008	-0.03794864
240	0xbe0dd8e8	-0.13852274
241	0x3e28c9fb	0.164833
242	0x3e294164	0.16528851
243	0x3dfa0836	0.12208597
244	0xbde888f2	-0.11354245
245	0xbd4d6965	-0.05014934
246	0xbde5614a	-0.11200197
247	0xbe23ac93	-0.159838
248	0xbdfa46fd	-0.12220571
249	0x3dc0c5f0	0.094127536
250	0x3deb5c2a	0.11492188
251	0xbd55aadc	-0.052164897
252	0x3de66cbe	0.1125121
253	0xbba45256	-0.005014698
254	0x3c9a71da	0.018853117
255	0xbe023398	-0.12714994

transformer.embed_bag.weight f4 [128, 64]
0	0x3f1f5bc6	0.6224941
1	0xbf18a453	-0.5962574
2	0xbdf9026b	-0.12158664
3	0xc0284333	-2.6291015
4	0xbe503408	-0.20332348
5	0xbef29acc	-0.47383726
6	0x3ee98c9f	0.45615098
7	0xbed2c7a3	-0.41167936
8	0xbf5ebcc6	-0.87006795
9	0x3eea8814	0.45806944
10	0x3e8a93ca	0.2706588
11	0xbf8c791f	-1.0974463
12	0x3f834bf5	1.0257555
13	0xbf0f0b49	-0.55876595
14	0xbf73729c	-0.95096755
15	0xbdbfa6bd	-0.09357975
16	0x3ead2be1	0.3382254
17	0xbf002f99	-0.5007263
18	0xbf2a3d9d	-0.66500264
19	0xbde3f787	-0.111311965
20	0x3f8351a6	1.0259292
21	0xbf146cb1	-0.5797835
22	0x3e50b4de	0.20381495
23	0xbf8921e6	-1.071347
24	0x3f9c9ad0	1.2234745
25	0x3f88ba4a	1.0681851
26	0xbf1c5dc7	-0.6108059
27	0xbfa90b8b	-1.3206648
28	0xbee40f41	-0.44542888
29	0x3f759eff	0.95945734
30	0x3fbf12fc	1.4927669
31	0x3e9701f1	0.2949367
32	0xbee7aa06	-0.45246905
33	0xbf396133	-0.7241394
34	0x3ed8de44	0.42357075
35	0xbf9a4c3d	-1.2054516
36	0x3e1014b4	0.14070398
37	0x3e918cd8	0.28427768
38	0xbfb7bbf1	-1.435423
39	0x3f6d2ca4	0.9264624
40	0x3fa9b09a	1.325702
41	0xbe961cf5	-0.29318967
42	0x3f955c42	1.166878
43	0xbfe40617	-1.7814358
44	0x3effb96d	0.49946156
45	0x3d0e46d5	0.03473552
46	0x3fa33a92	1.2752249
47	0xbf09a81f	-0.5377216
48	0x3d99a58c	0.07502279
49	0xbe45be47	-0.19310866
50	0x3ffb64f5	1.9640185
51	0xbf6c015f	-0.9218959
52	0x3f23a1c1	0.6391869
53	0x3ffcbc54	1.9744973
54	0xbef2be63	-0.4741088
55	0xbee65389	-0.44985607
56	0xbf8ad395	-1.084582
57	0xbeb358d7	-0.35028717
58	0x3f34f94f	0.70692915
59	0xbf1087fd	-0.564575
60	0x3ef5181a	0.4786995
61	0x3ef30cbb	0.4747065
62	0xbf38c62b	-0.7217738
63	0xbe14525e	-0.14484546
64	0x3da2434b	0.07922991
65	0x3f4ebe8f	0.8075952
66	0xbedc53ef	-0.43032786
67	0xbf0df4cc	-0.55451655
68	0xbf258d7f	-0.6466903
69	0x3e5c1850	0.2149365
70	0x3e966004	0.2937013
71	0x400b8ebd	2.180587
72	0xbe88d3da	-0.2672413
73	0xbed56e61	-0.41685775
74	0xbe26f3a7	-0.16303883
75	0x3fb79d91	1.434496
76	0xc01cdcb6	-2.4509711
77	0x3f4df64b	0.8045394
78	0x3f958678	1.1681662
79	0x3edbad29	0.42905548
80	0xc00bafff	-2.182617
81	0xbec92ac4	-0.3929044
82	0x3f043b78	0.5165324
83	0x3f30ac82	0.69013226
84	0xbdd1ae17	-0.10238283
85	0xbf5c3da6	-0.8603157
86	0xbf0bf5c7	-0.546719
87	0x3f63fd4d	0.8905838
88	0xbea5b96b	-0.32368025
89	0xbf6390d9	-0.88892895
90	0xbffc00b6	-1.9687717
91	0xbf9671b8	-1.1753454
92	0x3eab86b3	0.33501205
93	0xbf985447	-1.190072
94	0x3f2264a7	0.63434833
95	0x3f93521f	1.1509436
96	0xbf8ff1c8	-1.1245661
97	0x3f5ff576	0.8748392
98	0xbf4600ea	-0.77345145
99	0x3de51cbb	0.111871205
100	0xbe3b06bb	-0.18264286
101	0x3eea34c7	0.4574339
102	0x3f862e77	1.048293
103	0x3d47e17e	0.04879903
104	0x3e5ecab6	0.21757016
105	0xbe256639	-0.16152276
106	0x3f0d1a81	0.55118567
107	0x3fadcf8b	1.3578962
108	0xbe3e4a0c	-0.18582934
109	0xbf7d42ec	-0.9893024
110	0xbf9f4d49	-1.244546
111	0x3f86221e	1.0479162
112	0x3f867f65	1.0507628
113	0x3fd2991e	1.6452978
114	0x3f0475e6	0.517424
115	0x3ed2f58e	0.41202968
116	0xbeadcb25	-0.3394405
117	0x3e8a3798	0.2699554
118	0x3f76e870	0.9644842
119	0xbec48c3c	-0.3838824
120	0xbf37e839	-0.7183872
121	0xbf1bd31d	-0.6086901
122	0x3f98fe72	1.195265
123	0xbf8a954e	-1.0826814
124	0x3f8aadee	1.0834329
125	0xbfb02cac	-1.3763633
126	0xbcbaf688	-0.022822633
127	0xbe848407	-0.2588198
128	0xbe116a02	-0.14200595
129	0xbed829b8	-0.4221933
130	0xbe6054ec	-0.21907395
131	0x3f09434d	0.5361832
132	0x3f598f74	0.8498452
133	0xbf0bca14	-0.5460522
134	0xbfce1089	-1.6098796
135	0x3f8917a3	1.0710338
136	0xbf58e44a	-0.8472334
137	0x3e675abb	0.22593205
138	0x3fbbeebf	1.4682235
139	0xbd9ab389	-0.07553775
140	0x3f5b96be	0.8577689
141	0x3f3cd5b2	0.73763573
142	0x3db138ef	0.08653437
143	0x3f4aa0a6	0.7915138
144	0x3ea3d84d	0.32000962
145	0x403b902d	2.9306748
146	0xbfd5ab95	-1.6692988
147	0x3eb0c3e3	0.3452445
148	0x3f614993	0.8800289
149	0x3f8c30de	1.0952413
150	0x3e279a57	0.1636747
151	0x401964a8	2.3967686
152	0x3e510137	0.2041062
153	0x3e80540e	0.2506413
154	0x3f1b8856	0.6075491
155	0xbeefe60d	-0.46855202
156	0x3efcabeb	0.49349913
157	0xbf7a9e21	-0.97897536
158	0x3cf0cca3	0.029394453
159	0xbfafb996	-1.3728511
160	0x3f73979f	0.9515323
161	0x3ee18e3a	0.44053823
162	0x3f6f3d95	0.9345334
163	0x3e76382d	0.24044867
164	0x3ce2c126	0.027679991
165	0xbf0b2983	-0.54360217
166	0x3c78f81f	0.015195875
167	0xbf26eb78	-0.65203047
168	0x3f2e4123	0.6806814
169	0x3eaf3829	0.34222534
170	0xbf112a12	-0.5670482
171	0x3f3a7751	0.7283831
172	0x3ef22595	0.47294298
173	0x3fb5c694	1.4201226
174	0xbf59538d	-0.84893113
175	0xbf19185a	-0.5980278
176	0xbf3250ec	-0.69654727
177	0xbf6880a9	-0.9082132
178	0xbff6375b	-1.9235643
179	0xbfdb3868	-1.7126589
180	0xbf82b3c9	-1.0211116
181	0xbd0d9780	-0.03456831
182	0xbf5e3717	-0.8680281
183	0xbedb667b	-0.42851624
184	0xbfc9adf3	-1.575621
185	0x3f6f3de3	0.93453807
186	0xc002891c	-2.0396185
187	0xbee98b27	-0.45613977
188	0x3f58dac4	0.8470881
189	0xbf515fe1	-0.81786925
190	0xc019b085	-2.401399
191	0xbeff56f9	-0.49871042
192	0x3d6a25b1	0.05716485
193	0x3f7822c1	0.9692803
194	0xbfd176bf	-1.6364363
195	0x3f30a1c2	0.6899682
196	0xbfb04eb3	-1.3774017
197	0xbf0e4e83	-0.5558855
198	0x3ece2130	0.40259695
199	0x4023e34d	2.5607483
200	0x3fca96d9	1.5827285
201	0x3f096840	0.536747
202	0x3fb37998	1.4021482
203	0x3f8aa7a1	1.0832406
204	0xbf92dc35	-1.1473452
205	0x3f2d69a8	0.67739344
206	0xbdfdd378	-0.1239385
207	0x3e98bd4c	0.29831922
208	0xbe80ed53	-0.25181064
209	0x3feba658	1.8410139
210	0xbf55709f	-0.8337497
211	0x3fc2132f	1.5162104
212	0xbeace93b	-0.3377169
213	0x3ede9ef6	0.43480653
214	0x3fd22fa5	1.642079
215	0x3e77f1e8	0.24213374
216	0x3fdfee82	1.7494662
217	0xc0321ced	-2.7830155
218	0xbf941219	-1.1568023
219	0xbf347660	-0.70493126
220	0xbed0dd81	-0.40793994
221	0xbf87193a	-1.0554574
222	0xbe3c688b	-0.18399255
223	0xbd7cbea3	-0.061705243
224	0xbfd44555	-1.6583658
225	0x3e3b29b5	0.18277629
226	0xbf26c416	-0.65142953
227	0xbfbe4a25	-1.4866377
228	0xbe8df62c	-0.27726877
229	0xbf0d0724	-0.5508902
230	0xbe54c828	-0.20779479
231	0x3e6a0db8	0.22856796
232	0xc024a8dc	-2.5728064
233	0xbfeac634	-1.8341737
234	0x3f234dd8	0.63790655
235	0xbe64025a	-0.22266522
236	0xbd967262	-0.073460355
237	0x3dba8dbe	0.091090664
238	0xbf1d5452	-0.6145679
239	0xbfad726c	-1.3550544
240	0xbeadd2e9	-0.33949974
241	0xbf57eef2	-0.84348977
242	0xbfba683b	-1.4563059
243	0xbe36d66c	-0.17855233
244	0x3d09cf3f	0.03364491
245	0x3fb295be	1.3951948
246	0x3e982799	0.2971771
247	0x3eeaebda	0.45883065
248	0xbfa7027e	-1.3047636
249	0x3e8f5be9	0.2799981
250	0x3e703495	0.23457558
251	0xbf14996b	-0.580466
252	0xbf04deec	-0.5190265
253	0x3eb70d24	0.35752213
254	0x3eb9ea6b	0.3631166
255	0xbfb94079	-1.44728

transformer.in_norm.weight f4 [64]
0	0x3f7d248a	0.9888388
1	0x3f800ec5	1.0004507
2	0x3f7ff47a	0.99982417
3	0x3f805c9c	1.0028262
4	0x3f8074ad	1.0035607
5	0x3f80d94e	1.0066316
6	0x3f805779	1.0026695
7	0x3f7de14c	0.991719
8	0x3f801e0d	1.0009171
9	0x3f80e671	1.0070325
10	0x3f7dd07a	0.99146235
11	0x3f805a3d	1.0027539
12	0x3f7ed3ee	0.9954213
13	0x3f802dc3	1.0013965
14	0x3f7e47fb	0.99328583
15	0x3f7f3666	0.9969238
16	0x3f804d15	1.0023524
17	0x3f7cc594	0.9873898
18	0x3f7e253e	0.9927558
19	0x3f7e1040	0.99243546
20	0x3f7fb664	0.9988768
21	0x3f8016e1	1.0006982
22	0x3f80974d	1.0046173
23	0x3f7fce36	0.9992403
24	0x3f7ea2e3	0.99467295
25	0x3f7e84f0	0.99421597
26	0x3f808fec	1.0043921
27	0x3f7fd7f8	0.9993892
28	0x3f807c05	1.0037848
29	0x3f7f72df	0.99784654
30	0x3f7da4af	0.9907941
31	0x3f7eb42e	0.9949368
32	0x3f7ea231	0.99466234
33	0x3f7d5db2	0.9897109
34	0x3f7d232e	0.98881805
35	0x3f7fc303	0.9990694
36	0x3f7d91c0	0.9905052
37	0x3f7e4706	0.99327123
38	0x3f7ebf2d	0.9951046
39	0x3f8062eb	1.0030187
40	0x3f7dd257	0.9914908
41	0x3f804a40	1.0022659
42	0x3f7dea34	0.9918549
43	0x3f7cedf0	0.98800564
44	0x3f7fd4c9	0.9993406
45	0x3f7d5390	0.9895563
46	0x3f8052d0	1.0025272
47	0x3f7ed5f8	0.9954524
48	0x3f804bf2	1.0023177
49	0x3f7c2121	0.9848805
50	0x3f7e1b0b	0.99260014
51	0x3f7e97c1	0.9945031
52	0x3f7f5182	0.99733746
53	0x3f7ca2ec	0.986861
54	0x3f7cffd5	0.9882787
55	0x3f7ffc0a	0.99993956
56	0x3f7d40f6	0.9892725
57	0x3f80cc25	1.00623
58	0x3f7f723a	0.9978367
59	0x3f801848	1.000741
60	0x3f7bb117	0.9831709
61	0x3f7e16c0	0.99253464
62	0x3f7ed77d	0.9954756
63	0x3f7f7b5a	0.99797595

transformer.layers.0.input_proj.bias f4 [320]
0	0xbc425e80	-0.011863351
1	0xbd601db6	-0.054715835
2	0xbd9b1b84	-0.075736076
3	0xbd514e3d	-0.051100004
4	0x3db86b75	0.09004871
5	0xbcf0fa9d	-0.029416377
6	0x3d0fb00e	0.03508001
7	0x3daa9383	0.08328917
8	0xbd53fdbf	-0.051755663
9	0xbd7a09a2	-0.061044343
10	0xbd362cbf	-0.044476267
11	0xbbc8ba42	-0.0061257193
12	0x3dc0b978	0.09410375
13	0xbde2f68b	-0.110821806
14	0xbc71f42e	-0.01476769
15	0x3dcd062f	0.10010945
16	0x38fea224	0.00012141865
17	0xbdc871a5	-0.09787301
18	0x3d6ac011	0.057312075
19	0x3d8452ab	0.0646108
20	0xbc347e05	-0.0110163735
21	0xbd714375	-0.058902223
22	0x3cbb0db2	0.022833679
23	0xbaa33eed	-0.0012454666
24	0xbdc8f7a8	-0.09812862
25	0x3daaffa8	0.08349544
26	0xbd374099	-0.04473934
27	0xbdb05f48	-0.086119235
28	0xbe000e6b	-0.125055
29	0x3cc6f6f5	0.02428768
30	0xbd5a4c46	-0.053295396
31	0x3d3d5267	0.046221163
32	0x3c924971	0.017857285
33	0xbe080b0b	-0.13285463
34	0xbda17193	-0.07882991
35	0xbd370315	-0.044680674
36	0xbde45df5	-0.111507334
37	0xbc95a1f0	-0.018265694
38	0xbde149bc	-0.11000392
39	0x3d72e4e0	0.059300303
40	0xbbb9951c	-0.005663527
41	0x3ad432a0	0.0016189404
42	0xbb2f4b43	-0.002674774
43	0x3e05e4be	0.1307554
44	0xba6acb4a	-0.0008956684
45	0x3d82d142	0.06387569
46	0x3db8d930	0.090258
47	0xbcead1c1	-0.028664472
48	0x3def5710	0.11686528
49	0x3dbaec5a	0.09127112
50	0xbd1804ea	-0.03711406
51	0x3db2f3e8	0.08737928
52	0x3d446176	0.04794451
53	0xbd2576e8	-0.0403966
54	0xbd3cd952	-0.04610569
55	0x3d8ef4f1	0.069803126
56	0x3d7a7211	0.06114394
57	0x3dbcb0af	0.09213387
58	0xbc653ed0	-0.013992026
59	0xbdbaee99	-0.0912754
60	0xbd7c98d6	-0.061669193
61	0xbc15dc2b	-0.00914673
62	0xbc8681f6	-0.016419392
63	0x3e006976	0.1254023
64	0x3dace956	0.08442943
65	0x3d8c70c7	0.06857448
66	0xbcf9ae6e	-0.030478682
67	0x3def29e8	0.11677915
68	0xbddbd980	-0.10734844
69	0x3d8170c5	0.06320337
70	0x3d0cc197	0.03436431
71	0x3b3d6789	0.0028900823
72	0x3d8c31af	0.06845414
73	0x3d1241aa	0.035707153
74	0x3df47419	0.11936206
75	0x3db680e6	0.08911304
76	0xbdb24503	-0.08704569
77	0xbde9e953	-0.11421456
78	0xbd994101	-0.07483102
79	0x3dcd408f	0.10022079
80	0x3d1e04fb	0.03857897
81	0xbdaff65f	-0.085919134
82	0x3a81cd1c	0.0009903046
83	0xbdbc1aa1	-0.091847666
84	0x3d8331b7	0.06405967
85	0x3d597c5e	0.05309712
86	0x3d6a23c9	0.057163034
87	0x3dcdab0c	0.1004239
88	0xbde43df8	-0.11144632
89	0x3d3505aa	0.044194855
90	0xbc450026	-0.012023961
91	0xbda2a3a2	-0.07941367
92	0x3c99a04a	0.01875319
93	0xbd09dda9	-0.033658657
94	0x3baed905	0.0053359293
95	0x3d449523	0.04799379
96	0x3d168804	0.03675081
97	0xbdba968d	-0.091107465
98	0xbd68d703	-0.056845676
99	0x3c485046	0.01222617
100	0x3cb3b6de	0.021937784
101	0xbd639345	-0.05556037
102	0x3dcd2c3b	0.10018202
103	0x3c8f9fc6	0.01753224
104	0x3ddf3018	0.10897845
105	0x3d9ac6e4	0.075574666
106	0x3dd9481a	0.106094554
107	0x3d41746c	0.04723017
108	0x3c838103	0.016052729
109	0x3da58170	0.08081329
110	0xba193187	-0.0005843867
111	0x3d2089ab	0.03919379
112	0x3d3c884c	0.04602842
113	0xbdf04850	-0.117325425
114	0xbd3b2816	-0.045692526
115	0xbd6fb167	-0.058518793
116	0xbc36dec0	-0.011161506
117	0xbd7bd443	-0.061481725
118	0xbdc50642	-0.09620334
119	0xbdcbc953	-0.09950509
120	0xbd867553	-0.065653466
121	0x3c82d5c3	0.01597107
122	0x3dab8001	0.08374024
123	0x3dabb2bc	0.083837
124	0xbde4263d	-0.11140106
125	0xbcf7a178	-0.030228361
126	0x3c7826d7	0.015145979
127	0x3d8695eb	0.06571563
128	0xbd3c4693	-0.045965742
129	0xbd1f13ae	-0.038837127
130	0x3d6a5589	0.05721048
131	0x3dbe7af3	0.093007945
132	0x3daa28e9	0.08308584
133	0x3dc3c89d	0.09559748
134	0x3dd0707f	0.10177707
135	0xbdddf845	-0.10838369
136	0xbdeca939	-0.11555714
137	0x3df749e4	0.120746404
138	0x3dd2dfd5	0.10296599
139	0xbd73d87e	-0.059532635
140	0xbd9a038a	-0.07520206
141	0x3d01d116	0.03169354
142	0x3ca3b360	0.019982994
143	0xbb8e541b	-0.0043435222
144	0x3c5a176b	0.013311247
145	0x3dfc06af	0.12305962
146	0xbd8035e7	-0.06260281
147	0xbd0838f7	-0.03325745
148	0x3d7c3ee9	0.061583433
149	0xbd770a51	-0.060312573
150	0x3d63c4b2	0.055607505
151	0x3d3ba171	0.04580826
152	0x3d35cf93	0.04438741
153	0xbd6e5429	-0.05818573
154	0x3daa3fcb	0.08312949
155	0xbdf42119	-0.119203754
156	0xbd74a5f8	-0.059728593
157	0xbdd3332b	-0.10312494
158	0xbdecb82c	-0.115585655
159	0xbcbbe5fe	-0.022936817
160	0xbd6dac43	-0.05802561
161	0x3dd26b28	0.10274345
162	0xbd8100cb	-0.06298979
163	0x3dd1c08b	0.10241803
164	0x3cb7a0b2	0.022415493
165	0xbc7ecf78	-0.015552394
166	0xbdbc48fc	-0.09193608
167	0x3deeb14a	0.11654909
168	0x3d01cbb5	0.03168841
169	0xbd8e0308	-0.06934172
170	0x3ac42f7e	0.0014967767
171	0xbdcf169f	-0.101117365
172	0x3d9f1ae2	0.07768799
173	0xbc3d582d	-0.011556667
174	0x3d9448b0	0.072404265
175	0x3d9d025f	0.07666468
176	0xbd7dffff	-0.062011715
177	0xbde791e8	-0.11307126
178	0x3dcf99e4	0.10136774
179	0x3cb20b44	0.021733887
180	0xbdf5303c	-0.119720906
181	0xbd8ea96e	-0.0696591
182	0x3d522ade	0.051310413
183	0xbd5ff74d	-0.054679204
184	0x3d8f0ee8	0.06985265
185	0x3d5c361b	0.053762536
186	0x3dd7e41a	0.10541554
187	0x3db3dba0	0.087821245
188	0xbd8240a4	-0.063599855
189	0x3db0c214	0.086307675
190	0x3cac5c27	0.021040035
191	0x3d10c812	0.035347052
192	0x3d33ce87	0.04389813
193	0x3d70e335	0.05881043
194	0xbccf345f	-0.025293527
195	0x3de1719b	0.11007997
196	0xbddef280	-0.10886097
197	0x3c989ec8	0.0186304
198	0xbd9490b5	-0.07254163
199	0x3bf79b3e	0.007556348
200	0xbc16483e	-0.009172497
201	0xbb4602d3	-0.0030214086
202	0xbda98816	-0.082779095
203	0x3d6b4c9b	0.057446104
204	0xbc996959	-0.018726991
205	0x3d41dd6e	0.047330312
206	0x3b1dc9f1	0.0024076665
207	0xbb8d4052	-0.004310646
208	0x3d7bfaa6	0.061518334
209	0xbcadff57	-0.02123992
210	0x3d7fb585	0.06242897
211	0xbc31c841	-0.010850967
212	0x3d8e69ca	0.069537714
213	0xbbeb5931	-0.0071822633
214	0x3dd50023	0.10400417
215	0x3c7d5a5a	0.015463436
216	0x3c436a3a	0.011927182
217	0xbda95b91	-0.08269418
218	0x3cce8dcc	0.025214098
219	0xbdbcc7ff	-0.09217834
220	0x3df8958c	0.12137899
221	0x3dfa656c	0.12226376
222	0xbdb78cda	-0.08962412
223	0x3de58b57	0.112082176
224	0x3e05775d	0.13033815
225	0xbd8330c3	-0.06405785
226	0xbd016faa	-0.03160063
227	0x3de56166	0.11200218
228	0xbc5d631e	-0.013512401
229	0xbdf92e19	-0.121669956
230	0xbd12c87c	-0.035835728
231	0x3c29c3e6	0.010361647
232	0xbda0f0da	-0.07858439
233	0xbdd00b51	-0.101584084
234	0x3aeb2e0a	0.0017942798
235	0x3be7c549	0.007073079
236	0xbd96f611	-0.07371152
237	0x3c6398e1	0.01389143
238	0xbde47510	-0.111551404
239	0xbde7f3b2	-0.11325778
240	0x3d09658f	0.03354412
241	0xbdb648d8	-0.089006126
242	0xbb8c53a8	-0.0042824335
243	0xbde81d60	-0.11333728
244	0xbdbe5ff2	-0.09295644
245	0x3d972441	0.07379962
246	0xbdbe2e74	-0.09286204
247	0x3ca88ef7	0.020575983
248	0x3d9eb9f5	0.07750312
249	0xbdab35d0	-0.08359873
250	0xbdea238b	-0.114325605
251	0x3dc5b41b	0.09653493
252	0x3dabb232	0.083835974
253	0x3d8fd952	0.070238724
254	0xbd7488d8	-0.059700817
255	0x3de4169d	0.11137126

transformer.layers.0.input_proj.weight f4 [320, 64]
0	0x3cecf2cf	0.028924374
1	0x3d95d788	0.073165
2	0xbd49f31f	-0.049304124
3	0xbc6f740d	-0.014615071
4	0x3d397129	0.045273934
5	0xbdf7a09b	-0.1209118
6	0x3dc2f894	0.09520069
7	0x3d0fd460	0.035114646
8	0xbd5d9050	-0.054092705
9	0xbd58a258	-0.052889198
10	0x3c051f7c	0.008125182
11	0x3d7f1a01	0.06228066
12	0xbd7505c6	-0.05981996
13	0xbcd8dc20	-0.026472151
14	0x3dfb9458	0.12284154
15	0x3dc4bb36	0.0960602
16	0xbde81333	-0.11331787
17	0x3db270d1	0.08712924
18	0x3c51c6fb	0.012803788
19	0xbd9ea372	-0.077460185
20	0xbd390d07	-0.04517844
21	0xbd056003	-0.032562267
22	0xbccb139c	-0.024789624
23	0xbd1569f5	-0.036478
24	0xbdf85c98	-0.12127036
25	0x3c849e44	0.016188748
26	0x3d9837fe	0.07432555
27	0x3da4ce2f	0.08047139
28	0x3c61f46f	0.013791188
29	0xbe022d99	-0.12712707
30	0x3bfb961f	0.007677808
31	0xbdbf061b	-0.093273364
32	0xbbc812de	-0.006105765
33	0x3d841c27	0.06450682
34	0xbda4243b	-0.08014723
35	0x3deca89a	0.11555596
36	0x3d0173c2	0.031604536
37	0xbd8cddd7	-0.0687825
38	0x3d15bd3a	0.036557414
39	0x39a7999f	0.0003196718
40	0x3d1c229f	0.038118955
41	0xbdb8cff0	-0.09024036
42	0xbd7ad516	-0.06123837
43	0x3e02ae04	0.12761694
44	0xbd846102	-0.06463815
45	0x3d9b406c	0.07580647
46	0xb90bc44d	-0.00013329201
47	0xbdabb8cc	-0.083848566
48	0x3d30d244	0.043169275
49	0x3b83ea71	0.0040257503
50	0xbdb35e24	-0.0875819
51	0xbc5a71c1	-0.013332785
52	0xbc58fcad	-0.013243836
53	0x3de66f35	0.1125168
54	0xbd8edad2	-0.069753304
55	0xbc84934c	-0.016183518
56	0x3db0bb3d	0.08629463
57	0x3dacfa1c	0.08446142
58	0xbdbc47a8	-0.09193355
59	0x3d925ddc	0.071468085
60	0xbd8d9d86	-0.06914811
61	0xbdc84cd3	-0.09780278
62	0x3d41b97c	0.047296032
63	0xbb4a3539	-0.0030854477
64	0x3e06cf46	0.13165006
65	0x3bf074f3	0.00733816
66	0x3db08374	0.08618823
67	0xbddf1652	-0.10892929
68	0x3d8f2c88	0.069909155
69	0xbce1ee0c	-0.02757933
70	0xbdb3d24a	-0.08780344
71	0x3da403c1	0.080085285
72	0x3d3c46c3	0.04596592
73	0x3cb3de3a	0.021956552
74	0x3d7e05cc	0.062017247
75	0xbd907417	-0.070533924
76	0xbce4e29b	-0.027940085
77	0xbd82c424	-0.06385067
78	0xbdec8f04	-0.115507156
79	0xbd9ae35a	-0.07562895
80	0xbdd18995	-0.1023132
81	0x3d9977f9	0.07493586
82	0x3db0c65d	0.08631585
83	0xbce8b5ce	-0.028407004
84	0xbc41baef	-0.011824354
85	0xbc3644ba	-0.011124784
86	0xbbb17edd	-0.0054167346
87	0xbdb65f66	-0.089049146
88	0x3e015e43	0.12633614
89	0xbd9c6f46	-0.07638411
90	0xbb8aafbb	-0.0042323745
91	0x3d2cfc5d	0.04223286
92	0xbdbb702d	-0.09152255
93	0x3dbb82de	0.0915582
94	0xbd1861c1	-0.0372026
95	0x3df34072	0.11877526
96	0xbcf71da0	-0.030165493
97	0x3db786b4	0.089612395
98	0xbd8c4a34	-0.068500906
99	0x3d64cfd2	0.055862255
100	0xbcefdb44	-0.029279359
101	0x3df83d71	0.12121094
102	0xbdae5171	-0.085116275
103	0x3c970c63	0.018438524
104	0x3d01bced	0.031674314
105	0x3c82c054	0.01596085
106	0xbcdaa352	-0.026689205
107	0xbde32f56	-0.11093013
108	0x3d87c816	0.0662996
109	0xbde7b323	-0.113134645
110	0xbd8c879f	-0.06861805
111	0x3ceafdf9	0.028685557
112	0xbdb0b2e7	-0.08627873
113	0x3d8785c6	0.06617312
114	0x3d4d99cb	0.050195497
115	0xbc8715b7	-0.016489847
116	0x3bcd7545	0.006270083
117	0xbdee6281	-0.11639882
118	0x3de8b84c	0.11363277
119	0x3d5a022a	0.05322472
120	0xbc992c4b	-0.018697878
121	0xbda33b4e	-0.07970296
122	0xbc1c8460	-0.009553045
123	0x3d8182f7	0.06323808
124	0x3d9e1b5f	0.07720064
125	0xbd98c70c	-0.0745984
126	0x3d3a5e5d	0.045500148
127	0xbdd8f454	-0.10593477
128	0x3dd14991	0.1021911
129	0xbc197d28	-0.0093682185
130	0xbdf10df2	-0.11770238
131	0xbd7e6ffc	-0.062118515
132	0x3db732f2	0.08945264
133	0xbd017c86	-0.031612895
134	0x3c7b2305	0.0153281735
135	0xbcedde8c	-0.029036783
136	0x3cb609ae	0.022221413
137	0x3dd18a27	0.102314286
138	0x3bfb38bc	0.0076666754
139	0xbdecaf22	-0.115568414
140	0xbd08c480	-0.033390522
141	0xbd4abc6b	-0.049496096
142	0x3ca9d874	0.020733096
143	0xbd22a377	-0.039706673
144	0x3a87f809	0.0010373603
145	0xbdde2a22	-0.1084788
146	0xbde8aa6a	-0.11360629
147	0x3ce3b696	0.027797025
148	0xbd68b141	-0.056809667
149	0xbd554b42	-0.052073725
150	0xbbf55d37	-0.0074879187
151	0xbdba85ec	-0.09107575
152	0x3dcf2b13	0.10115638
153	0xbc473576	-0.012158742
154	0xbcdb4432	-0.026765916
155	0xbd0446b8	-0.032294005
156	0xbdf2a657	-0.11848133
157	0xbd87e86f	-0.0663613
158	0x3dd9ea04	0.10640338
159	0xbb8397a4	-0.0040158797
160	0xbdbb0e1b	-0.0913355
161	0x3be8e964	0.0071079005
162	0x3de94c2a	0.1139148
163	0xbdeca5d1	-0.115550645
164	0x3dd73c8f	0.105095975
165	0x3dc0b5ef	0.09409701
166	0x3d9db39b	0.07700273
167	0xbd417c9b	-0.047237974
168	0x3d9d8015	0.07690445
169	0xbbe1bfdf	-0.006889328
170	0xbd7049ef	-0.05866426
171	0xbc9feb9e	-0.01952153
172	0x3ca598a6	0.02021439
173	0x3cd3b046	0.02584089
174	0xbc913f66	-0.017730426
175	0x3d3ea550	0.046544373
176	0xbd8f0336	-0.06983034
177	0xbd47ee25	-0.048811097
178	0xbcb2e605	-0.021838197
179	0x3d52c56c	0.051457807
180	0xbdde2ca5	-0.10848359
181	0x3dda81dc	0.106693
182	0x3d926b97	0.071494274
183	0x3d4a6bae	0.049419098
184	0xbdc972ff	-0.09836387
185	0xbc0f832f	-0.008759304
186	0xbdb95871	-0.09050072
187	0x3c51e61f	0.012811213
188	0x3d1e71ef	0.038682874
189	0xbdcfa20b	-0.10138329
190	0xbca5fc14	-0.020261802
191	0x3dc7c16b	0.097536884
192	0x3c01de11	0.00792648
193	0xbd8eb7f0	-0.06968677
194	0xbde5c87b	-0.11219879
195	0xbd2d174c	-0.042258546
196	0xbccee407	-0.025255216
197	0xbb5c2d13	-0.0033596202
198	0x3d1c8799	0.038215254
199	0xba697253	-0.000890528
200	0xbcbecc46	-0.023290765
201	0xbd9dd9a3	-0.077075265
202	0x3d9d8076	0.076905176
203	0xbde66e3c	-0.11251494
204	0xbcae2204	-0.021256454
205	0x3cd3e25a	0.025864769
206	0xbcfe3136	-0.031029325
207	0xbdc47fa0	-0.09594655
208	0x3d944621	0.072399385
209	0x3dd2e60f	0.102977864
210	0xbd66e466	-0.05637016
211	0x3df228be	0.11824177
212	0x3d1a8b32	0.037730403
213	0xbba751d3	-0.0051061898
214	0x3c5253d5	0.01283737
215	0x3d6876ce	0.056753926
216	0x3da18d2f	0.07888257
217	0x3dcfe10e	0.10150348
218	0xbd5c2484	-0.05374576
219	0xbd8ad6ec	-0.06779274
220	0xbd1b5122	-0.03791917
221	0x3db4db75	0.088309206
222	0x3d9551c3	0.072909854
223	0xbdb58433	-0.088631056
224	0x3d8c1185	0.06839279
225	0xbdf983e9	-0.12183363
226	0xbd25ddbf	-0.040494677
227	0xbdb2e2a4	-0.087346345
228	0xbdabfc0a	-0.08397682
229	0xbde6d3a7	-0.11270838
230	0xbd2a55c2	-0.04158569
231	0xbd83c041	-0.06433154
232	0xbd84e998	-0.06489867
233	0x3c792495	0.015206476
234	0xbd89bf16	-0.067259
235	0xbc679a1c	-0.014135864
236	0xbd8fb0cc	-0.07016143
237	0x3b86971d	0.0041073696
238	0x3dabd4a4	0.08390167
239	0x3d84fba3	0.064933084
240	0xbd7e6276	-0.06210562
241	0x3d853102	0.06503488
242	0xbdc93d61	-0.0982616
243	0x3d972d07	0.07381635
244	0x3de64638	0.11243862
245	0xbdc43347	-0.09580093
246	0x3d80f05f	0.06295847
247	0xbcb40b62	-0.021978084
248	0x3dec674d	0.115431406
249	0x3c17fa3a	0.009275967
250	0xbdb21fb1	-0.08697451
251	0xbdc24c71	-0.09487236
252	0xbca1e3d6	-0.019761961
253	0x3de9c8cf	0.11415254
254	0xbdaa8138	-0.08325428
255	0x3ccb5a95	0.024823466

transformer.layers.0.norm.weight f4 [64]
0	0x3f81e63e	1.0148389
1	0x3f8053e0	1.0025597
2	0x3f80bc75	1.0057513
3	0x3f81c499	1.0138122
4	0x3f808bb3	1.0042633
5	0x3f80ea63	1.0071529
6	0x3f812f45	1.009255
7	0x3f80a5da	1.0050614
8	0x3f81b4bb	1.013328
9	0x3f8102c8	1.0078974
10	0x3f8153f2	1.0103743
11	0x3f80232f	1.0010737
12	0x3f815c89	1.0106364
13	0x3f812c28	1.00916
14	0x3f8072ec	1.0035071
15	0x3f8166fc	1.0109553
16	0x3f815e35	1.0106875
17	0x3f807282	1.0034945
18	0x3f812b5a	1.0091355
19	0x3f812903	1.0090641
20	0x3f813660	1.0094719
21	0x3f7fe9ed	0.9996632
22	0x3f813a1f	1.0095862
23	0x3f8108b8	1.0080786
24	0x3f7eadd8	0.99484015
25	0x3f818652	1.0119116
26	0x3f81d308	1.0142527
27	0x3f80f012	1.0073264
28	0x3f8224fd	1.0167538
29	0x3f8158b2	1.0105193
30	0x3f801255	1.0005594
31	0x3f806291	1.003008
32	0x3f81c3c5	1.0137869
33	0x3f80d6fc	1.0065608
34	0x3f80044e	1.0001314
35	0x3f81096d	1.0081002
36	0x3f802d70	1.0013866
37	0x3f81c99c	1.0139651
38	0x3f80b60f	1.005556
39	0x3f8164c8	1.0108881
40	0x3f81acd4	1.0130868
41	0x3f810f9d	1.008289
42	0x3f808ec5	1.004357
43	0x3f80face	1.007654
44	0x3f80ee7d	1.0072781
45	0x3f824184	1.0176244
46	0x3f80cae8	1.0061922
47	0x3f8061ba	1.0029824
48	0x3f81dcff	1.0145568
49	0x3f7fedf0	0.9997244
50	0x3f80f710	1.0075397
51	0x3f81866b	1.0119146
52	0x3f80c2f1	1.0059491
53	0x3f817e11	1.0116597
54	0x3f813820	1.0095253
55	0x3f7f5fae	0.9975537
56	0x3f813705	1.0094916
57	0x3f7f9f11	0.9985209
58	0x3f81690f	1.0110186
59	0x3f8117ac	1.0085349
60	0x3f8062a3	1.0030102
61	0x3f80fe78	1.0077658
62	0x3f807717	1.0036343
63	0x3f7ec836	0.9952425

transformer.layers.0.output_proj.bias f4 [64]
0	0x3d8e9dc1	0.06963683
1	0x3d5d689f	0.054054853
2	0x3d8d2522	0.06891848
3	0x3d069bb2	0.032863326
4	0xbd4e7a28	-0.050409466
5	0xbc8c6698	-0.017138764
6	0xbbedae6c	-0.0072534587
7	0x3c8889e5	0.016667316
8	0xbb5c0f2d	-0.0033578381
9	0x3d42223d	0.047395933
10	0x3c5e8efe	0.013583897
11	0xbd0e2e46	-0.0347121
12	0xbd055aab	-0.03255717
13	0xbc2cd488	-0.010548718
14	0x3d7661ea	0.060151972
15	0x3d710379	0.058841202
16	0x3d919117	0.07107752
17	0x3d025129	0.03181568
18	0x3d1ca45a	0.038242675
19	0xbd9537e2	-0.072860494
20	0x3d86aea2	0.06576277
21	0xbd78b62a	-0.0607206
22	0x3d04e216	0.032442175
23	0x3cb0c814	0.02157978
24	0xbc022094	-0.007942338
25	0xbc91aafc	-0.017781727
26	0x3d186fa7	0.037215855
27	0x3cf21bc6	0.029554259
28	0x3cbed5dc	0.023295335
29	0xbd249654	-0.040182427
30	0xbd8a38e3	-0.067491315
31	0xbd25756d	-0.04039519
32	0x3d72ddb3	0.05929346
33	0xbda40b3f	-0.080099575
34	0x3c956744	0.018237717
35	0xbd56dc4f	-0.052456196
36	0x3d82ddb7	0.06389945
37	0x3b4debd7	0.003142109
38	0x3cc8f49a	0.024530698
39	0xbcabc712	-0.020968948
40	0x3d0ae0cb	0.033905786
41	0x3d6233d9	0.055225227
42	0x3d10874d	0.035285283
43	0x3d2a5476	0.041584454
44	0xbd8ca28b	-0.0686694
45	0x3c5292e7	0.012852407
46	0x3d785079	0.06062362
47	0x3d2ef8e0	0.042717814
48	0xbd37ae6e	-0.044844083
49	0x3bc29a54	0.0059388075
50	0x3d7548d1	0.059883896
51	0x3c6a155e	0.014287321
52	0xbaeab15b	-0.0017905639
53	0x3c102843	0.008798662
54	0x3bf69fcd	0.007526374
55	0xbb975e61	-0.004619405
56	0xbcfd0b51	-0.030889185
57	0xbceeb920	-0.029141009
58	0xbd553208	-0.052049667
59	0xbc5ba837	-0.013406805
60	0x3ce7bbdc	0.02828782
61	0xb9fa51c2	-0.0004774463
62	0x3d857a2f	0.06517445
63	0xbd81223f	-0.0630536
