tutorials/input/motor_model/model.safetensors (safetensors, 342424 bytes, 17 tensors)

task_model.final_layer.bias f4 [128]
00000000: 1727 8e3d eeba fbbd 5ae0 8cbd afb6 3bbd
00000010: 80ea 30bd 5d94 8fbd dc4d f2bd 27df e33d
00000020: 60d1 d4bd d482 a3bd c8eb cbbc 7991 d0bd
00000030: 5b10 e2bd 147e 65bd 5e46 cf3d a954 be3d
00000040: 9f7a 2d3d b419 ee3d 2e25 963c 7a54 a13d
00000050: f0f9 c2bd 4885 a9bd 9043 b73d 6d47 a7bd
00000060: e8f5 b0bd 225b 573d c0b3 15bd 033e dd3d
00000070: 1c82 8a3d f018 da3d b7d9 5cbd 66e5 00be
00000080: 87eb 793d 929f 74bd b262 c43d 65c5 fd3d
00000090: c687 be3d 6e2f 9b3c d47c 643d 2177 a3bd
000000a0: 2fd0 453b b3f6 c73d ef5c e83d 8378 4cbd
000000b0: a6e6 653c 92ee abbd bb05 59bd 7166 953b
000000c0: a692 8bbd 9d78 003e 706f cd3d ef40 bebd
000000d0: d540 b83d 2239 5abd b227 ebbd 370b 62bd
000000e0: 217f 653d 60ac f73d 00f7 f2bd 9f36 01bc
000000f0: a0d4 a5bd 0044 fbbb d60b 4abd 83dc a8bd
00000100: c323 753d 3510 b73d 5687 b43c 7ce7 d63d
00000110: 9be0 dcbd 6b13 78bd 8dcb de3d 293a a53d
00000120: a7b4 033e 5223 483d abcf 813d 2b8d 853c
00000130: edd0 a43d f9d8 73bd 7c9a d5ba a428 133a
00000140: cfc4 b3bd 36c0 d7bb 2b04 b5bc 8236 cf3d
00000150: 0924 4abd 05bc 19bd c287 b53d c6bf 4bbd
00000160: 9638 9fbb c3b3 803a 6fdf f9bd d640 32bd
00000170: f95b da3d 6085 2c3d a26b b0bc 7454 05bd
00000180: fae0 cbbb e180 bbbc 51ab 843d 057a f1bd
00000190: ec57 a03a 84ec f1bd 3fbf 8a3c 060f b7bd
000001a0: f270 8fbc 16a1 f3bd 7710 cebd 20c6 afbd
000001b0: 3538 383d adc0 d0bd bf6d d83d c6ad 203d
000001c0: 7c47 6cbd e396 cfbc d7b0 adbc 7743 503c
000001d0: 95c6 4e3d fad1 37bc 0378 bebc d6bf 90bd
000001e0: b880 ac3c 2bc1 e5bc 4da6 4c3d cb3d fdbd
000001f0: af57 64bd a8a3 5dbd 4a8e babb 3ce9 1ebd
0.069410495 -0.122915134 -0.06878729 -0.045828518 -0.043192387 -0.0701072 -0.11831257 0.11126547
-0.103914976 -0.07983938 -0.024892703 -0.10183997 -0.11038276 -0.05602844 0.10120843 0.092934914
0.04235327 0.11625996 0.018328276 0.07877441 -0.09520328 -0.082773745 0.089484334 -0.0816792
-0.08640653 0.052577145 -0.036548376 0.108028434 0.06763098 0.10649288 -0.053918567 -0.12587509
0.061015632 -0.05972249 0.09589137 0.12391166 0.093032405 0.018943515 0.055783108 -0.079817064
0.0030183902 0.09763851 0.11345851 -0.049919616 0.014032042 -0.08395113 -0.05298398 0.004559331
-0.0681508 0.1254601 0.10031021 -0.09289729 0.08996741 -0.053277142 -0.11482181 -0.055186477
0.056029443 0.12093425 -0.11863518 -0.007886558 -0.080971956 -0.0076680183 -0.049327694 -0.08245184
0.05984856 0.08938638 0.02203719 0.10493371 -0.107850276 -0.060565393 0.10878668 0.08067734
0.12861882 0.04886181 0.06338438 0.016302666 0.08047662 -0.059533093 -0.001629665 0.0005613661
-0.08777773 -0.0065841926 -0.022096714 0.101178184 -0.049350772 -0.037532825 0.088637844 -0.049743436
-0.0048590405 0.0009819198 -0.1220082 -0.043518864 0.10662074 0.042119384 -0.021535698 -0.032551244
-0.0062218877 -0.022888603 0.064779885 -0.117908515 0.0012233234 -0.1181269 0.016936896 -0.08938412
-0.017509911 -0.11895959 -0.10061734 -0.08582711 0.04497548 -0.10193 0.105678074 0.039228223
-0.05768536 -0.025340503 -0.021202488 0.012711397 0.05048235 -0.011219496 -0.023250585 -0.0706784
0.021057472 -0.028046211 0.049963284 -0.12365302 -0.055747684 -0.054111153 -0.0056932317 -0.03879665

task_model.final_layer.weight f4 [128, 64]
00000000: 1e00 9fbc 5aac cdbd 26ac 783d 4ab4 6bbd
00000010: aa32 2e3d cbd0 bebd 5ca3 d73d 1e31 e83d
00000020: 9ab5 04bd 5d5f 413d d383 663d fcb0 f73d
00000030: 4fb2 cdbd d83d 02bd 55d0 a1bd 69bc a9bd
00000040: 07af 68bd 068a 03bd f4ee e43d 9cd1 e9bd
00000050: 9cfa 813a 583e 31bd 6f4e 3dbd d646 8abd
00000060: d346 dcba f73d f4bd 20c1 db3c 58df 543d
00000070: e8aa 01b9 f835 013e 66ac 21bc 094a 633d
00000080: 8e50 35bc 2598 1d3d a3b3 ef3d c1e9 77bd
00000090: a6e8 953d 418d 993b 166b a4bd 08ea fabd
000000a0: 5f2a a7bd 8673 78bd 2e1e 34bd 8ac9 f03d
000000b0: 5221 cebd 278d ffbd b932 c4bd d6fe e73c
000000c0: 47d2 1f3d 0c52 bfbd 3627 953d 42c7 b73c
000000d0: 4892 563c 7074 cf3d 336a b83b 8dc1 2a3d
000000e0: dcfc d3bd 33b8 0d3d 4dc1 d53d edb6 a4bd
000000f0: 7025 943d 3118 11bd 2639 dfbd 17ea ec3d
00000100: f7f4 633d 2af5 fabd de27 e6bd 6ad7 c33d
00000110: aa1e fabd f0d3 ab3d 3572 18bd 28e9 9bbd
00000120: b214 153d 9dfd 343c e815 463c dbf1 a5bd
00000130: b08a bb3d 7328 c33c d16b 4fbd 9d58 77bd
00000140: bb57 9a3d da0c 3c3d e21e c4bd 9eff 003e
00000150: ba5c b23d 2f4c 8dbd 5266 03be e34a 1dbc
00000160: 001a bf3d 78df f93d e176 343d 8b79 bcbb
00000170: 12a1 293d 2c7c ddbd 5fb6 09bc 375d 6cbd
00000180: 6ad8 48bd 0491 de3d d692 edbd 70f3 17bd
00000190: 0810 c5bd 509c 43bd 5474 ef3d 88fb 9e3c
000001a0: cc7e 61bd 91aa c2bd a9d0 823d 86f0 00be
000001b0: fe3a 813d 3cfc 31bc 5264 e63d 6755 8c3d
000001c0: 8bc1 57bc b4fd 63bc fa32 b9bd 27d3 1fbd
000001d0: f5b3 0ebc 99b7 bbbc c591 393d de27 f2bd
000001e0: 40cd c13d f88a 423d 3db4 fcbd 02bd dcbc
000001f0: 4c24 8abd c723 433d bce3 52bc 38e0 9bbd
00000200: 6bc8 fdba 24da 103d 80c9 be3a 3196 a0bd
00000210: d295 e33d 7aea e53d d053 cabd 0de7 edbd
00000220: 97c9 91bd 3736 fabd 8fc3 f33c 84d2 febd
00000230: 1040 613d d3a1 b9bd f0f8 b1bc 1079 ba3d
00000240: 6d50 273c dfcc b93d f3b0 f9bd 3ed3 8ebd
00000250: 4839 883c 4dc1 573d a68f b0bd cfdd 6b3d
00000260: 3617 97bd 571a f1bd 0661 afbd 79cd e63d
00000270: 8f86 f7bd 7ec3 043d e530 d0bd 3848 00be
00000280: a400 96bc 85aa f53d 63df 92bc 3cce f9bc
00000290: 399b a2bc 332a fc3d 8ce6 6fbd 3ee5 aebd
000002a0: bf24 73bd 0a61 e0bd 3f2a c13d 51fe e13c
000002b0: 0447 ad3d 0935 23bd 608b 80bd e2ba 53bd
000002c0: 2181 0ebc dfce 023e e176 f03c 8509 b83d
000002d0: 06cc f6bc 8b93 8cbd 1ccd ec3d fb36 a93d
000002e0: 8955 f1bd b77d d93d 6d66 cdbd ca9e ecbd
000002f0: b533 b3bd c1e4 b43d e811 223d 25ad 94bd
00000300: 9aa0 813c 683f 56bd 26a0 ecbd 7edb 413c
00000310: fc99 1abc cb7e 923d 351c 853c 5528 a8bd
00000320: 76ef e53d 21d2 d43d e73a 43bc dd2d 72bd
00000330: db9a cabd 8a27 623d 74ed be3d 1716 23bc
00000340: b31f 763d d87c fcbd 39fb 7fbd b24a 02bd
00000350: 894a a03b ebd6 b03d c057 e23d 0c1d bf3d
00000360: 7ebb 10bd 4756 833d 7fd3 c53d 04d8 d9bd
00000370: bb3a 403b a8d2 99bc b914 00bd 8cd1 acbd
00000380: b0e3 f13d 42a0 29bc a7a1 4f3d fa65 9f3c
00000390: a35d c73d 2f3e 0a39 2be3 8ebd d5a4 093d
000003a0: 5a56 563d b2d3 95bd e50e a8bd 25ff 03be
000003b0: 5beb 31bd 6828 d6bd bab0 80bc e2df ffbd
000003c0: e4b1 ff3d 45f9 833b 01a6 e63d fc34 a4bd
000003d0: 865c 983d 9796 ad3c baa5 9dbd 07f8 b83c
000003e0: 87e0 95bd 7bd0 cdbd c75c 5c3d d911 b4bc
000003f0: 4e3b 263d 50a7 d8bd b563 663d 6a71 90bd
-0.019409236 -0.10042639 0.06071105 -0.057544984 0.042528786 -0.09317168 0.10529205 0.11337493
-0.03239975 0.047210086 0.05627806 0.12094304 -0.10043775 -0.03179726 -0.07901064 -0.082878895
-0.056807544 -0.03211405 0.11178389 -0.11416933 0.0009916606 -0.043272346 -0.04621738 -0.06751792
-0.0016805775 -0.11925881 0.026825488 0.05197081 -0.00012366066 0.12618244 -0.009867763 0.055490527
-0.011066569 0.038475174 0.11704185 -0.06052566 0.07319765 0.004686028 -0.080282375 -0.12251669
-0.081623785 -0.060657047 -0.043974094 0.117571905 -0.10064949 -0.124780945 -0.09579987 0.028319757
0.039018895 -0.09341821 0.072828695 0.02243388 0.0130964 0.101296306 0.0056278943 0.04168849
-0.103509635 0.034599494 0.1043726 -0.08042703 0.07233703 -0.03542346 -0.10899572 0.115680866
0.05565354 -0.122537926 -0.11238073 0.09562571 -0.1221288 0.08390033 -0.03721829 -0.076128304
0.03639669 0.011046794 0.012090184 -0.08102771 0.09157312 0.023822999 -0.05063993 -0.060387243
0.075362645 0.045910694 -0.09576203 0.1259751 0.087090924 -0.068992965 -0.12832001 -0.009600374
0.09331131 0.122008264 0.044058684 -0.0057517937 0.041413374 -0.108146995 -0.008405297 -0.057706084
-0.049034514 0.10867503 -0.11600272 -0.037097394 -0.09622198 -0.047756493 0.1169211 0.019407049
-0.055052564 -0.09505189 0.06387455 -0.12591752 0.0631008 -0.01086336 0.11249603 0.06852227
-0.013168703 -0.013915468 -0.09042926 -0.03901973 -0.008709897 -0.022914695 0.045305032 -0.1182401
0.094629765 0.047495812 -0.12339065 -0.026945595 -0.06745204 0.04764154 -0.012871679 -0.07611126
-0.0019362097 0.035364285 0.0014555901 -0.07841147 0.1111256 0.112263635 -0.09879267 -0.11616335
-0.07118528 -0.12217372 0.029756336 -0.124424964 0.054992735 -0.09064069 -0.021725148 0.09105122
0.010212046 0.09072279 -0.121919535 -0.06973885 0.016628876 0.05267458 -0.08621149 0.05758458
-0.07377474 -0.11772602 -0.085634276 0.112696595 -0.12086212 0.032413 -0.10165576 -0.1252755
-0.018310852 0.11995415 -0.017928785 -0.030493848 -0.019849407 0.12312736 -0.058569476 -0.08539818
-0.059361216 -0.10956009 0.09431886 0.027587088 0.08460811 -0.0398455 -0.06276584 -0.051691897
-0.008697779 0.12774228 0.02935356 0.08986191 -0.030126583 -0.06864079 0.11562559 0.0826244
-0.11783893 0.10619681 -0.10029302 -0.11553724 -0.08750097 0.08832694 0.039567858 -0.07259587
0.015823651 -0.052306563 -0.115539834 0.011832116 -0.009436127 0.0715309 0.016248802 -0.08210818
0.11227314 0.103916414 -0.011915899 -0.05912577 -0.098928176 0.05521349 0.09322634 -0.009953997
0.060088824 -0.123284996 -0.062495444 -0.031809516 0.004891698 0.08634742 0.11051893 0.09331712
-0.035335056 0.064129405 0.0965948 -0.10636905 0.002933188 -0.018777207 -0.031269763 -0.084384054
0.11811006 -0.01035315 0.050691273 0.019457806 0.09734657 0.00013183871 -0.069769226 0.03360446
0.052328445 -0.07315768 -0.08205966 -0.12890299 -0.043437343 -0.10456926 -0.01570927 -0.12493874
0.12485102 0.004027518 0.112621315 -0.080179185 0.074395224 0.02118997 -0.076976255 0.022579206
-0.07318216 -0.1004953 0.053799417 -0.021981167 0.0405839 -0.10578787 0.05624743 -0.07052882

task_model.task_embedding.weight f4 [64, 32]
00000000: 8dc8 ac3d 201d 5abe 34f4 8f3e fb17 893c
00000010: f109 73bc 8095 0c3e e92f 1cbe b581 0d3e
00000020: ba53 b63e 991e 313e a0ba ecbd 80e9 a6be
00000030: fe01 343d 00cc 96be 1032 613d e7fc 203d
00000040: f25c 533e a67e cc3e be56 37bd 3396 15bd
00000050: 27e7 d63d c3c7 aabd 7bb1 2a3e 839e 483e
00000060: 11ff 33be e505 74be 3799 893e a898 3c3e
00000070: 9b7c 293d 31a9 b5bc fb6e f83c 7c27 393e
00000080: 68c7 be3c 92cd eebd a2eb 903c 6ee3 debd
00000090: a298 943e b4ab b43d 6a33 8f3e ee83 0b3d
000000a0: da91 e7be e42c 13be d76f 443d ea8c 82be
000000b0: 46a7 4e3e 3056 cebd c7d1 8abd 6f6f 033e
000000c0: b1d5 8e3e 5bb4 f43d 3613 4c3e 3313 243e
000000d0: 7a3a 8abe 8836 25be 697f 453e 8250 7f3e
000000e0: 7603 c23d 7d23 1d3e 1d10 43be 8d72 04bd
000000f0: 1c17 4ebd 9ca5 cc3e 1e48 d4be 98c3 85bd
00000100: 23b3 e2bd a8f7 5d3e bad6 b3be 0a62 cb3d
00000110: 6262 e2bd 952f 37be 618d ecbd 9157 803c
00000120: 8cd0 363e a40d 383d c830 d0bd 0da0 bbbd
00000130: 2007 aabd 7ade 39be 58f6 90be 6e3a 403e
00000140: 30fe 3e3d ce26 11be d513 91be 6727 323e
00000150: 79cc 42be 7bba 89bd a650 a4bd f580 43be
00000160: a592 0a3e b77e 55bd 0f95 29be 0be7 eb3c
00000170: 6c12 95be 2d1e 12be e35e 943e 10d5 3dbe
00000180: 1277 89bd d991 e4bd 17b5 0dbd 21f2 a93d
00000190: c4fd 11bd 01e3 4cbd e704 3cbd a2bc 06be
000001a0: ae4b 1b3e 7b93 86be 993d 093e 383f 233e
000001b0: fe85 eb3d b0f1 4bbd eb24 6dbe 76c5 1abd
000001c0: a2b7 8ebe 4e2c dfbd 2032 513e 27a4 d9bd
000001d0: ec28 6abd dcc9 0f3e 5d92 1a3e 4b35 03bc
000001e0: 10db 8ebd 8d2a 113e 38e9 5bbe 4a43 f73c
000001f0: 8cd3 2ebd 87ff 27be e9dd 5e3d a771 de3b
00000200: 57ca e3bd 1f5c 2ebe 167f 043e 83f3 ad3d
00000210: cc01 bcbe 515e ebbd 6b2c 46bd 4ea5 dcbd
00000220: f0ab 4b3e 6434 80be 08bf abbe 117d c2bd
00000230: d6ed 16be 33be f0bd 03aa 9dbe 0e0e 6e3e
00000240: 6588 563d daea c33e 01ff 80bd 2c04 cbbc
00000250: 93e4 12bd db3e e33d d8ea 39be 49ec c63b
00000260: fd9e 843e 0b09 85be 058a 6c3e 194b 28be
00000270: 5388 e93d f2f5 16be 5daf 6fbe a8bc 423e
00000280: 3769 c2bd 3b56 09be 25d2 943e a24b 8bbe
00000290: 9b54 06be caaa 10be 3a47 29be ce3f e0bd
000002a0: b388 2fbd 6d6d fe3d 3abd 36be 42b4 b5bc
000002b0: 623d ab3d 5318 e53b 223c 4dbe b56d 933d
000002c0: 9ef1 113e 07d3 943e b1e3 cc3d 18ce 3b3c
000002d0: afc4 603e 7dc3 953d 5394 29bc 455a 5b3e
000002e0: 1ae4 9b3e 2da0 44be 090e 523e b37d c0bd
000002f0: 037a 83be c000 4f3e 841b 663e dd36 11bd
00000300: 1457 cdbb d307 7d3e 262f 4dbb 5c25 533e
00000310: a600 26be b5ee e3bd 243e 9dbe 8f3f 0cbd
00000320: 0797 853e e0e2 9fb9 370c 4e3e 588b 903e
00000330: 698a 9e3d d2ef 18be 5e67 59bd 169c 64be
00000340: a8e2 92be 5924 04be ab07 1cbd d1ae d03d
00000350: 8427 18be 13b4 473e a18c 97bd d7f9 3a3d
00000360: 15dd 19be 7349 173e 0973 15bd 06d7 2ebe
00000370: 5ac3 e8bd a00a 5e3e 1569 9f3b 4265 a63e
00000380: 664c f33d 1eb3 cdbd 24ef f6ba e7bd e63d
00000390: dd27 18be 1427 15be 6d05 a6bd 84bb 77be
000003a0: 8870 e2bd cbfe c43e afaf 7dbe fe86 fe38
000003b0: af19 69bd 171b 20bd 55c5 8cbe c828 94bd
000003c0: 35f1 ddbd 7605 513b 3ba6 553e 0144 37be
000003d0: 76b2 efbd 37b5 a4be a9d4 a8bc 0113 ffbc
000003e0: 89f1 3a3d b5e3 663e cb57 45be 92b6 a23d
000003f0: 3fd1 493d f5e9 b63d 9b54 133e fe66 38be
0.084366895 -0.21300173 0.28116 0.016735068 -0.014833913 0.13728905 -0.15252651 0.1381901
0.35610753 0.17296828 -0.115590334 -0.3260002 0.043947212 -0.29452515 0.054979384 0.039303686
0.20640925 0.39940375 -0.04476046 -0.036520194 0.104933076 -0.08338883 0.16669266 0.19591717
-0.17577769 -0.23830374 0.26874706 0.18417609 0.0413786 -0.022175403 0.030326357 0.18081468
0.023288444 -0.11660303 0.017690483 -0.108832225 0.290227 0.08821812 0.27968913 0.034061365
-0.45228463 -0.14372593 0.04795822 -0.25498134 0.20180997 -0.10075033 -0.06778293 0.12835477
0.2789741 0.119484626 0.19929203 0.16022949 -0.2699774 -0.16134083 0.19286884 0.24933055
0.09473316 0.15345569 -0.19049115 -0.032335807 -0.050315008 0.399701 -0.4146127 -0.06531447
-0.11069324 0.21676505 -0.3512476 0.09930809 -0.11053921 -0.17889245 -0.115504034 0.015666755
0.17852992 0.044934884 -0.10165554 -0.09161387 -0.0830214 -0.18151274 -0.28312945 0.18772289
0.04662913 -0.14174959 -0.28335443 0.17397843 -0.19023313 -0.067250215 -0.08023195 -0.19092162
0.13532503 -0.052122798 -0.16560768 0.028796693 -0.29115617 -0.14269324 0.28978643 -0.18538308
-0.06712164 -0.11160631 -0.03459653 0.082981355 -0.0356424 -0.050021175 -0.045903113 -0.13157895
0.15165588 -0.26284394 0.13402404 0.15942085 0.11500166 -0.049791038 -0.23158614 -0.03778597
-0.27874476 -0.10897122 0.20429277 -0.10627013 -0.057167932 0.14041847 0.15094896 -0.0080083115
-0.069753766 0.14176388 -0.21475685 0.030183453 -0.042682216 -0.1640607 0.05441085 0.0067884508
-0.11122578 -0.17027329 0.12939104 0.08493712 -0.3672012 -0.11492599 -0.048382204 -0.10773717
0.19889808 -0.2503997 -0.33544183 -0.09496511 -0.14739165 -0.117550276 -0.3079377 0.23247549
0.05237617 0.38265115 -0.06298638 -0.024782263 -0.035862517 0.11095973 -0.18155992 0.006070648
0.25902548 -0.25983462 0.23099525 -0.16434897 0.11402955 -0.14742258 -0.2340674 0.19017279
-0.094927244 -0.134118 0.29066578 -0.2720614 -0.13118212 -0.14127651 -0.16531077 -0.1094967
-0.042854976 0.12423215 -0.17845622 -0.02218068 0.08361317 0.006991425 -0.2004247 0.07198659
0.14252326 0.2906725 0.10004366 0.011462711 0.21950029 0.07312677 -0.010350305 0.21421154
0.30447465 -0.19201727 0.20513166 -0.09398975 -0.25679025 0.2021513 0.22471434 -0.035452712
-0.006266484 0.24710016 -0.003130862 0.2061972 -0.16211185 -0.11129514 -0.30711472 -0.0342403
0.26091787 -0.00030495878 0.20121847 0.2823131 0.077412434 -0.14935234 -0.053077094 -0.22325167
-0.2868855 -0.1290449 -0.03809325 0.101895936 -0.14858824 0.19502287 -0.0739987 0.045648422
-0.15025742 0.14774112 -0.03648666 -0.17074212 -0.11365385 0.2168374 0.0048648217 0.3249913
0.11879806 -0.100439295 -0.001883958 0.1126669 -0.14858957 -0.14565688 -0.08106504 -0.24192625
-0.1105662 0.38475642 -0.24774049 0.00012136808 -0.05690926 -0.039088335 -0.27494302 -0.07234341
-0.10837022 0.0031894124 0.20864193 -0.17897035 -0.117039606 -0.32169506 -0.020609217 -0.031136991
0.045640502 0.22547801 -0.19271772 0.07944979 0.04927182 0.089313425 0.14387743 -0.18008038

task_model.task_embedding_bias.weight f4 [64, 1]
00000000: 0000 80ff 0000 80ff 0000 80ff 0000 80ff
00000010: 7c05 dbc1 503e d9c1 a845 dbc1 63b2 dec1
00000020: b7d3 ddc1 f50f ddc1 54e5 ddc1 b31e e1c1
00000030: 6c6e e4c1 4b45 e6c1 ef81 e6c1 74ca f0c1
00000040: d794 e8c1 ae2f e9c1 a02a e5c1 19a3 e4c1
00000050: 1808 e9c1 ea5f e2c1 b74f e4c1 ed82 e8c1
00000060: ce53 eec1 49b1 e9c1 3a29 ebc1 32e7 dec1
00000070: 20ff e8c1 4693 e8c1 edec e9c1 8e0c fcc1
00000080: 138b e6c1 0fff e5c1 6129 e8c1 5116 eac1
00000090: f997 e6c1 5cb9 e6c1 e339 eec1 33c2 eac1
000000a0: af82 e8c1 0bb2 e2c1 ae50 e1c1 2c86 f6c1
000000b0: 8648 efc1 a3f3 f4c1 eed4 fac1 5a6b e0c1
000000c0: 94e9 f6c1 e2ca edc1 1973 e8c1 3f8d e6c1
000000d0: e59e f9c1 1692 f8c1 cb80 f8c1 13cd f1c1
000000e0: 626e e7c1 9d1e e8c1 c857 e9c1 f34f e8c1
000000f0: 335d ebc1 f3d4 f7c1 466c f5c1 c307 eac1
-inf -inf -inf -inf -27.377678 -27.155426 -27.409012 -27.837103
-27.728376 -27.632792 -27.736977 -28.13999 -28.553917 -28.783834 -28.813444 -30.098854
-29.072676 -29.148281 -28.645813 -28.579638 -29.128952 -28.296833 -28.538923 -29.063929
-29.79092 -29.211565 -29.39513 -27.862888 -29.124573 -29.07191 -29.240686 -31.50613
-28.817907 -28.74954 -29.020205 -29.260897 -28.824205 -28.840508 -29.778265 -29.344824
-29.06381 -28.336935 -28.164394 -30.815514 -29.910412 -30.618963 -31.35397 -28.052418
-30.864052 -29.724064 -29.0562 -28.818968 -31.202585 -31.071331 -31.062887 -30.225134
-28.928898 -29.014948 -29.167862 -29.039038 -29.420507 -30.97898 -30.677868 -29.25379

transformer.embed_bag.weight f4 [128, 64]
00000000: 6eab f33e ef4a 20c0 ecfd d7bf a8c7 ca3f
00000010: 6b82 9dbe b033 02bf f64c b33e 51ee 673e
00000020: f2e2 603f f086 fe3f 1164 3c3f ae12 ca3f
00000030: 0ca4 5abf ac12 9dbf 7302 0540 61e2 0740
00000040: d4db f9be 985a f13e e70c 0d40 8f9e e5bf
00000050: 72d5 33bf c52e b03f 6b82 79bd d133 fcbd
00000060: c2ab 29bf 99fb 1fbf 0123 943f 9f49 04be
00000070: 5c5d 08c0 0131 64bf 6936 49bd c2f2 21bf
00000080: 9ec1 8dbf 8c7e 10c0 1104 e1bf f5f0 bcbf
00000090: 2a8d 63bf 6c6c f9bb 4d74 82bf f1e6 fd3e
000000a0: 9157 41bf 1113 c13f 1b6a 63bf 46c6 b7bf
000000b0: a62b 2a3f 962d 87bf 445f f1bf 9326 a73f
000000c0: cbd7 6bbe 0852 233f 2d6e 0d3f 7cfa 7c3f
000000d0: a3d7 243f 9d75 1940 ca4d cfbf 4f23 393f
000000e0: e580 cbbd 4edc 3740 739f c7bf 14f7 b73f
000000f0: 5456 5b3f 0142 3bbe 546e 4b3e 468e cb3e
00000100: 42aa aebe 0bae 33be b10d 813f 605a 823f
00000110: 9acf 9b3f 866d 553f 99ac 83bf 4f53 0640
00000120: 004e 813f e119 1fbf 1179 fcbd b227 adbf
00000130: 91b1 e9bf 1743 c4be 0847 a63e b637 af3e
00000140: 7671 69bf 434d e3bf 5625 a1be c7bb ef3a
00000150: 4dcc da3e f395 273f 0b7e 66bf f5fa 98be
00000160: 5957 023f a333 ca3f cedb c63f 8257 2c3e
00000170: aef7 c5be 37be ec3f 1efe 7c3e cf6d 993f
00000180: 68aa eebe fb5a 3940 d8bd 22bf c887 c83e
00000190: 7a29 193f 33b7 623e e750 8cbf 7494 933e
000001a0: 6093 71be 96d6 573e 6bb1 f2bf 488f da3e
000001b0: 4236 0440 0f5e b0bf c2f0 1bbf 30e5 f3bd
000001c0: 49fd 163f 90ea 91bc 0f0d de3d e4b5 09bf
000001d0: 5cd0 d3bf 198f ee3f 68a3 d5be 72ee a63f
000001e0: 4491 5d3e 608b 033f d7de a8bf 7c15 b53f
000001f0: 5ecb 973e 0274 f3be 10c3 983f b81d e0be
00000200: 5a5f 943f 54a8 653c 4f41 ddbf af8d d43e
00000210: 95e2 f4be 2455 6c3f b027 66bf cd2a dbbe
00000220: ecfa 2b3f f320 00be 5972 cd3e dcbb 4abf
00000230: c424 6dbe 6934 2abf ee25 5e3e a7ad 1e3f
00000240: f7df 2b3f b948 90bc 2d8d 4ac0 1907 a0bf
00000250: 46a4 6ebd a8e2 dbbe 5a44 73bf b439 463f
00000260: 5806 a8bf 6b0a 5e3f 20d6 ec3e ec14 51bf
00000270: 31fd e8bf d8a9 49bf c6bd 1e40 b6f3 15bd
00000280: 299d 153d 3c04 893e ea75 3d3d 3dfa b13f
00000290: d06c 53bf 1dbd e53e c6ac aa3f 4b0c 86bf
000002a0: 3e72 d33e 0580 443f 4a67 e53e aee4 0240
000002b0: 6472 bdbf a8a5 a6be 55d9 b33f e6b3 96bf
000002c0: 4874 cd3e 2a21 903f 45c0 7c3f d695 37bf
000002d0: f247 443e 97cd 0d3f d090 d8be 06f2 813f
000002e0: 3872 8abf 8a40 9f3e c882 ebbe 49ad 503f
000002f0: 70fb c03f 3fab db3e 0c0b d33e e4ce a4bf
00000300: e7e4 c93f 186b 99bf 9425 a5be cd43 9abf
00000310: d2b4 d93f 6228 813f af5d 85be df53 2a3f
00000320: ad25 5ebf 82bd 3fbf a22d 46bf e69e bc3e
00000330: cbcf 86bf 1d60 7e3d 2e9b 93bf 4944 903f
00000340: b0bd 5d3f 990a ed3c c967 b43f e1eb 8dbe
00000350: 7d31 f0bf 2868 a1bf e353 113e 40a8 02bf
00000360: 0bdb 413e 2c52 5b3f 6dde 1e3f 41fb c13f
00000370: 51bb 8dbe 448a b8bf c242 3a3e 1885 4e3f
00000380: 83bb cfbf a50a e93e c4d6 8bbe cf4f e5bf
00000390: c161 04c0 4865 1dbf ee6b 863e 3b3a abbd
000003a0: d792 1cbf b66d c33d 343d 6abf d20c 9cbe
000003b0: 1701 e6bf aac8 1c3f 7111 16bf 92d6 c33f
000003c0: a658 24bf 199a 4a3f 6aab c5be 899b 25bf
000003d0: 6f70 053e 69ad ed3e 0a0f ed3e 17bb 9fbd
000003e0: 4d47 a4bf fbe5 e4be e595 80bf 96a8 afbe
000003f0: a684 44bf 8763 013f 443e 9c3e 66ef 5e3f
0.47591728 -2.5045736 -1.6874366 1.584218 -0.30763564 -0.5086012 0.35019654 0.22649504
0.8784629 1.988493 0.7359019 1.578695 -0.85406566 -1.2271323 2.0782745 2.123192
-0.48800528 0.4713943 2.2039125 -1.7939013 -0.70247567 1.3764273 -0.060915392 -0.12314571
-0.66277707 -0.6249328 1.1573182 -0.12918709 -2.1306982 -0.89137274 -0.049124155 -0.63261044
-1.1074712 -2.2577238 -1.7579366 -1.4761034 -0.88887274 -0.007611802 -1.0191742 0.49590257
-0.7552424 1.5083944 -0.8883378 -1.4357383 0.6647285 -1.0560787 -1.8857198 1.3058647
-0.23031537 0.63797045 0.5524624 0.9881971 0.64391536 2.3978035 -1.6195614 0.723195
-0.09936694 2.8728213 -1.5595535 1.4372277 0.856786 -0.18286897 0.19866306 0.39756984
-0.3411427 -0.17546861 1.0082303 1.018383 1.217273 0.83370245 -1.0287048 2.0988348
1.0101929 -0.62148863 -0.12327779 -1.3527739 -1.8257314 -0.38332435 0.32476068 0.34222192
-0.9118875 -1.7757953 -0.31473798 0.0018290215 0.42733994 0.6546318 -0.90036076 -0.29878965
0.5091453 1.5797008 1.5535829 0.16830257 -0.38665527 1.8495549 0.24706313 1.1986636
-0.46614385 2.896178 -0.6357093 0.39166093 0.59828913 0.22140197 -1.096219 0.28824198
-0.23591375 0.21077952 -1.8960394 0.4268744 2.0658116 -1.3778704 -0.6091424 -0.119089484
0.5898023 -0.017812043 0.108423345 -0.5379317 -1.6547961 1.863742 -0.41726232 1.3041518
0.21637446 0.51384544 -1.3193005 1.4147182 0.29647344 -0.47549444 1.1934528 -0.43772674
1.1591599 0.014017183 -1.7285556 0.41514346 -0.47829118 0.92317414 -0.8990431 -0.42806092
0.6717975 -0.12512569 0.40126303 -0.791929 -0.23158556 -0.6648622 0.21694157 0.6198372
0.6713862 -0.017612802 -3.1648667 -1.2502166 -0.058262132 -0.42946362 -0.9502617 0.774318
-1.3126936 0.86734647 0.46257114 -0.8167255 -1.8202268 -0.78774786 2.4803329 -0.036609374
0.036526833 0.26761043 0.04625503 1.3904492 -0.8258791 0.44870844 1.3333976 -1.0472502
0.41298097 0.7675784 0.44805366 2.0452075 -1.4800534 -0.3254826 1.40507 -1.1773651
0.40127778 1.1260121 0.9873088 -0.71713006 0.1916807 0.5539183 -0.42297983 1.0151985
-1.0816107 0.31103927 -0.45998216 0.8151441 1.5076733 0.42904088 0.41219366 -1.2875638
1.577298 -1.1985807 -0.32255232 -1.2051941 1.7008307 1.0090449 -0.26048037 0.6653423
-0.8677624 -0.7489854 -0.7741338 0.3683998 -1.0532163 0.06210338 -1.1531732 1.1270839
0.86617565 0.028935717 1.4094173 -0.27719024 -1.8765103 -1.2609911 0.14192156 -0.5103798
0.18931215 0.8567226 0.62058145 1.5154802 -0.27681974 -1.4417195 0.18189529 0.80671835
-1.6229099 0.45515934 -0.2731229 -1.7914981 -2.0684664 -0.6148267 0.2625422 -0.08360716
-0.6116156 0.0954241 -0.9149964 -0.3047853 -1.7969083 0.6124369 -0.58620363 1.5299857
-0.64197767 0.79141384 -0.3860734 -0.6469045 0.13031171 0.46421364 0.46300536 -0.077993564
-1.2834259 -0.4470671 -1.0045744 -0.34308308 -0.76764905 0.5054249 0.30516255 0.87084043

transformer.in_norm.scale f4 [64]
00000000: 3b62 7e3f 02ac 7d3f c4f1 7e3f 92a2 7e3f
00000010: 14ba 7d3f 2f25 813f 3f2c 7d3f e31a 7f3f
00000020: 44b9 803f 00b6 7d3f 85a8 803f fb68 803f
00000030: a328 7e3f c7ca 7d3f 6e18 803f 12a8 803f
00000040: ec0a 813f ac0e 7f3f eec2 7f3f b822 7e3f
00000050: 60fd 7f3f 8fea 7e3f 3743 7e3f 1ee4 803f
00000060: 249a 7e3f 1528 7d3f 7f47 803f b4b9 803f
00000070: 69a1 7e3f 37e0 803f e61e 803f 729e 803f
00000080: 363e 7f3f 7dc2 803f 65a7 803f 71a2 803f
00000090: b5fc 7c3f 95b0 803f ca45 803f 1034 7e3f
000000a0: 00b1 803f 2171 7e3f ed80 803f 170f 7e3f
000000b0: ccbf 7f3f 82be 7d3f d863 7e3f fe13 7d3f
000000c0: 46ac 7e3f c44f 7f3f 8bb3 803f 748c 7e3f
000000d0: 1e86 7f3f dbff 7f3f 2c36 7f3f ff7e 7e3f
000000e0: f0d2 7e3f 8cd9 7e3f 53a6 7e3f 0a9c 803f
000000f0: c90c 7e3f a8b1 803f 9026 7e3f e11d 813f
0.9936864 0.9909059 0.99587655 0.9946681 0.9911206 1.0089473 0.9889564 0.996504
1.0056539 0.99105835 1.0051428 1.0032037 0.99280757 0.9913754 1.0007455 1.0051291
1.0081458 0.9963176 0.99906814 0.99271727 0.99995995 0.9957666 0.9932131 1.0069616
0.9945395 0.98889285 1.0021819 1.0056672 0.9946504 1.0068425 1.000943 1.0048354
0.997043 1.0059353 1.0051085 1.0049573 0.988231 1.0053889 1.0021298 0.9929819
1.0054016 0.9939137 1.0039345 0.99241775 0.99902034 0.99118817 0.993711 0.9885863
0.9948162 0.9973109 1.0054792 0.99433064 0.9981402 0.9999978 0.99692035 0.9941253
0.99540615 0.995507 0.9947254 1.0047619 0.9923826 1.0054216 0.9927759 1.0087243

transformer.layers.0.input_proj.bias f4 [320]
00000000: 99ea febd 2f34 ed3d 70ac df3d 31be e2bd
00000010: e688 033d b5f9 963d 3462 21bc 18ff e0bc
00000020: 4bf7 8d3d 46af c4bd c706 7f3d a122 adbd
00000030: ff28 98bb 99c1 8b3b 5ce1 b2bd 54f9 02be
00000040: 9dd6 8e3d 8724 e6bc 28f7 92bd b0e9 df3d
00000050: f37a 42bd 93bb 96bd 5e11 06bd 0007 3b3d
00000060: 8ee6 47bd 3998 e5bc bac6 b3bd e623 2fbd
00000070: 42af 9f3d cfae 62bb d20f ed3c 8ba8 b5bc
00000080: 8c01 dcbb 15c6 af3c 208d c1bd 313c 90bc
00000090: a79f 503d fcfb cb3c 6e26 163d afea f6bd
000000a0: 047c bcbd f54c e33d 057d dfbd 66f2 b23d
000000b0: a7d3 e3bd f8a3 a8bd 5776 8fbd 1813 e7bd
000000c0: d81b c53c cfae b6bd 1548 bb3c af49 5c3d
000000d0: 7c37 b83d f5e2 35bd c58d 1c3d 877c 3d3c
000000e0: d3e3 64bd 9244 013e 0003 ab3c b51f 00be
000000f0: d71c 9dbd e00d ac3d 456b 97bc d851 16bd
00000100: 8aee cb3d c22c e23d a0bd 233d cf9b eb3d
00000110: e005 df3d 734e e9bc 65b8 5f3d 4655 cf3d
00000120: bf8a 5cbd 20a5 b3bd e9a4 b3bd 9f40 cfbc
00000130: 593e 05bc 51af 18bd 143a cfbd cbac 4bbd
00000140: 8b3a d3bd 65dc 8cbc 4713 bcbd be64 ccbd
00000150: f919 b6bd ac89 5b3d b7aa 88bd 6e72 7a3d
00000160: fd77 25bd c575 163d e481 c6bc 9aa3 c0bd
00000170: 738e e1bd 133f ec3d 4075 bf3d 6668 b5bc
00000180: 21d2 3e3c fead a6bd 9a8d 873d 73db f83d
00000190: 2b9b f8bd a273 0bbc 1b45 8c3d f5bc 553c
000001a0: e1de a03d 5211 c8bd 7053 71bb da46 dc3d
000001b0: 2aff 433d 3b2c 8bbd 17c1 adbd eaad 843d
000001c0: 8a82 4fbd 7fda 92bd 949c b63d 6f10 6bbd
000001d0: 030b 7fbb a23a ee3d b011 b5bd 59f5 5cbd
000001e0: 3285 aabd 8964 85bc 368f 863d e9d6 c4bc
000001f0: 470a 923d c3d4 afbd e782 963d 0620 a53d
00000200: 75ae 6abd b3db 4cbb b6cb dfbc 6caa 61bd
00000210: 6f10 1d3d 10b3 a43d 8aa0 bc3d 94c2 943d
00000220: d7cc 7bbd 22a5 c43d 545d 3d3c b068 3939
00000230: 2e1b c8bc 3e74 ae3d 35b4 0c3d b9b9 afbd
00000240: 6564 da3b e796 863b 3324 c8bd 0b69 4bbd
00000250: cd8c 59bd ccc2 7a3d 2fb0 40bd 7264 bb3c
00000260: fdb8 fbbd d211 60bd 383a ecbd 783a ea3d
00000270: ba8c e4bd f9c0 a93d 19c8 693d 2ec2 d4bd
00000280: 24b0 bf3d d6d9 a33c bb4e 933d c275 2dbd
00000290: 2456 973b 7ad2 c6bd 4d95 fcbd 08e3 08bd
000002a0: 329e d23c 424e c6ba d5ba 9a3d dde5 98bd
000002b0: e723 033e 21fc 8ebd ebb4 e6bd 003b d6bd
000002c0: 74f6 f63d 20d4 04bd b517 9a3b be8f 833d
000002d0: 54c0 3c3c b201 a3bd 7bc9 913d 66f1 eabd
000002e0: c693 02be 946d d1bd eee9 8a3d ce37 68bc
000002f0: 4f0f 013c d38c 2abd 09c8 903d 21a6 a1bd
00000300: 3d61 a1bd c55d a53d 9e38 73bd 3fa3 bf3d
00000310: 3b77 ccbd 1730 a13c e8f1 063c 8df8 3d3d
00000320: e277 c4bb 5697 babd b82b 543d f08b 16bc
00000330: 0159 d13d 40ee 033e a086 5d3d 0b2c 973d
00000340: a3ef 973d 4664 fc3d 7455 d83d 8ff0 b33d
00000350: 0162 cd3d 32b8 0cbd 0eba e4bc 64c8 5d3d
00000360: 743f e6bd 7f29 573d 29a0 733d 19c6 c2bd
00000370: 65c8 c83d 3c24 6bbd f960 053e 822a f73d
00000380: b3b4 ee3d 1d85 cb3d 8e2f f9ba 3e54 21bd
00000390: 4e6b 94bc ef27 733d 854c ee3d 2eb1 81bc
000003a0: c8e7 d8bd 5032 db3d 3225 823c fc9f 003e
000003b0: 6b5c 07bd c043 fabd 403e 79bd 49e8 a33d
000003c0: a26e c53a 28a2 9c3d 3dc3 21bd 9882 e63a
000003d0: 412d a13d 076b bf3d 7b4b 3b3d 9de3 9f3d
000003e0: 7546 9f3d afdc 8abc 04ba 93bd a1c7 f33c
000003f0: c9a1 3abd 89f7 b13d 812c 193d 69c9 64bc
-0.1244709 0.11582219 0.10921562 -0.110714324 0.03211298 0.073718466 -0.009850074 -0.027465388
0.06931933 -0.09603743 0.062262323 -0.084538706 -0.004643559 0.004265022 -0.0873439 -0.12790424
0.06974528 -0.02809359 -0.071760476 0.10933244 -0.047480535 -0.07359996 -0.032731406 0.045660973
-0.04880386 -0.028026687 -0.087781385 -0.042758845 0.077971 -0.0034589057 0.028938208 -0.022175094
-0.0067140516 0.021456758 -0.094507456 -0.017606826 0.050933506 0.024900429 0.036657743 -0.12056481
-0.092033416 0.11098663 -0.109125175 0.0873764 -0.11124354 -0.082343996 -0.070049934 -0.11282939
0.024061128 -0.08920061 0.02286152 0.053781208 0.08994958 -0.044405896 0.03822114 0.011565334
-0.055881333 0.12623814 0.020875454 -0.12512095 -0.076715164 0.08401084 -0.018483767 -0.036699146
0.09957607 0.11043693 0.039975762 0.115043275 0.108897924 -0.02847979 0.05461921 0.101236865
-0.053843256 -0.087717295 -0.087716885 -0.025299368 -0.008132541 -0.03727657 -0.101184994 -0.049725335
-0.103139006 -0.017194936 -0.09183364 -0.099801525 -0.08891673 0.05359809 -0.06673186 0.061144285
-0.040397633 0.036733408 -0.024231859 -0.094062045 -0.11013498 0.11535468 0.093485355 -0.022144508
0.011646778 -0.08138655 0.06618805 0.121512316 -0.12138971 -0.008511456 0.06849118 0.013045539
0.07855011 -0.097689286 -0.0036823414 0.10755701 0.047850765 -0.06795546 -0.084840946 0.06478484
-0.0506616 -0.07170581 0.08916584 -0.05738872 -0.0038916476 0.11632277 -0.08841264 -0.05394492
-0.08326186 -0.01628329 0.06570284 -0.024028258 0.071308665 -0.08585503 0.073491864 0.080627486
-0.05729528 -0.003125888 -0.027318817 -0.055094168 0.03834575 0.08041966 0.09210308 0.07263675
-0.061474647 0.09601809 0.011557896 0.00017681974 -0.024427023 0.08518265 0.034351546 -0.08580346
0.0066648 0.0041073444 -0.097725295 -0.049660724 -0.053112794 0.06122093 -0.04704302 0.022875044
-0.12291143 -0.054704495 -0.11534542 0.11436933 -0.11159654 0.0828876 0.057075594 -0.10388599
0.09359768 0.020001333 0.07192751 -0.04234863 0.004618423 -0.09708114 -0.12333164 -0.03341964
0.025710199 -0.0015129524 0.07555167 -0.07465718 0.12806664 -0.069816835 -0.11264976 -0.10460472
0.12058726 -0.03242886 0.004702533 0.06423901 0.011520464 -0.07959308 0.071185075 -0.11471824
-0.12751684 -0.102259785 0.067829 -0.014173461 0.007877185 -0.041638207 0.07069404 -0.07893015
-0.07879875 0.08074526 -0.059380166 0.093573086 -0.09983679 0.019676251 0.008236386 0.046379615
-0.0059957365 -0.09110896 0.051799506 -0.009188637 0.10222054 0.12883854 0.054083467 0.073814474
0.07418754 0.12323813 0.10563174 0.08786117 0.100284584 -0.03435535 -0.027920749 0.054146186
-0.112425715 0.052529808 0.059478913 -0.095104404 0.09803847 -0.057407603 0.13025273 0.120686546
0.116555594 0.09937499 -0.0019011365 -0.03938698 -0.018117573 0.059364256 0.11635689 -0.015831556
-0.10591084 0.10702956 0.015886877 0.12561029 -0.03304712 -0.122199535 -0.06085038 0.08003289
0.0015062878 0.07648116 -0.039492834 0.0017586527 0.078699596 0.09346586 0.04572628 0.07807086
0.077771105 -0.016950933 -0.07213214 0.029758276 -0.045564447 0.08689792 0.037395958 -0.013964036

transformer.layers.0.input_proj.weight f4 [320, 64]
00000000: e665 363d 8b8a e63d c640 363d da8a 84bd
00000010: 0bee b93d 2bbc a73d 7dd7 1c3d a745 b53b
00000020: c132 81bd 71df 85bd c9a2 f03c ecde 4c3d
00000030: aa18 ea3d 36d1 f2bd aebf f53b e7e1 703c
00000040: 9912 9e3d d436 b33d 0585 06be 5a23 afbd
00000050: 3ad1 ad3b 98ea f23d db06 9cbd ce8a 123b
00000060: e1e0 0c3d a456 d93d e01d b7bc 64c8 b2bc
00000070: 1d16 a33c c1c3 c3bd 0ab5 ba3d 5a41 f0ba
00000080: 28c8 66bd 0da4 0e3d a26e 7bbd 7ef9 ffbb
00000090: 7564 00be 80fb cf3d 8a98 18bd daa5 f13d
000000a0: 1edd a1bd 8533 b2bc ce07 853d f77a 3c3d
000000b0: 3d2c 973d ab07 453b fa5f 5d3d e526 eebd
000000c0: beee 873d 5c87 db3d 9819 87bd d8f7 843d
000000d0: 40e9 473d 8e7c a13c 6052 94bd 3495 1d3c
000000e0: fa66 723c 39bc a5bd 3df0 543d 8121 e73c
000000f0: 0417 78bc 256a d1bb dab2 fd3c 36a9 47bd
00000100: ad5b 023e dd86 28bd fb26 fdbd 0490 b23d
00000110: 91f6 c6bd 83da cabd c2ab f2bd daf3 f53d
00000120: 3494 f93a d8a3 b23d 77ba c3bd 486a dabd
00000130: b2c6 873d 3a36 64bd 0333 ef3d 2cd8 e73d
00000140: 50fb a73b 0638 abbd ca01 e13d 856b d0bd
00000150: 31a3 a1bc 0df6 b53c b821 38bc 3076 da3c
00000160: 399f 173d 95cc 93bd 62c1 893c 22a5 df3b
00000170: e67c d73d 794b b93c 13d7 c6bd 1325 c23d
00000180: 4e19 a03d 078f 6ebb aa46 05bc 4209 99bd
00000190: 4e08 c6bd 9520 a83d bd67 d03d a0b4 a4bd
000001a0: a0cd ac3d 1199 14bd eb8b b13d 384f aabc
000001b0: a21b 8fbd e2fa 363d 7441 16bd 83d2 70bc
000001c0: cf31 48bd 9829 eabd d16f c0bc 8613 a03d
000001d0: 107c d13d 9d4b dbbd 5ee8 e13d 4b9d 163d
000001e0: c974 b5bc f322 febc 783c 48bd 9545 37bc
000001f0: ff95 92bc 6e51 713d 7ea0 d43c dc9e 693d
00000200: 1ceb f8bc 699f e1bd e66e e23d 879f a9bd
00000210: 5672 eabd 5cfc d5bd fa51 fb3d fefd c4bc
00000220: 3cdd aa3d 53f1 ba3d ae32 e23d d9cd 993d
00000230: 6d45 d53d f8d6 f43d acce e9bc b8da 533d
00000240: 41e1 463b a9d1 f83d 09b5 803d ab86 f93d
00000250: 0a2f 00be 2128 a4bd d3e4 d83d ae8c e7bd
00000260: a036 4c3d fe67 263d 6002 523d 5bbe 8bbd
00000270: 0815 f9bd 487a d23d 8a2a 9dbd 591b dfbd
00000280: 8274 aa3d 9523 bb3d 9280 9abd af14 97bd
00000290: d495 8bbd 5fea dcbd b7de d6bc a8ce 55bc
000002a0: 5357 843d b36c 88bd 16b6 523c f4fa 2e3d
000002b0: f8af 79bc 225f cfbd e5d9 04be 353e fb3c
000002c0: 73ce 6c3d 42be 87bd 274b b9bb c652 75bd
000002d0: 51f7 b63c f6d8 1abd aef5 f33d dd81 903d
000002e0: 962c 22bd 0b11 d13c ff16 043e a5e9 843d
000002f0: c6df debd f7b8 3abb fef9 833c 0049 e33d
00000300: b407 ecbd 7f82 92bc d666 973c b01d dbbd
00000310: 161d 4cbd 86e0 25bd 6b21 913d d009 3bbd
00000320: 2f89 7dbd 7c18 e7bd 55c2 4c3d 1c52 b9bd
00000330: fd9c 143d c14e 953d e853 f4bd 40b9 adbc
00000340: 13dc debd 2f43 7f3d 227e e0bb 0bc1 f63d
00000350: a673 653d d30f ccbd 8a65 6c3d e1cc f5bc
00000360: c29b ac3d e000 1e3d 615c 9a3d df42 a3bd
00000370: 5114 d7ba 633e f3bd 5084 acbd d774 bfbd
00000380: 240f c0bd 772a 54bd 3600 923d a801 e2bd
00000390: c728 92bd 2226 133c 23f5 3bbc fb41 dbbd
000003a0: 5d12 6f3d 61ae b13d d6c0 9f3c 4c6a 893d
000003b0: 0766 b93d 6588 e43d 604d cb3d 250e d8bd
000003c0: 0757 a73d cfb6 1fbc e7a5 103d 4f9d 6fbd
000003d0: ab5b e2bd 6acc ac3d c38d a63c e3da 983d
000003e0: 70c4 8ebd 8022 d0bd 8d17 433d 6e8b cabd
000003f0: 8e42 803a 17d5 9fbd 806b da3c 2cbe 46bd
0.04453077 0.11256894 0.044495367 -0.06471796 0.09078606 0.08190187 0.038291443 0.005531985
-0.06308509 -0.06536759 0.029374497 0.050017282 0.114304855 -0.1185631 0.0074996566 0.014702297
0.07718391 0.08750692 -0.1313668 -0.08551665 0.0053044828 0.118611515 -0.07618495 0.0022360566
0.03439415 0.106122285 -0.022353113 -0.02182407 0.019908005 -0.095588215 0.09116562 -0.0018330023
-0.056343228 0.03482442 -0.061384805 -0.007811724 -0.12538321 0.10155392 -0.037254848 0.11799212
-0.07903503 -0.021753082 0.06495629 0.046015706 0.07381485 0.0030064385 0.05404661 -0.11628512
0.06637333 0.10719177 -0.065966785 0.06492585 0.04880643 0.019712713 -0.07242274 0.009618092
0.014795059 -0.08092541 0.05198692 0.028214218 -0.015142206 -0.0063908272 0.030969072 -0.048745357
0.12730284 -0.04114424 -0.123609506 0.08718875 -0.097149976 -0.09904959 -0.118491665 0.120094016
0.001904136 0.08722657 -0.0955705 -0.10664803 0.06629695 -0.055715777 0.116796516 0.113205284
0.0051263943 -0.08360295 0.10986669 -0.10176758 -0.019731136 0.022212053 -0.011238508 0.026667684
0.03701708 -0.07216755 0.016815845 0.0068251053 0.10521869 0.022618996 -0.09708991 0.094797276
0.078173265 -0.003640117 -0.008134523 -0.07472469 -0.09669553 0.082093395 0.101760365 -0.08042264
0.08437657 -0.036278788 0.08669265 -0.020789728 -0.069876924 0.044672854 -0.036683515 -0.014698627
-0.048875626 -0.11433715 -0.023490818 0.07816224 0.10228741 -0.107077815 0.11030649 0.0367711
-0.022150414 -0.031022524 -0.048885792 -0.011186023 -0.01789379 0.058915548 0.025955435 0.057036266
-0.030385546 -0.11016733 0.110563084 -0.082823806 -0.11447589 -0.10448524 0.12271495 -0.024046894
0.08342978 0.0912806 0.11044823 0.075099654 0.104136325 0.119550645 -0.028540932 0.05172226
0.0030346664 0.121493645 0.0628453 0.12183889 -0.12517944 -0.080154665 0.1059052 -0.113061294
0.049856782 0.04062652 0.051271796 -0.06823417 -0.121622145 0.102772295 -0.07674129 -0.10893888
0.08323003 0.09137646 -0.07544054 -0.07376992 -0.06815687 -0.1078689 -0.026229246 -0.013049759
0.06461968 -0.06661358 0.0128607955 0.042719796 -0.015239708 -0.10125567 -0.12973745 0.030669311
0.057814073 -0.06628086 -0.005654711 -0.059893392 0.022334727 -0.037804566 0.11912094 0.070560195
-0.0395933 0.025520822 0.12899397 0.06489877 -0.10882525 -0.0028491595 0.016110417 0.11097908
-0.11524907 -0.017884491 0.018481653 -0.10699022 -0.049832426 -0.040497325 0.07086452 -0.045663655
-0.061898407 -0.11283967 0.049990017 -0.09048864 0.03628253 0.07290412 -0.11930066 -0.021206498
-0.108818196 0.06231993 -0.0068509737 0.12048539 0.056018494 -0.09963956 0.057714023 -0.03000492
0.08428146 0.038575053 0.07537151 -0.07971739 -0.0016409253 -0.11877134 -0.08423674 -0.09348457
-0.09377888 -0.05179831 0.071289465 -0.11035472 -0.07136684 0.00898126 -0.011472019 -0.10705944
0.058367122 0.08675838 0.019501131 0.06709728 0.09052663 0.11158828 0.099268675 -0.10549573
0.08170896 -0.009748175 0.035314467 -0.05849963 -0.110526405 0.084374264 0.02033127 0.07463624
-0.06971061 -0.1016283 0.04762988 -0.09889875 0.000978546 -0.078043155 0.026662588 -0.048521206

transformer.layers.0.norm.scale f4 [64]
00000000: a7b1 803f f8de 803f 647b 803f c968 803f
00000010: 568d 813f fd14 813f 87ef 803f eb5f 813f
00000020: d50d 813f 89c0 803f 75ca 803f 11b2 803f
00000030: f829 813f fdbe 813f 4fe8 803f cb59 813f
00000040: af49 813f d3d1 7f3f a7d3 813f 4438 803f
00000050: e5af 803f 4d5b 803f f41d 803f 5b1d 813f
00000060: cdf5 803f 74e5 803f 7e2f 803f ad15 813f
00000070: 70f7 803f dfef 803f f6cc 803f 68d7 803f
00000080: d61f 813f 2c8b 813f 815f 803f b24f 803f
00000090: dfb9 803f 6226 813f 9a61 7f3f 0efc 803f
000000a0: 249e 803f 633f 813f 3f58 813f 9112 813f
000000b0: 7a74 813f ee09 803f 767d 803f 6cfb 803f
000000c0: 3148 813f 76ad 803f ce13 803f 3a65 813f
000000d0: 7924 803f 7dd9 803f c202 813f a387 803f
000000e0: d1b8 803f 9890 813f b79b 803f 78cc 803f
000000f0: d1a0 803f aee3 803f 9239 803f 290e 803f
1.0054215 1.0068045 1.0037656 1.0031978 1.0121257 1.008453 1.0073098 1.0107397
1.0082346 1.0058757 1.0061785 1.0054342 1.0090933 1.013641 1.0070895 1.0105528
1.0100611 0.9992954 1.0142716 1.0017171 1.0053679 1.0027863 1.0009141 1.0087084
1.0075012 1.0070024 1.0014493 1.008474 1.0075512 1.0073203 1.0062549 1.0065737
1.008784 1.0120597 1.0029145 1.0024321 1.0056723 1.0089839 0.99758303 1.0076921
1.0048261 1.0097469 1.0105056 1.0083791 1.0113671 1.000303 1.0038288 1.0076728
1.0100156 1.0052936 1.0006044 1.0109017 1.001113 1.0066372 1.0078967 1.0041393
1.0056401 1.0122252 1.004752 1.0062399 1.0049077 1.0069482 1.0017569 1.0004321

transformer.layers.0.output_proj.bias f4 [64]
00000000: 2a22 ec3b 2833 633d 8493 a03a 0c7d 5b3d
00000010: 1b28 393d bdf3 29bd 5ab3 0abd 0949 05bd
00000020: c963 123c c3b6 d2bc 1f32 6fbd 9698 893d
00000030: b57d 663b 4d77 9f3c 3b10 2e3c 2681 8d3d
00000040: 76a5 30bd 672f 8bbd 519e 273d b0b7 1d3c
00000050: da76 533d 052f 203d f3bb 97bd d511 73bd
00000060: e7b6 20bb 4686 82bd 11be 9ebc 9e8d 263d
00000070: d550 5d3d 2987 60bd ea77 8a3d 2b4b 8dbc
00000080: 656d babb d948 40bd bddf 773c d600 a2ba
00000090: ec15 cabb 0f52 e0bc c4aa 84bd 7cc6 803d
000000a0: 6227 09bd 3f08 113d 472a 223b 7b44 d2bc
000000b0: f135 7a3d 125b 7d3d f201 1bbc da8b 323c
000000c0: 3579 2dbd a9e8 be3c de95 93bb 78c1 b73c
000000d0: 50a9 f83c 5c2b 033d 89e3 6bbd f32d b2bc
000000e0: 9042 50bd cd88 ed3c d477 243d 16b1 833d
000000f0: dbe9 4b3d f593 64bd 4382 53bd 9827 3ebd
0.007206221 0.05546871 0.0012250994 0.05358605 0.045204263 -0.041492213 -0.03386245 -0.032540355
0.008934923 -0.025721913 -0.05839741 0.067185566 0.0035170142 0.019466067 0.010623987 0.06909399
-0.043126546 -0.06796151 0.040922467 0.009626314 0.051627018 0.03910734 -0.07408895 -0.059343178
-0.002452308 -0.06373267 -0.01937774 0.0406624 0.054032166 -0.0548164 0.06761153 -0.017247757
-0.0056893104 -0.046944473 0.015129027 -0.0012359868 -0.006167164 -0.027382879 -0.064778835 0.06287858
-0.033484824 0.035408255 0.0024744438 -0.02566742 0.0610866 0.06185443 -0.009460913 0.010897601
-0.04235192 0.0233043 -0.0045039495 0.02243112 0.030354172 0.032023773 -0.05759004 -0.021750426
-0.05084473 0.028995896 0.04015334 0.06430261 0.04978357 -0.055805165 -0.0516379 -0.04642448

transformer.layers.0.output_proj.weight f4 [64, 192]
00000000: 2ca5 703d 3294 eebc 5616 973c 70a8 db3c
00000010: db59 023d e588 83bc 7d9f 103d 5fa0 2abd
00000020: fd19 39bd aad9 283d eb90 d0bb 437f 7abd
00000030: bf5f 033d fec5 8abc 797c be3c 3198 1ebd
00000040: c18a 0fbc a9ce b43c 3b9f 383d 9c2d 353b
00000050: 6d00 edbc 6573 1b3d cb9e 8dbc 52af efbc
00000060: 0fb8 c43c ff56 1dbd e228 553d 5c22 12bd
00000070: d058 55bc 97e0 72bd 4a21 06bc 4816 1ebd
00000080: 0dc6 1fbd c7a0 873d b872 8f3a c812 e8bc
00000090: fd4f 7c3c d7f2 c2bc 2d22 8a3d c4b2 79bd
000000a0: 6f83 f6bb 5d1f b23c 3e2a 013d 81fe 3ebd
000000b0: 0678 5b3d 863a aa3c 2b21 7c3d dee3 563c
000000c0: 27b0 9abd d3d4 85bd 7885 903c b4e8 673d
000000d0: fb21 54bd 2210 aebc a9f3 e6bc 15a8 503d
000000e0: 99f7 35bd 48ac 3abd 59cf 273c c02b 243d
000000f0: 3776 5ebd ef1a 7fbc 6d90 50bd 78d0 d4bc
00000100: fa94 2d3d 7c63 433d d617 5b3d ca8f 65bd
00000110: e194 90bd 5337 e3bb 3579 51bd b769 89bd
00000120: 3f44 073d 51d2 4b39 dfd3 2bbd d7ee 82bd
00000130: c49e 5c3c 6495 953d 9b94 6d3d 2732 0fbd
00000140: 9d70 46bc 814a 57bd ee05 6dbd 080c 55bd
00000150: 1420 b83c 1678 35bc 3d94 afbc 25c6 43bd
00000160: 49e4 83bd 92dc 1b3d b30f f83c 469e 1abd
00000170: 439c 91bc bf5d 27bd 1eaa 9bbd 4c2c 16bd
00000180: 9e7c ad3c 0b55 6fbd 43d8 9c3b b7ed 9a3d
00000190: 111b f3bc 7188 6f3d 1b00 4a3d f377 c3bc
000001a0: 90b9 11bc d01c a1bd fe50 61bd d9d5 7e3d
000001b0: 8814 5a3b b87b 983d 19e2 8a3d 0c7a c5bc
000001c0: f41b 50bc d2ab 863b 429d 8e3c 8ba6 b3bc
000001d0: fc0a c73a 5dd7 19bc aba7 16bd 8984 be3c
000001e0: 3450 30bd e44f 20bc 1f07 18bb 5688 60bd
000001f0: 121d d03c 45b9 e8bc b12e 0f3d 35e6 2c3c
00000200: e93d 13bc fe0e 973d 5407 973c 8b7e 66bd
00000210: 5462 0cbc 2cf9 5a3d d344 09bd e421 2b3d
00000220: f99e 52bd 71e9 7bbd 9d51 0fbd 3e45 b5bc
00000230: 360d 3bbd a3a7 74bd c20a a9bc 51df 003d
00000240: 5e92 283c 0408 18bd 5a0a ebbc 0f66 753d
00000250: 98d5 883d 6414 5b3d 93ae 03bd 87a1 573d
00000260: 9d78 003d 356a 2ebc 82a0 17bd 5674 dd3c
00000270: 6a5b eebc 634c 993d 3f79 8fbd 51ed 66ba
00000280: e669 52ba f7cb 783b 28e0 4ebd d496 24bd
00000290: 4bf1 023d 2116 db3c 77a3 0bbb e123 95bd
000002a0: 4a76 013b b2a7 8b3d a808 633b e158 3dbd
000002b0: 605f 97bb b2ac b53c 71b5 97bd 4f35 31bc
000002c0: 78e6 4dbd 3223 073d 3fdf 9cbc 4e0d 173c
000002d0: 5549 cabb 730d a0bd 2e0b ae3c 5c4f ce3c
000002e0: e962 813d f169 b93c c666 6cbd b271 91bd
000002f0: 523b 3bbc 4b2e 6dbd 80ac 25bd 46ae da3b
00000300: 2faa 473b 4065 453d 2047 583c 6d2f 8f3d
00000310: 68de 563b b443 a33c 71c6 323d 2ed8 66bd
00000320: bf5a 65bc e60f 82bd 19b5 7dbd 32a6 713d
00000330: 03da aebc f86b c83c 120c 8e3d ab92 e2bc
00000340: 1bba c23c f8f9 72bd 50a3 bebc 07d7 40bd
00000350: 55e8 8b3d dcae e7bc ea3c 983c 684a 17bd
00000360: c6ed a0bd ec86 57bd 81ab cabb ab91 ad3c
00000370: 8740 43bd 6125 fa3a 3e9c 12bd 063e 30bd
00000380: 482b 3cbd 9527 913d 08fd 61bd e18f e43c
00000390: d524 7fbd 3205 913c 2ecd cc3a 8110 0bbd
000003a0: 174e 22bd 74d3 7dbd 2e4e a33c a92f 723c
000003b0: 3f69 9a3d 1216 80bc 1d57 bcbc 6a18 8b3d
000003c0: 4cad ba3a 38b0 59bc b9ab b23c f634 093d
000003d0: b976 193d af6b 05bd a853 84bd 53c2 2c3d
000003e0: 2470 06bd 78f0 733d 614e c53b 3f23 d13c
000003f0: c89d 493d 8ed9 7fbd d34c 793d fff9 10bd
0.05875127 -0.0291234 0.018443268 0.026813716 0.031823974 -0.016056487 0.03530835 -0.041656848
-0.0451908 0.041223206 -0.006364932 -0.061156522 0.032073732 -0.016940113 0.023252713 -0.03871936
-0.008761109 0.0220712 0.04507373 0.0027645594 -0.028930867 0.037951846 -0.017287632 -0.029258404
0.024013547 -0.038413044 0.052040942 -0.0356773 -0.013021663 -0.059296217 -0.008186648 -0.038595468
-0.039007235 0.06622463 0.0010944223 -0.028329268 0.01539993 -0.023797436 0.067448 -0.0609615
-0.0075229923 0.02174347 0.031534426 -0.046629433 0.05358126 0.02077986 0.06155507 0.013115851
-0.0755313 -0.065347336 0.017641768 0.056618407 -0.05179022 -0.021247927 -0.028192358 0.050941546
-0.04442558 -0.045574456 0.010242307 0.040080786 -0.054311957 -0.015570386 -0.050918985 -0.025978312
0.042378403 0.047702298 0.05348953 -0.05604533 -0.070596464 -0.0069340854 -0.051140983 -0.06709617
0.03302407 0.00019437938 -0.041950103 -0.06393211 0.013465587 0.073038846 0.05800305 -0.03495994
-0.01211181 -0.052561287 -0.057866983 -0.052013427 0.022476234 -0.011075994 -0.02143299 -0.047796387
-0.06440026 0.03805215 0.030280923 -0.037748598 -0.017774707 -0.040860888 -0.07600807 -0.03666334
0.021177586 -0.058430713 0.0047865226 0.07564872 -0.029675992 0.05847973 0.049316507 -0.023860907
-0.008894339 -0.07866824 -0.05500888 0.06221566 0.0033276398 0.074454725 0.06781406 -0.024106048
-0.012701977 0.004109838 0.01740897 -0.02193 0.0015185769 -0.0093897255 -0.036780994 0.023256557
-0.043045238 -0.009784672 -0.0023197604 -0.05481752 0.025404487 -0.028408656 0.034956638 0.0105529325
-0.0089869285 0.073759064 0.018436112 -0.056273025 -0.008568365 0.053460285 -0.0335129 0.041780367
-0.05142114 -0.061501924 -0.034989942 -0.022127744 -0.045666896 -0.059730183 -0.020635013 0.03146297
0.010288803 -0.03711702 -0.02869146 0.059911784 0.06681365 0.053486243 -0.03214891 0.05264428
0.031365026 -0.010645439 -0.037018307 0.027033012 -0.029096324 0.07485273 -0.07005548 -0.00088091666
-0.00080266444 0.003796337 -0.05050674 -0.040182903 0.031968396 0.02674395 -0.002130715 -0.07282234
0.0019754344 0.06819095 0.003464261 -0.04622734 -0.004619524 0.022177074 -0.07407654 -0.010815932
-0.05026862 0.03299255 -0.01914942 0.009219481 -0.0061732926 -0.07815065 0.021245565 0.025184326
0.06317694 0.022633525 -0.0577152 -0.07101764 -0.011427717 -0.057905477 -0.040447712 0.006673607
0.0030466428 0.048192263 0.013200551 0.069914676 0.0032786373 0.019929744 0.04364628 -0.05635851
-0.013998686 -0.06350689 -0.061940286 0.058996387 -0.02134419 0.024465546 0.06935896 -0.027657827
0.023770383 -0.05932042 -0.023271233 -0.047080066 0.06831423 -0.028281622 0.018583734 -0.036936194
-0.07857852 -0.052618906 -0.0061849956 0.021187624 -0.04766896 0.0019084626 -0.035793535 -0.0430279
-0.045939714 0.07087628 -0.05517295 0.027900638 -0.062290985 0.017702673 0.0015625113 -0.033951286
-0.039625254 -0.061969236 0.01993474 0.014781871 0.07539605 -0.015635524 -0.022990758 0.06791766
0.001424232 -0.013286643 0.0218104 0.033497773 0.03746674 -0.0325734 -0.06461269 0.04217751
-0.03282179 0.0595555 0.0060213064 0.025529502 0.049222738 -0.062463336 0.06086428 -0.035394665
